rf_pipeline/config/results/experiment_2025-11-21_15-42-06/best_hybrid_detector.pt (torch, 203846 bytes, 32 tensors)

cnn.0.conv.weight f4 [16, 3, 3, 3]
00000000: 762f 803e 91b9 58be 9840 81be 2968 893e
00000010: 84bd 003f 189c 253e c255 a5bd e5fe 63be
00000020: 5f79 743e ca1d 253e 03e5 013f f2da 33be
00000030: 3c6f a53e c337 c73e c7cc bf3d fbef 9b3d
00000040: 257d 1c3e 02a7 c23e bfb0 94be 0056 35be
00000050: 96c7 2dbe 1a7a 223c 3ed6 393f 13c5 f13d
00000060: b54c dabe 878c 2dbd 9aec 66be adb4 9a3d
00000070: 077f a03e f323 033e 2dff 033f 950a 8d3e
00000080: 62a5 1abe edf6 c3bd 0ff9 a8be 6705 2a3e
00000090: 74cf 743e 8c4e 133e 7fb8 aabe 4caf a4be
000000a0: 53b4 aebe 2a50 d2be 5b2c 0dbf 62dd 553d
000000b0: bd0f 003f af5c bcbd 124b 97be 35f6 9dbd
000000c0: 7b9b aebd 46b3 603e 9890 9a3e 5cb3 84bd
000000d0: 3ca0 9f3d 4add 87be 879c 333e dc46 fbbd
000000e0: a506 0cbf c661 993e d76a 06be 4e2d d63e
000000f0: cd76 273d 5f89 7b3d 17a3 813e ac05 e0bd
00000100: 8eae e1be 95c3 843e 9db5 91bd de61 d43d
00000110: 18b0 17be 198d 773e 2aae cabd c38d 033c
00000120: 4876 10bf 6510 a0be 7792 ddbd 4b64 af3e
00000130: 6942 00bf 49b5 a4be 311b 143e b3d0 8fbe
00000140: cb91 d8bd 8ae1 d3be b832 1b3d a46b 2b3d
00000150: 45dd 71bc 8072 a5bc 50ba 95be 0b5f aebd
00000160: 7922 853d 86ad f43e 7854 143e 3088 b1bd
00000170: b315 5dbd d7bf c33c 0888 dcbd a4db 54be
00000180: eab5 703e 99f1 003e 779d 75bd cd27 af3d
00000190: fb22 ac3e fd85 653d 77bc 90bd 77db 5ebe
000001a0: 6890 c33c 7465 003e b44f 62be 3f35 fd3e
000001b0: 36c3 873d 1146 c8bc 33b9 8bbe 3658 c9bd
000001c0: c6e2 1c3c 0248 8f3e ccae 923a c8c1 ff3d
000001d0: c18b 1bbe 98f1 b9be b38a afbd 1d3d 27bd
000001e0: b860 9ebd 8b3a 753e 5f02 e23d c83f 913e
000001f0: a16a 02bf 270b b43e c88f ae3e 880c c33d
00000200: 6b87 92bc 4cfe babd 65c4 943e e5a2 473e
00000210: 3b80 003f e73c 2b3e cd7f 323e 977f 953d
00000220: d940 eebd 975f 073f d127 47be 974a 51bf
00000230: ba18 2a3b 4ab1 b2be 3f5c dabe f31e 22be
00000240: 169b dc3a fce6 813f 1ded 8e3e d2f9 333e
00000250: af5b f33e d4f9 35be 77c1 73be 5b51 0e3e
00000260: b66f 873d 52c6 a5be b5d8 8abe 4605 70be
00000270: 74a8 1dbf 39c8 e7be 30d6 8d3e eff0 833e
00000280: aac7 a3be 5550 9f3e 49fc 2bbe 3bb4 66bd
00000290: e177 313d d24b 91be 85a5 17bc 3164 6a3e
000002a0: 4a10 7c3c 2247 ad3d 1654 bd3b f435 b7be
000002b0: b69a e1bd 7b78 62be 526a 83be 0271 08bd
000002c0: a976 49be 35ee 74bd 947e c23d b1cc 613e
000002d0: 90ad d33e ee49 823e 4758 ca3e e9e8 9ebe
000002e0: 31b7 19bb 7c59 863d ffd8 86bc 84c1 fb3e
000002f0: 212d 29bb c5f7 a53e 3e1c c6be 71b8 0b3e
00000300: 36e3 1bbe 29f8 313e 1b0b 703e 227e a33d
00000310: 1c95 d23e 21e6 ae3e 2c91 093f fbd5 8abd
00000320: 53b6 cd3d cb66 a83d fddf 67be 8be2 9b3d
00000330: 8c3c 0dbe f32e 363d fd52 d03c 8d98 da3e
00000340: 99d7 a1be e370 bebd b70d 7dbe 1569 d2bd
00000350: b2c3 6a3c 578c eb3e 9a25 9cbd 1af2 e33e
00000360: 91a1 e7be 9d3e ca3e 8bc9 313f 15ca cf3d
00000370: d45f 00be eba3 18be 34dd afbd 7d6c 51bd
00000380: 0cca 9f3e e12e 553e 05b7 04be 2cb0 463e
00000390: 8a73 e1be 5e12 4b3e 5449 a6be 29a6 dcbe
000003a0: 13af e4be e5a4 243f 5f6c f0bd 50aa 53be
000003b0: 86ff 503a 25fe 053f 7dd2 d8bd b74f 9abd
000003c0: b8fb e13d a560 3abe a3b9 8dbe 480c 4cbe
000003d0: 94cc 25bd 21a6 cfbe ec21 c5bd 38c8 593e
000003e0: f198 5e3e 9685 69be 01fc 473a bcfd ffbd
000003f0: ff8c 7e3e 78ad e5be 9a8d c63d 7161 c53e
0.2503621 -0.21164538 -0.25244594 0.2683728 0.5028918 0.16172826 -0.08072998 -0.22265203
0.23874424 0.16124645 0.5074007 -0.1756399 0.32311428 0.3890973 0.0936523 0.07614132
0.15282114 0.38018042 -0.29041097 -0.17708588 -0.16970667 0.009916807 0.7259253 0.11805167
-0.42636648 -0.042370345 -0.22551194 0.075539924 0.31346914 0.12806682 0.5156124 0.27547136
-0.15102151 -0.09568582 -0.33002517 0.16603623 0.23907262 0.14385432 -0.33343884 -0.3216499
-0.3412195 -0.41076785 -0.55145806 0.05221308 0.50024015 -0.091973655 -0.29549462 -0.07712976
-0.08525749 0.21943387 0.3018844 -0.064795226 0.07794234 -0.26536018 0.17540179 -0.12269375
-0.5469764 0.29957408 -0.13126694 0.4183144 0.04088478 0.061410304 0.2531974 -0.10938582
-0.44078487 0.25930467 -0.07114718 0.10370229 -0.14813268 0.24174918 -0.098965004 0.008029404
-0.5643048 -0.31262508 -0.108189516 0.34256205 -0.50101334 -0.3216956 0.14463498 -0.28088912
-0.10574683 -0.4138301 0.037890166 0.0418507 -0.014762227 -0.0201962 -0.29243708 -0.08514222
0.06500716 0.47788638 0.14485347 -0.08668554 -0.053975772 0.023895187 -0.107681334 -0.20786911
0.23506895 0.12592162 -0.059964623 0.08552513 0.33620438 0.056035984 -0.07067197 -0.21763407
0.02387257 0.12538701 -0.22100717 0.49454686 0.066290304 -0.024447473 -0.27289733 -0.09831278
0.009575551 0.27984625 0.001119101 0.12488133 -0.1519003 -0.36317134 -0.08571377 -0.040829767
-0.077332914 0.23948114 0.110356085 0.28368974 -0.5094395 0.3516476 0.3409407 0.095238745
-0.017886838 -0.091305345 0.29056087 0.19495733 0.50195664 0.16722451 0.17431565 0.072997265
-0.116334625 0.52880234 -0.19448783 -0.8175444 0.002595468 -0.34900886 -0.42648503 -0.15832119
0.0016830887 1.0148616 0.27915278 0.17575768 0.47530887 -0.17771083 -0.2380427 0.13898222
0.06613104 -0.3237787 -0.2711846 -0.23439512 -0.61585164 -0.45269945 0.27702475 0.25769755
-0.3198827 0.31115976 -0.16795458 -0.056324225 0.043327216 -0.2837816 -0.0092557715 0.22889782
0.015384743 0.08460833 0.005777846 -0.3578335 -0.11015837 -0.22116272 -0.25667053 -0.033310898
-0.19674172 -0.059797484 0.09496799 0.2205074 0.41343355 0.2544703 0.39520475 -0.3103707
-0.0023455138 0.065600365 -0.016460894 0.49171078 -0.0025814252 0.32415596 -0.38693422 0.13644578
-0.15223393 0.17379822 0.23441736 0.07983042 0.41129386 0.3415995 0.5373714 -0.06779095
0.10044541 0.08222731 -0.22644038 0.07611569 -0.13792628 0.044478368 0.025430197 0.42694512
-0.316098 -0.09298875 -0.24712263 -0.10273949 0.014328884 0.46005508 -0.076243594 0.44520646
-0.45240453 0.39500895 0.69448155 0.10145966 -0.12536556 -0.1490628 -0.08587113 -0.051128853
0.31208837 0.20818664 -0.12960441 0.19403142 -0.44033462 0.19831225 -0.3247782 -0.4309552
-0.4466482 0.6431411 -0.1173942 -0.20670438 0.0007972646 0.5234092 -0.105870225 -0.07534736
0.1103434 -0.1820093 -0.27680692 -0.1992656 -0.040478304 -0.40556434 -0.09625611 0.21267784
0.2173803 -0.22804865 0.0007628799 -0.12499568 0.24858473 -0.4485891 0.09694977 0.38550904

cnn.0.bn.weight f4 [16]
00000000: 55a4 733f 8710 7a3f 712d 743f 0d4b 793f
00000010: 940d 803f d599 853f a6b4 743f 62c9 723f
00000020: 82fd 903f 91a9 783f 1313 7d3f d169 8c3f
00000030: 400e 7a3f 6189 7d3f 22ca 713f cc7b 803f
0.95172626 0.9768147 0.9538184 0.97380143 1.0004144 1.0437571 0.9558815 0.94838536
1.1327364 0.9713374 0.9885723 1.0969793 0.97677994 0.9903775 0.94449055 1.003778

cnn.0.bn.bias f4 [16]
00000000: 33da 62bd 5459 28bd f30e 2bbd b3c4 a0bc
00000010: 9f0a 87bd f094 6dbd a319 9abc 0cba 82bd
00000020: 32bc 71bb 923f 99bd 2ba2 2ebd ff84 b4bd
00000030: 552b 49bd e91d fdbc 2ca1 02be 25f7 66bd
-0.055383872 -0.041100815 -0.041762304 -0.019625043 -0.06593823 -0.058003366 -0.018811053 -0.06383142
-0.0036885855 -0.07482828 -0.042635124 -0.088144295 -0.04911359 -0.030898051 -0.12756795 -0.05638804

cnn.0.bn.running_mean f4 [16]
00000000: e85e 533f d101 51bd c829 87be 1460 4f3d
00000010: fd16 9a3e d1f5 91be edc4 c3bd 92a4 313f
00000020: dcec 0dbc 5fc9 b1bd a3d4 be3e a4b5 da3b
00000030: 565e 873f e86f 42bf 2ddc 203f a996 a1bd
0.8256669 -0.051027123 -0.26399064 0.050628737 0.30095664 -0.28507856 -0.09559045 0.6939174
-0.008662429 -0.086809866 0.37271604 0.0066744853 1.0575664 -0.75952005 0.6283596 -0.07890064

cnn.0.bn.running_var f4 [16]
00000000: a412 033e 113a 223d 62b7 5f3e d268 2d3d
00000010: bcbc 453e 6859 b23e e94c f33d 255c 133e
00000020: 0594 873d 69f0 da3c d347 1a3e ba9c 6f3c
00000030: e7a7 f03e 9887 363e d97a 233e 88d5 fb3d
0.1280008 0.039606158 0.21847299 0.042336293 0.19310278 0.34833837 0.11879904 0.14390619
0.06620029 0.026725965 0.15066461 0.014624769 0.470031 0.17825162 0.15964831 0.12296587

cnn.2.conv.weight f4 [32, 16, 3, 3]
00000000: 5fee bf3d 29b2 3bbd af09 4c3d d202 f7bd
00000010: ae0f 863b bc48 cfbd 1367 4a3c 5293 adbe
00000020: 0833 fe3d 99d0 873d 4566 a43e 4b02 c6bd
00000030: 4eac 06be 46d3 af3d d273 c5bd 79a8 60bd
00000040: 0a7d 243e 500b 193e 9fda 0ebc 1fc5 1bbc
00000050: 92b7 113d 5c31 863e 4743 8bbd 0f43 18bc
00000060: c5db c43c de0c f33d 4d3f 533e 60ee 94bd
00000070: 1e7a 05be f4fa 4b3e 3b6d 0e3d 57ac 2bbe
00000080: 0bc9 56bc 7e06 733d 5af6 4f3e a729 5fbe
00000090: 0344 873c 6b09 4abd 4a04 90ba 96ab 98bd
000000a0: 84e8 a63c 6897 c5bc 7825 b0bd d9d3 0dbe
000000b0: 96d8 8f3d 94f4 4f3d 4527 57bb aed0 7c3d
000000c0: ba3f 003e 6dab 38bd 427b 743c 3e07 343e
000000d0: 03c7 9b3c 70d9 a13c ba76 1c3e 9362 2abe
000000e0: fc2b e83d a8b8 bc3d c36e 243d ebdc 1fbe
000000f0: 1503 a1bd 2ca0 e23c 0fb3 043e 9a89 5b3e
00000100: c978 1bbd 8fda 0c3e 22f4 d3bd 4fbe 38be
00000110: 720f 173d 2040 d4bd 6cbb bcbd 568b 823c
00000120: 94f5 253e 6deb 39bd 2b4f bfbc 7b6c f9bc
00000130: b9cb 16be 564b 023d c484 b73d 854a 013e
00000140: d6d5 f63c da84 893c 9a32 933d b9cf 7b3d
00000150: 2dcd f7bb 103c 5fbd afe0 ba3d 0d65 4bbe
00000160: 3a59 0abc e713 753d b811 52be a338 1fbe
00000170: b685 fdbd eaa9 77be 4d24 b63d c885 d6bd
00000180: 28ef 8cbd 13d3 be3d 9461 84bd c6f7 523d
00000190: 3a5e 48be f7b4 17be dc91 82be 04db 483c
000001a0: bc81 4a3e fd63 b23a 4e70 8d3c 544b 54bd
000001b0: 4d18 443c 2bd9 aabd 57d5 38bd 3df0 6ebc
000001c0: 10ea fabd 1b00 923d 8497 bdbe c06f 2cbe
000001d0: 8a48 5fbe 2432 d4bd 5889 8b3e 31ef af3e
000001e0: 8238 f83d fdc9 0d3e eafd e53d 685a 2fbd
000001f0: 3e25 fbbd 928a 413e c1ff 51be 4151 bebd
00000200: 1f6a aabd f575 8d3d 4115 7abe c369 533d
00000210: a6e8 433e ce5c 24bd 874b d63d a3bf 1bbe
00000220: ad75 debc 3bf5 40be 6756 85bd 9cfd 703d
00000230: 404d 123e b099 7cbe 3c06 bf3d 9f6b 53bb
00000240: e71f 94bd cfaf d5bc 872d c8bd 35a0 44be
00000250: 31e4 113e bf51 98bc 976b bfbd 6402 dfbd
00000260: 5bd1 29bc c172 c13d 077d 163d d330 263e
00000270: 9d83 7f3d f660 61bc 1900 71be e490 b7bd
00000280: 405f c7bd 523a 0c3e efb4 d3bc ca5d 553d
00000290: 74f5 0bbe 3811 1ebe a4a5 20be b5da 24be
000002a0: 6e05 583c 14ad 2e3d 3005 f03c dd8d c93d
000002b0: 25da 36bd 89c1 883d b6f4 073d 2107 08bc
000002c0: ae45 613e 00dc 75bd 011f 46bc 3df8 18bd
000002d0: 4088 f03d f9b4 8cbd a5bd 89bd 5603 713d
000002e0: 7d30 003d 2625 403d 205a f83d 558a b6bc
000002f0: 81d9 93bd b13e 20bc 7046 59be 0dab 16be
00000300: 17ee 2b3e d258 873d df44 02be ec1c d83a
00000310: 1474 abbd e944 27bd 761e 453e 5876 5d3e
00000320: 7087 1bbd eb39 6c3e d99b 8dbc 2c0d f7bd
00000330: 28a0 8cbd e3e5 863e ca86 fe3d d0be 393c
00000340: 2b83 f8bd 5752 313e a923 9e3d fcd7 5d3d
00000350: 5e19 603d 7968 22be 709c 123e 7dbe fb3d
00000360: 2dfd 67bd ac2d 21be 9fd3 72be 640e 1ebe
00000370: b893 a8bd 3c0b 37be 43a4 e0bc 741e b73d
00000380: 7df0 2abc 7fe4 5ebd 245d 673e 3db7 033d
00000390: c86a 263e c19a 4cbc 84be 133e 5418 82bc
000003a0: a58c 95bd 603d 2abc 1b36 1d3d 34b0 52bd
000003b0: 5c39 b33d 73d5 043d 468f 6fbc 2cf0 5abe
000003c0: a247 be3c bb7c 153e feee c0bd 6ae8 dc3c
000003d0: 70c8 0abd b350 a03c 9eba 983d 71a8 76bd
000003e0: de8e 29bc 92be d43d 5516 9abc 74f7 80bd
000003f0: 1c34 1b3c 8cee 2ebe 68ca 58bd 9290 12be
0.093716376 -0.045824204 0.049813922 -0.12061085 0.0040912246 -0.10121295 0.012353676 -0.3390146
0.12412077 0.06631584 0.32109275 -0.09668406 -0.13151667 0.08585219 -0.096412316 -0.054848168
0.16063324 0.14945722 -0.0087191155 -0.009507447 0.035575457 0.26209533 -0.067999415 -0.009293332
0.024030576 0.118676886 0.20629616 -0.07272029 -0.13034865 0.1991995 0.03477214 -0.16764961
-0.013109456 0.059332363 0.2030882 -0.21793233 0.016511923 -0.049325388 -0.0010987606 -0.074546024
0.020374544 -0.024120048 -0.086008966 -0.13850345 0.07023732 0.050770357 -0.0032829803 0.06172245
0.1252431 -0.04508536 0.014921965 0.17580888 0.019015795 0.019757003 0.15279666 -0.16639166
0.11336514 0.09214908 0.040144693 -0.15611617 -0.07861916 0.027664267 0.1295893 0.2143921
-0.037956987 0.13755248 -0.10349299 -0.18041347 0.036879964 -0.103637934 -0.092154354 0.015935581
0.16206962 -0.045390535 -0.02335318 -0.030447235 -0.14726152 0.031810127 0.0896087 0.12626083
0.030131262 0.016786981 0.07187386 0.061477397 -0.0075623007 -0.05450064 0.09124886 -0.19862767
-0.008444125 0.059833433 -0.20514572 -0.15548949 -0.12379019 -0.24185911 0.088936426 -0.104747355
-0.06881553 0.09317603 -0.06463924 0.051505826 -0.19567195 -0.14815126 -0.25501907 0.012259249
0.19776052 0.0013610121 0.017265465 -0.05182965 0.011968684 -0.08342203 -0.04512533 -0.014583644
-0.12251675 0.07128926 -0.3702966 -0.16839504 -0.21805015 -0.10361126 0.27253222 0.34362176
0.12120153 0.13846584 0.11230071 -0.042810827 -0.12262963 0.18900517 -0.20507719 -0.09292842
-0.08321022 0.06907264 -0.2442217 0.051614534 0.19131717 -0.040127568 0.104636244 -0.15209822
-0.027155722 -0.18843548 -0.065106206 0.05883561 0.14287281 -0.24668002 0.09327361 -0.0032260192
-0.072326474 -0.026084809 -0.09774309 -0.19201739 0.14247204 -0.018593667 -0.09346693 -0.10889128
-0.010364856 0.09445716 0.03674033 0.16229562 0.062381376 -0.013756027 -0.23535194 -0.089631826
-0.09734964 0.13694122 -0.025843112 0.052091397 -0.13667852 -0.15436256 -0.15688187 -0.16099055
0.013184888 0.04264553 0.029299349 0.098415114 -0.044641633 0.06677539 0.03319236 -0.008302481
0.21999237 -0.06002426 -0.012092353 -0.037346113 0.117447376 -0.06870455 -0.06725625 0.058841072
0.031296242 0.046910428 0.12126565 -0.022282759 -0.0721922 -0.009780572 -0.21218276 -0.14713688
0.16790043 0.06608738 -0.12721585 0.0016488112 -0.083717495 -0.040837202 0.19249901 0.21627176
-0.03797096 0.23068969 -0.017286228 -0.12063059 -0.06866485 0.26347265 0.12428053 0.011336997
-0.12134393 0.17316566 0.077216454 0.054161057 0.054711692 -0.15860166 0.14317489 0.12292192
-0.05663793 -0.15740079 -0.2371354 -0.15435177 -0.082313 -0.1787538 -0.027422076 0.08941355
-0.010433313 -0.05441713 0.22594124 0.03215717 0.16251671 -0.012488068 0.14428145 -0.015880741
-0.073022164 -0.0103906095 0.038381677 -0.05143757 0.08751175 0.032430124 -0.014621561 -0.21380681
0.023227517 0.14598362 -0.09420584 0.026966292 -0.03388256 0.01956973 0.074574694 -0.060219232
-0.010349004 0.10387911 -0.018809477 -0.06297198 0.009472873 -0.17083186 -0.052927405 -0.14312962

cnn.2.bn.weight f4 [32]
00000000: e318 7e3f a687 813f 0a7c 7d3f 8004 783f
00000010: 3f03 743f 5454 803f 151f 813f 6dfe 7e3f
00000020: 22a6 913f d948 7c3f fac5 723f 69ee 823f
00000030: 80fc 803f 2016 7c3f ff84 7e3f 1477 733f
00000040: 9efe 873f c1b2 7f3f 6a3e 803f 34e6 843f
00000050: 6ba4 833f 9fb4 7f3f 1d3a 843f 7083 843f
00000060: 764c 7f3f 4432 803f d387 763f 665e 803f
00000070: 2df0 7f3f 7657 7a3f 3a25 773f 3ba4 7c3f
0.99256724 1.0119522 0.99017394 0.96881866 0.95317453 1.0025735 1.008761 0.9960697
1.1378825 0.98548657 0.9483334 1.0229007 1.0077057 0.9847126 0.99421686 0.95103574
1.0624578 0.9988213 1.0019047 1.0382752 1.0284551 0.9988498 1.0330235 1.0352612
0.99726045 1.001534 0.96301 1.0028808 0.99975854 0.97789705 0.9654118 0.98688096

cnn.2.bn.bias f4 [32]
00000000: 7085 fd3b 00b8 60bd 49c2 70bd 1310 85bd
00000010: 75df 10bd 2b6b 3f3d 3a2f 2dbd 7dd3 8dbd
00000020: cacc 043d fabd f4bc 1567 49bd 306c 4cbd
00000030: bb08 e13c 621b e33c cbf3 7cbd 0113 83bd
00000040: 16ed b9bb f82e 19bd cba4 9cbc 4c5c 123d
00000050: d3f4 803c 7723 5cbc 4103 02bd 914a 15be
00000060: 8be1 6abd 966a ab3c b45d 8ebd bdcc 43bd
00000070: 353b 06bd eb30 8dbd 7876 50bc 8e2d 95bd
0.0077368543 -0.054862976 -0.058779035 -0.064972065 -0.035369355 0.046733063 -0.042281367 -0.06925104
0.032421865 -0.029875744 -0.049170572 -0.049907863 0.027469983 0.027723018 -0.061755937 -0.06400109
-0.005674015 -0.03739831 -0.019121548 0.035732552 0.015741741 -0.01343619 -0.031741384 -0.14579226
-0.057344 0.020924848 -0.06951466 -0.047802676 -0.032771308 -0.06894096 -0.012723558 -0.072840795

cnn.2.bn.running_mean f4 [32]
00000000: 4a85 01bf c221 56bf 9fd7 cfbd 5078 1140
00000010: e648 ee3e 4505 2d3e bb36 c0be e976 97bf
00000020: d998 b8be ff13 dd3d 3b52 14bf 9891 023f
00000030: c55d a1bf b881 293f 0bfc a2bd d857 37be
00000040: 6166 cf3e e686 0dbf 5330 ac3f 76d8 433e
00000050: 89e6 3ebf da7e 33bf dd7d 07be d807 f7be
00000060: 1fef 983f e12a f63d 482c e0bc 6b9a 93bf
00000070: 82fe 1abe c90d 8bbf cc88 1bbf d37b 28bf
-0.5059401 -0.8364526 -0.10148548 2.2729683 0.46539992 0.16896541 -0.37541756 -1.1833163
-0.36054114 0.107948296 -0.57937974 0.5100341 -1.2606741 0.6621356 -0.0795823 -0.17904603
0.40507796 -0.55283964 1.3452247 0.19125542 -0.7457052 -0.70115435 -0.13231607 -0.48248172
1.1947974 0.12019897 -0.027364865 -1.15315 -0.1513615 -1.0863582 -0.6075561 -0.6581394

cnn.2.bn.running_var f4 [32]
00000000: b7e9 5f40 12ca 2c40 346c 833f b1f0 1040
00000010: 27f9 a63f 5e99 da3f d8c3 833f 6933 883f
00000020: a67e 853f 9b07 c03f 1202 5c40 07a1 4f3f
00000030: 60dd 1340 006f cc3f bb94 d43f f795 c03f
00000040: 375b 823f cba3 533f 99c1 2a40 1755 a13f
00000050: c5cc f53f 553f 0240 2ba9 633f fc7b 293f
00000060: 741a d93f b3c2 6c3f 09be 4f40 450d 1e3f
00000070: 8218 243f dc97 ae3f e330 0b40 2c8a 9d3f
3.4986398 2.6998334 1.0267396 2.2646906 1.3044785 1.7078054 1.0294142 1.0640689
1.0429275 1.5002321 3.4376264 0.81105083 2.3103867 1.5971375 1.6607889 1.5045766
1.0184087 0.82671803 2.6680663 1.2604092 1.9203116 2.0351155 0.88930005 0.6620481
1.6961198 0.9248459 3.2459738 0.61739 0.64099896 1.3640094 2.1748588 1.2307792

cnn.4.conv.weight f4 [64, 32, 3, 3]
00000000: b27e d83d 3328 003e 6b68 d9bd 6f29 7dbd
00000010: 3382 bcbc 0433 02bb 755f 50bd 1421 c2bd
00000020: d065 eb3d c3de 8f3d 5fcb 87bc 6c48 1c3e
00000030: ad59 11bd a9fd bb3c 033f 023d fb00 fcbc
00000040: c935 b43c 91e1 a83c 14bb 3c3d 7281 81bd
00000050: 019e a73a e388 a0bd c426 9f3c dc52 f4bc
00000060: 8e26 edbd eacd 8abd 2261 14bd 2be0 8e3d
00000070: 3549 ca3b 6eb8 0a3c 0d93 cfbd 3d6e cabd
00000080: 7fe3 00be 4168 2c3d 9774 0d3d d921 df3c
00000090: fe60 a43d ffe2 4c3d 95a1 123e c3fa 9cbc
000000a0: e807 7dbb 31fd 883d 99f3 dbbd bb9d d23d
000000b0: 67f7 c53d fbf1 babc c5e6 2c3d ee21 543e
000000c0: 8d68 65bd 6a3a f53c 799b c5bd a26a 943d
000000d0: 5af5 323e c658 37bd 105c d0bc 7655 2b3e
000000e0: 54db 02be 87bd 933d 0025 fc3c 1641 9cbd
000000f0: e9d2 e9bb baa7 4a3e e5af 9d3d cfd0 6c3d
00000100: ea11 23bd 69a4 e33c 8cf4 c73b 62b9 06bd
00000110: a4ef 813d e948 a03d 40b3 2bbc b866 b6bd
00000120: 7a78 3bbd e7cd 2d3d fd67 393e 2a09 8abd
00000130: a2f7 2dbe 86fd 283d 085c 3ebe ffe5 5cbd
00000140: ee5b dc3b 2043 edbd 5c1d 8e3d eb8c 8dbe
00000150: 0d5b 2e3d cc98 d5bd 104a 713d b6ab 643c
00000160: 768c 1b3e 1577 483c cf5f 953d 2b51 1abd
00000170: f484 00bd 2501 18bd 860f 623e 3a53 cabc
00000180: 1b1f 24be 7aff babd eb02 8dbd 2327 51bd
00000190: d5da 1cbe 44e9 d3bc 5019 12be 037d 91bd
000001a0: d3ad 053d 5ff3 823d d17e bcbd 2a1a ef3c
000001b0: e095 28bd 18c4 7abd 55d3 9ebd aa69 ccbd
000001c0: 3584 59bd 80cc 103c a3d3 aebd 24fc 32bc
000001d0: 2536 83ba 2c6c c43d 02f1 46bd 98ce 71bc
000001e0: f76b 283e a466 2c3d abd1 4e3d 8392 b83c
000001f0: 589b d03a af51 4bbd bb7e f03d 52c0 a13c
00000200: 90cf 7fbd 55f2 b6bd 97a1 5bbd dbf7 cbbd
00000210: c021 debd de3b a83d 5c4d 203e 1d5e dcbd
00000220: c2d5 e7bd 5dfb 403d e62d f4bd b333 bcbc
00000230: f64b 9ebd 8d8c bfbd a2a4 80bc 9323 5b3d
00000240: a19b ccbd 9324 a7bc 7e54 893d a7dc d73d
00000250: fcac 463b 4f0c 5abe 7e7a 91bc 7da3 ddbd
00000260: 9402 55be 5096 e33d 45f6 663b 6592 1d3c
00000270: f99d 91bb 664f 783d 100e 57be b311 51bd
00000280: 2318 b3bc c812 803b 12e8 84bd 281f 473e
00000290: 575e 8c3d e33f 42bd c92e 563d c89c c33d
000002a0: d4fb 9cbd b526 7a3d e59f c83d 9ff3 4f3d
000002b0: a9ea a0bc 7b8a 9ebc 941f ed3c 3dda 80bc
000002c0: 0a6c 07be e471 d3bd 85d3 23be fdd3 ad3c
000002d0: 6084 0cbe b1c0 b53d aa93 b3bc 95ea 413e
000002e0: 2446 63be 67dc 7c3d b447 11be 5cfc d2bb
000002f0: 7ab4 a33c 93fd 02be cf13 403d 3248 013e
00000300: f64a 9a3d f456 183e c5b2 9abd a91d 973c
00000310: caf1 33be 1245 913d 2417 b83d c8b8 b23d
00000320: 0a0f 1fbe 9d5e 61bc d8d4 43be 20ec cc3d
00000330: 87fe 8c3c 996e 4ebd df21 6ebb 1a68 dc3c
00000340: 07a5 2cbe e53f babd bb19 023b 2db3 e43d
00000350: dac8 abbd ccc9 06be d932 fb3d 0cb4 bbbd
00000360: 3f53 2e3e c7f1 cd3d b7a6 6a3e 7a3c e3bd
00000370: acea c2bd 7c67 a83d a9df 1ebd 7b64 5abd
00000380: df5b 0ebd e18b 97bb e532 db3d f1d2 4d3d
00000390: b5d1 183d aeee 083e a0eb efbd 0a00 493d
000003a0: 2502 18be d464 3a3d f4d8 04be b2fe 933d
000003b0: fcbe ccbd c412 1ebe d8fc 0a3d 25e8 b83d
000003c0: 4633 463d b60b cbbd 9dde 0dbe fead 97bd
000003d0: 0edc 013e 42d7 c63d eaa5 333e c351 04bd
000003e0: a20a f53d e7eb ba3b 1d33 da3c 6bec a43d
000003f0: 0df7 5c3c ffc2 793d 2cee e23d 0bfd 343e
0.1057104 0.12515335 -0.10615619 -0.061807092 -0.023011303 -0.0019866833 -0.050872285 -0.094789654
0.114940286 0.0702491 -0.016576467 0.15262002 -0.035485912 0.022948103 0.031798374 -0.030762186
0.021998303 0.020615371 0.04607685 -0.06323518 0.0012788178 -0.07838609 0.019427665 -0.029824667
-0.11579619 -0.06777556 -0.036225446 0.069763504 0.0061732777 0.008466823 -0.101354696 -0.098843075
-0.12586783 0.04209161 0.034535017 0.02723782 0.08026312 0.050021168 0.14319451 -0.019162541
-0.0038609449 0.066889174 -0.10739822 0.10283991 0.09666329 -0.022820463 0.042212266 0.20716068
-0.05600791 0.02993508 -0.09648795 0.07246901 0.17476407 -0.044762395 -0.025434524 0.1673182
-0.1277898 0.07213884 0.030779362 -0.07629602 -0.007135738 0.19790545 0.07699565 0.057816323
-0.039812006 0.027788358 0.0061021503 -0.03289164 0.06344536 0.078264065 -0.010479748 -0.08906311
-0.045769192 0.042432692 0.18106075 -0.06740029 -0.16988996 0.041257404 -0.18589795 -0.05393028
0.006724826 -0.11585069 0.069391936 -0.27646574 0.0425673 -0.10429534 0.058908522 0.013956955
0.151903 0.012235423 0.07293665 -0.037675064 -0.031376794 -0.037110467 0.22076234 -0.024697889
-0.16027491 -0.091307595 -0.06885322 -0.051062714 -0.15317853 -0.025868066 -0.14267468 -0.07103922
0.032636475 0.063940756 -0.09203876 0.02918728 -0.041158557 -0.061222166 -0.07755152 -0.09981091
-0.053104598 0.008837819 -0.0853646 -0.010924373 -0.0010010643 0.09590945 -0.048569687 -0.014758728
0.16447435 0.042090073 0.050492924 0.0225308 0.0015915437 -0.049638446 0.11742922 0.019745026
-0.062453806 -0.0893294 -0.0536209 -0.09959384 -0.10846281 0.08214544 0.1565451 -0.10760138
-0.11320068 0.04711472 -0.11922817 -0.02297387 -0.07729332 -0.0935298 -0.015703503 0.053500723
-0.09990621 -0.020403182 0.06705569 0.10540133 0.003031551 -0.21293758 -0.017758604 -0.108221985
-0.20801765 0.11112654 0.0035242003 0.009617423 -0.0044438806 0.060622595 -0.21001458 -0.05104227
-0.021862095 0.003908489 -0.064895764 0.19445479 0.068539314 -0.04742421 0.05229071 0.09551388
-0.0766522 0.06107207 0.097961225 0.050769445 -0.019643145 -0.019353142 0.028945722 -0.015729064
-0.13224807 -0.10324457 -0.15998657 0.021219248 -0.13722372 0.088746436 -0.021920998 0.18937142
-0.22194725 0.06173363 -0.14187509 -0.006438775 0.019983519 -0.12792043 0.04689389 0.12625197
0.07533829 0.1487692 -0.07553629 0.01844676 -0.17572704 0.07093252 0.08988789 0.087266505
-0.1553308 -0.013755468 -0.19124162 0.10005975 0.017211212 -0.050398443 -0.0036336107 0.026905108
-0.16859828 -0.09094218 0.0019851762 0.111669876 -0.08387919 -0.13162917 0.12265558 -0.091652006
0.17023943 0.10055881 0.22915159 -0.11095519 -0.09517416 0.08222863 -0.038787518 -0.053318482
-0.034755584 -0.004624829 0.10703067 0.050249998 0.037309367 0.13372299 -0.11714864 0.049072303
-0.14844568 0.045506313 -0.12973386 0.07226314 -0.09997365 -0.15436846 0.033932537 0.09028653
0.048388742 -0.09914343 -0.13854451 -0.07406233 0.126816 0.09709026 0.1754376 -0.032304537
0.11964919 0.0057043913 0.0266357 0.08052906 0.013486636 0.06097698 0.11080584 0.17674653

cnn.4.bn.weight f4 [64]
00000000: ea86 853f 9114 863f 468a 863f c4c9 843f
00000010: 28c2 883f fc6d 8d3f 4aa7 7f3f d99a 893f
00000020: 693c 7c3f 6c15 843f ff9a 793f 2264 773f
00000030: 8a19 8b3f 814d 823f 426e 8a3f 975f 823f
00000040: 33e9 773f 50fc 843f 32c9 8d3f 7d1b 883f
00000050: c881 833f af3e 843f a516 7b3f 17e9 853f
00000060: a012 7d3f eb98 823f de8a 7e3f 176e 853f
00000070: 4cf3 843f 8902 7d3f 495e 8c3f a15e 803f
00000080: 5e86 873f 91a0 7f3f a9c6 803f b3ef 853f
00000090: 2522 863f 1051 833f 9086 813f b631 863f
000000a0: 4cb8 823f 3505 833f 70bc 823f 1315 803f
000000b0: afb6 853f 7a9f 7e3f 98fb 833f 968d 7c3f
000000c0: d8e9 7c3f d624 7f3f e709 903f 4d98 823f
000000d0: a601 833f 0a0d 823f a8b6 7c3f 7ad6 7c3f
000000e0: 1f9b 813f 6877 853f 03ca 7a3f b727 7e3f
000000f0: 1ad4 833f 5ed5 813f 9026 8d3f af81 7b3f
1.0431798 1.0475026 1.0510948 1.0374074 1.0684252 1.104919 0.9986464 1.0750381
0.9852968 1.0319037 0.9750213 0.96637166 1.0867169 1.0179902 1.0814898 1.0185422
0.9684021 1.03895 1.1077025 1.0633389 1.0273981 1.033163 0.9808143 1.0461758
0.98856544 1.0202917 0.99430645 1.0424222 1.0386748 0.98831993 1.0966274 1.0028878
1.0587881 0.9985438 1.0060626 1.0463775 1.047917 1.0259113 1.011919 1.048392
1.0212493 1.0235964 1.0213757 1.0006431 1.0446376 0.9946209 1.0311155 0.98653543
0.9879432 0.9966558 1.1253022 1.0202729 1.0234878 1.0160229 0.9871621 0.98764765
1.0125464 1.0427065 0.97964495 0.9927935 1.0299103 1.014324 1.1027393 0.98244756

cnn.4.bn.bias f4 [64]
00000000: 320f 363d c4c6 983d ef73 20bd 93e4 9c3b
00000010: b931 59bd a4a8 d8bc 3f21 b13c e782 89bc
00000020: a4ce 343b 4abc ce3c f9fa be3a 126e c2bc
00000030: b593 473c 59c5 cd3c 0f8b 5abd ec20 a2bc
00000040: 98ed bdbc 6965 b8bb 0e86 8fbc c6ca 2fbd
00000050: 4969 9fbc 5949 9abc e469 dbba aa05 71bd
00000060: 85ef 76bd 212c 0e3d 42e6 84bb 5b93 ce3b
00000070: 18b9 6dbc c76e 1bbc 760d 55bb fce3 513b
00000080: 0792 8c3c a6b8 83ba 7f65 0fbc 4f4d 6b3d
00000090: 4f05 4fbd 4a02 1f3a 1da8 8dbb 56c2 463c
000000a0: ea5a 053d a08c 12bd 1150 253d c26d 19bc
000000b0: b64e c7ba c3c3 a13b b7e3 393c b9f5 a5bc
000000c0: 6fba cbbb e618 4dbc 9f8f e3bc 1433 c3bd
000000d0: 2185 d33b ec96 0abd 50b9 41bc 84af db3b
000000e0: 7b39 073d 81ba 8b3c aa80 05bb 8a32 08bd
000000f0: b63c e03c f011 83bd 073c 17bc 5fd7 9fbc
0.044448085 0.074597865 -0.039173063 0.0047879904 -0.053025935 -0.026447602 0.021622298 -0.016786052
0.0027588988 0.025236268 0.0014570645 -0.023734126 0.012181212 0.025118517 -0.053355273 -0.019791089
-0.023184583 -0.0056273234 -0.017519977 -0.04291799 -0.019459384 -0.018833803 -0.0016739932 -0.058843292
-0.060287017 0.034710053 -0.004055769 0.0063041872 -0.014509462 -0.009486861 -0.0032509244 0.0032026758
0.017159475 -0.0010049536 -0.008752226 0.057446774 -0.050542172 0.000606571 -0.004323019 0.012131294
0.032557406 -0.03577864 0.04035956 -0.009364547 -0.0015205953 0.0049366667 0.011345795 -0.020258771
-0.006217293 -0.012518143 -0.027778445 -0.09531227 0.006455079 -0.033835337 -0.011823967 0.0067042727
0.033013802 0.017056705 -0.002037088 -0.033251323 0.0273727 -0.06399906 -0.00923062 -0.019511877

cnn.4.bn.running_mean f4 [64]
00000000: 2209 a1be 74ea bf3e 4ed3 1a3f 33f6 d83f
00000010: 4be6 0e3f dada aabf 3b78 15bf 27df e83d
00000020: 8f7a a83f 69ed 903f 8abb db3f a7b9 45bf
00000030: 6074 50be 98cf 123f 6e99 dd3f 82fe 1b3f
00000040: d456 b6be dfb4 fb3b f38d 5b3f 41f4 0940
00000050: b4f5 84bf b583 e13e 2e04 a03f 9bb7 e2bf
00000060: 28a4 60bf e04f a23f 12d9 06bf 54d3 183f
00000070: f3e3 74bf 62f3 5bbf 721b b33e 1e44 15bf
00000080: 9ac4 aa3f cdd4 6b3f 849a 593f 0956 973f
00000090: 00b7 f23c 345d 943f fa62 c03e a27f 02c0
000000a0: 5333 033f cdc2 7e3f 44df 79bf 6dff aabf
000000b0: 4ae4 fabe 8d12 7fbf 8af1 023f 3d0d a33f
000000c0: 166b 8a3f 1dc9 b8bf 8224 95bf 7fcb 68bf
000000d0: 6ad4 f43f c04e ffbf fb77 233e ba10 d9bf
000000e0: a9a6 353f b7b6 273f 37c7 c23e 446f 0f40
000000f0: 5804 a93f b80c acbf f70c 86be ff7d 99bf
-0.3145228 0.3748356 0.60478675 1.6950134 0.5582015 -1.3348038 -0.5838658 0.11370688
1.3162402 1.1322452 1.7166607 -0.7723641 -0.20356894 0.5734801 1.7312448 0.60935223
-0.3561312 0.0076814736 0.8576347 2.155533 -1.0387483 0.44045797 1.2501276 -1.7712282
-0.8775048 1.2680626 -0.52674973 0.5969746 -0.9566032 -0.8591825 0.34981877 -0.58307064
1.3341248 0.92121583 0.850014 1.1823131 0.029628277 1.1590943 0.37575513 -2.03904
0.5125019 0.9951599 -0.976063 -1.33592 -0.49002296 -0.9963768 0.5114981 1.2738415
1.081393 -1.4436375 -1.1651766 -0.9093551 1.9127324 -1.9945908 0.15963738 -1.695823
0.7095743 0.65513176 0.38042614 2.241166 1.3204451 -1.3441381 -0.26181766 -1.1991576

cnn.4.bn.running_var f4 [64]
00000000: 3987 ab3f a83f a03f c2c8 5640 ec95 1640
00000010: 0612 a53f c196 3840 0e29 c03f 7b87 cf3f
00000020: be0a bd3f e7fe 0640 f822 823f c4d8 993f
00000030: 659f 0140 34eb b33f a579 0a40 873a d03f
00000040: 024d 6940 962c 0e40 20b5 da3f 9e7d 9b3f
00000050: 2652 1040 abb7 bc3f e0db 2e40 5b10 1840
00000060: a5fc ed3f dd53 e13f 85a9 0640 3ae6 6840
00000070: 3ff8 8340 56da 4740 ce42 e73f ddff fd3f
00000080: 2c07 cd3f 31b0 e73f 8207 be3f a9ab 4740
00000090: 37bb da3f d2a9 4440 93c7 f23f 81ec 1b40
000000a0: 28e8 b93f 5d74 e43f 8db0 f93f ca92 3840
000000b0: c379 6040 c568 ef3f 0f9b 9c3f c7fb 0c40
000000c0: 80db b43f 54ec 1340 469b ff3f 2dce 3240
000000d0: 9e61 2940 393b 5540 3b0f bb3f 3dd4 0840
000000e0: 153d be3f 74ba d03f 3bf3 2940 b1ed 9f3f
000000f0: b5cf 8a3f 7c17 1840 792e e73f efa6 ba3f
1.3400642 1.2519426 3.3560033 2.3529005 1.2896125 2.8842013 1.5012529 1.621322
1.4768903 2.109308 1.0166922 1.2019277 2.0253537 1.4056153 2.1636746 1.6267861
3.6453252 2.2214713 1.7086525 1.214771 2.255014 1.4743551 2.73217 2.3759983
1.8592726 1.7603718 2.1040967 3.639052 4.1240535 3.1227012 1.8067262 1.9843708
1.6017814 1.8100644 1.4846041 3.1198523 1.7088383 3.072865 1.8967155 2.43631
1.4523973 1.7848011 1.9507004 2.8839593 3.5074317 1.8703848 1.223482 2.2028673
1.4129486 2.3112993 1.9969261 2.793834 2.646583 3.3317397 1.4614023 2.137954
1.4862391 1.6306901 2.6554706 1.2494413 1.0844637 2.3764334 1.8061057 1.4582194

mlp.net.0.weight f4 [64, 32]
00000000: 3431 043d 4390 57bd 1161 713e 0008 98bc
00000010: 36f9 063e 8ab2 f6bd 85af ee3d 94dc 2a3e
00000020: a019 55be 5c76 543e 12bf 383e 30a3 bd3d
00000030: 634a 273e a3b1 db3c 2a71 b13d b44f 84be
00000040: eba7 243e c768 6c3e d08c 45be 04f2 4fbe
00000050: 3e07 473e b4c1 f43d 2062 f53d 5851 febd
00000060: b6dd 24be fa1d 74be 26af 6cba 1390 5ebe
00000070: afbb f73c 3cc5 003b 46dc 77be be9d 43be
00000080: 0912 55bc fa0a d13c 60c1 acbc 92e1 bf3d
00000090: 567f 04bd d28c 80be 0cac 2bbe 4048 09bd
000000a0: 3f81 23be fb8e c83d 33c1 a439 10a8 9bbd
000000b0: 9865 133e 1da1 cf3b ec06 5bbe bda4 e53c
000000c0: 8450 85bc f5d7 c43d bfbd adbd 46d8 82be
000000d0: 3928 0bbd fe0f 3abe 94c5 bb3d 5c15 cebd
000000e0: 1cdf d53d 0225 153e ef3b 9a3c f09b debd
000000f0: a2c0 153e 584c 473e 50d9 dfbd 407c d0bc
00000100: 04f1 9cbb 8e81 d93c aa2a 3abe 74a1 2e3e
00000110: 2025 c23d 865c 40bd 16c0 c73d 3a09 193c
00000120: e01b 5dbe 78cb 2cbe 1ff6 c53d 6a81 04be
00000130: dfc7 bebd c268 f33c d536 44be 7dd5 293e
00000140: 34af 9cbc 1440 34be 64dc 2bbe a3e4 aabd
00000150: 852e 68bd 57be 4ebe c0cf 5c3d 3872 263e
00000160: 51f5 7ebe f8b9 0bbe 21f8 4fbe de98 4cbe
00000170: 3b5b fa3d 796d efbd eb24 23bc 1d14 4c3e
00000180: b485 3e3e d050 7c3e 0e6b 063e 8dcb 063e
00000190: bd38 b1bd 961e 773e 273b f83d 33be 413e
000001a0: 2903 653b 64fa 5cbe 03d4 ad3d b285 203e
000001b0: 8f44 493e 42ba 8a3d 7fcd 56be 8646 17be
000001c0: 1835 49be 67ef e7bd 75e3 e03d d595 9d3d
000001d0: e764 45ba 8505 0dbe c886 f2bd 54f0 0fbe
000001e0: 1f01 f7bd 2a2d eebd c97b f5bb a427 6dbe
000001f0: 055c 083e 4f58 9fbd 861c 0c3e a890 05be
00000200: 014a 67be fe8c bb3d 4625 543e e479 55be
00000210: 4226 423e 82ca 75bd 91dc cebd 2a01 4f3e
00000220: 9f90 eabd a84d 19bd 98a1 c83d 7820 643e
00000230: e5e5 31bd eb66 e3bd cf66 aebd 76ec 5bbe
00000240: 9cfb f9bd 3825 213e b2e5 1d3e 7ad3 74be
00000250: 5461 51be 7fe7 323d 681e b83d 7620 6b3e
00000260: 942c df3d 2ded 41be 67f0 7cbe 494c 0f3e
00000270: 94f9 a53d 7995 a33d 5932 6b3e a417 24be
00000280: b6ce fe3d 532f a53d 451c 34be 7667 2e3e
00000290: 74e3 523b 4f4a 66be 75e9 133d fcea f73c
000002a0: 9dd5 c93d 17c6 bcbd 0c4f 303e cc46 52be
000002b0: 8489 bf3d d4fa dc3d 989e 14be 087c 2d3e
000002c0: c379 ecbd 25ab 0d3e b6b4 e43d 9d11 98ba
000002d0: 6bc0 5e3d 915c 523e 149d da3d d4d9 1a3e
000002e0: f3f5 a9bc a1dd be3d daea 5e3e 984a 42be
000002f0: ec7f a1bd fbce c53d 2fec 913d 3898 1bbe
00000300: 02eb 95bd de10 ccbd 3ae9 353e 9a53 92be
00000310: 316c 1ebe 1303 73be 84aa e7bd faab b83d
00000320: 56a3 2fbe 66e9 1d3e 7885 1a3d be6d 05be
00000330: 1684 84bc ea3c 9abd 36ec 9bbd dde1 243d
00000340: 26aa 1abe 27f2 82bd 767b 64be 3022 c9bd
00000350: 0035 13be 684f 213e 6c63 29be 2af0 383e
00000360: 4d0e b73d 14f0 a53c 1c6a 493e 8771 f53d
00000370: 67be 1abe 4160 16be f6f1 b93d a3b4 45bd
00000380: e6f3 34be 06fe 053e 44b8 20be 75e2 683e
00000390: bad5 cd3d 7592 993d 33a4 4f3e 95a4 113e
000003a0: eda5 793e e0ca 5ebe 0536 25bd 6000 ae3d
000003b0: a36c 613d bdaa 57be 30a7 773c 401f 9a3d
000003c0: 4c4e 2fbd c579 3b3e 9cf8 0c3e 0705 a6bd
000003d0: 9977 6c3e 1c51 25be 7a68 433e 80e0 d0bc
000003e0: e716 a93d a938 903e f5e1 05be 76cd edbc
000003f0: 9426 3b3e e3d1 32be 234f d0bc a107 9fbc
0.032273486 -0.052627813 0.23572184 -0.018558502 0.13181004 -0.120457724 0.116545714 0.16685706
-0.20810556 0.20748276 0.18041638 0.09259641 0.1633697 0.026818102 0.086641625 -0.2584206
0.1607968 0.23086844 -0.19291997 -0.20307165 0.19436356 0.119510084 0.119816065 -0.12417859
-0.16100201 -0.2383956 -0.00090287847 -0.21734647 0.030240862 0.001964881 -0.24205121 -0.19103143
-0.013004788 0.02551793 -0.021088302 0.09369196 -0.032348 -0.25107437 -0.1676485 -0.03351617
-0.15967272 0.09792896 0.00031424462 -0.07600415 0.14394224 0.006336345 -0.21389359 0.028032655
-0.016273744 0.09611503 -0.08483457 -0.2555563 -0.033973906 -0.18170163 0.091685444 -0.10062668
0.10442945 0.14564899 0.018827407 -0.108695865 0.14624265 0.19462717 -0.10930121 -0.025449872
-0.0047894735 0.026551034 -0.18180338 0.17053777 0.09479737 -0.046963237 0.09753434 0.009340579
-0.21592665 -0.16874492 0.096660845 -0.12939993 -0.09315466 0.029713038 -0.19161542 0.16585346
-0.019126512 -0.17602569 -0.16783291 -0.0834439 -0.05668499 -0.20189796 0.053909063 0.16254508
-0.24898268 -0.1364516 -0.20309497 -0.19980189 0.12224432 -0.11690802 -0.009957532 0.19929548
0.18605691 0.24640203 0.13126776 0.13163586 -0.086534 0.24132761 0.121206574 0.18920211
0.003494451 -0.21579891 0.08487704 0.15676 0.1965506 0.06773807 -0.20976828 -0.14772996
-0.1964916 -0.11324959 0.10980884 0.07694594 -0.0007529989 -0.13771637 -0.11842114 -0.14056522
-0.12060761 -0.11629708 -0.007491563 -0.23159653 0.13316353 -0.077805154 0.13682756 -0.13043463
-0.22586824 0.091577515 0.20717344 -0.20847279 0.18959907 -0.06000758 -0.101006635 0.20215288
-0.114533655 -0.037427574 0.097964466 0.22278011 -0.043432135 -0.111036144 -0.08515703 -0.21476921
-0.12206194 0.15736854 0.15419653 -0.23908797 -0.20447284 0.043677803 0.089901745 0.22961602
0.108971745 -0.18938132 -0.24701081 0.13993944 0.08104244 0.07987494 0.22968425 -0.16024643
0.12441771 0.08065667 -0.17588909 0.17031655 0.003217903 -0.22489284 0.036111314 0.030263416
0.098551966 -0.0921747 0.17217654 -0.2053482 0.09352401 0.10790029 -0.14513624 0.16941845
-0.11546662 0.13834818 0.111672804 -0.0011601929 0.054382723 0.20543124 0.106744915 0.15122157
-0.02074716 0.09319616 0.21769276 -0.18973768 -0.07885727 0.09658619 0.071251266 -0.15194786
-0.07320215 -0.09964155 0.1776475 -0.28579408 -0.15470959 -0.23731641 -0.1131182 0.09017177
-0.17152151 0.15421066 0.037724942 -0.13030145 -0.016176265 -0.0753115 -0.07613413 0.040254463
-0.15103969 -0.06393843 -0.22312722 -0.09820974 -0.14375687 0.15752947 -0.16541833 0.18060365
0.089382745 0.02025608 0.19669384 0.11984544 -0.15111695 -0.14685155 0.090793535 -0.04826797
-0.17671165 0.13085184 -0.15695292 0.22742637 0.10050531 0.074986376 0.20277481 0.1422294
0.24379702 -0.21757078 -0.04033472 0.08496165 0.055035245 -0.21061225 0.015115544 0.07525492
-0.04279928 0.1830817 0.13766712 -0.08106428 0.23092498 -0.16144222 0.19082823 -0.025497675
0.082563214 0.28168228 -0.13074477 -0.029028635 0.18276435 -0.17462878 -0.02542836 -0.019412817

mlp.net.1.weight f4 [64]
00000000: fad2 833f 7bda 7f3f fbf2 763f 1423 773f
00000010: 875c 7f3f 49e9 773f 2f09 7e3f 4820 7e3f
00000020: 4cf7 773f 51a0 803f fd36 823f 5c67 803f
00000030: 6d2e 7d3f 8249 7e3f 062f 823f 1813 803f
00000040: 185b 7d3f 9b53 863f 8cd0 803f 52ec 7d3f
00000050: dd47 7c3f 2a8e 833f e295 813f 869c 7e3f
00000060: f666 813f 5349 823f 5298 833f 3418 823f
00000070: c912 803f 4dc5 853f 6374 803f 86b9 7a3f
00000080: 6d77 853f a865 833f d862 823f 3e10 813f
00000090: 819e 843f 027c 833f 3f3c 803f 994a 7f3f
000000a0: 1a2e 7f3f 52f4 823f 212e 7f3f 2ac1 7a3f
000000b0: 3eed 7a3f 3b89 7d3f 1a24 823f 0856 803f
000000c0: 1c41 763f 228c 843f 33cd 813f d056 763f
000000d0: 30e0 803f d131 813f 58b2 7e3f 9408 7f3f
000000e0: ac9c 7c3f 17f3 803f 1246 7c3f 67e6 7f3f
000000f0: 7712 7c3f e771 833f 9a69 753f 6ffb 813f
1.029876 0.9994275 0.9646451 0.965379 0.9975056 0.9684034 0.99232763 0.9926801
0.9686172 1.0048925 1.0173031 1.0031543 0.98898965 0.99330914 1.01706 1.0005827
0.98967123 1.0494264 1.0063643 0.9918872 0.98547155 1.027776 1.0123866 0.99457586
1.0109546 1.0178627 1.028086 1.0163636 1.0005733 1.0450836 1.0035518 0.97939336
1.0427071 1.0265398 1.0186415 1.0083082 1.0360872 1.0272219 1.0018386 0.997232
0.9967972 1.0230811 0.9967976 0.97950995 0.9801825 0.9903752 1.0167267 1.0026255
0.961931 1.0355265 1.0140747 0.96226215 1.0068417 1.0093328 0.9949088 0.99622464
0.9867656 1.0074185 0.9854442 0.9996094 0.98465675 1.0269135 0.9586426 1.0154856

mlp.net.1.bias f4 [64]
00000000: e5d3 8ebc ae81 e6bb db2c 0dbd 7942 8dbc
00000010: c893 a43c b981 14bd bfad 033c a416 0c3d
00000020: 3829 2bbd 78f0 e23b 61e7 e43b 455c be3c
00000030: 2d5d 273b 954e cabc de77 23bb ad16 363d
00000040: f495 94bc 0087 193d 3688 353d 8e82 35bc
00000050: 8caa abbc 4f2f 26bb f476 e1ba 4b28 153c
00000060: f143 6c3c ab41 1f3d 0f38 733c 4eb3 683c
00000070: 73a8 4abc 4a4a 1e3d cc0a 533c 22f0 8dbc
00000080: a3a3 283d 0b4a d43c 0682 013d deb0 a3bc
00000090: 29a0 453c 970e 2dbb 80c9 6cbc 52fc fc3b
000000a0: dbc2 cab9 8987 4f3c 4c31 823c 7425 793c
000000b0: 1a16 b3bc c155 19bb 4914 42bc fe99 313b
000000c0: 86c8 1cbd fd5a 0b3d bf70 543d c3ac 63bd
000000d0: 0142 cd3c bba0 593c 8b20 d73b 84f6 4dbc
000000e0: 416d d8bc 5c48 9c3b ad9d e9bc d959 b1bb
000000f0: a4d1 a4bc d15d be3c dc64 7fbc 8b03 5cbc
-0.017435024 -0.007034502 -0.034466606 -0.01724361 0.020089999 -0.036256526 0.00803703 0.03420128
-0.041787356 0.0069256388 0.0069855903 0.023237357 0.0025537715 -0.024695674 -0.0024943273 0.04445522
-0.01813791 0.03748226 0.044319354 -0.01107849 -0.020955347 -0.0025357788 -0.0017201588 0.009103845
0.014420495 0.038880985 0.014844908 0.014202906 -0.012369263 0.038645066 0.012880992 -0.017326418
0.04117168 0.025914213 0.03161814 -0.019981798 0.012062111 -0.0026406401 -0.014452338 0.0077205086
-0.0003867362 0.012666591 0.015892647 0.015206683 -0.021861125 -0.002339706 -0.011845657 0.0027099843
-0.03827717 0.03402232 0.051865336 -0.05558468 0.025055887 0.01328295 0.0065651587 -0.012570981
-0.026419284 0.004769368 -0.028517568 -0.005412322 -0.020119496 0.023238095 -0.015588012 -0.013428579

mlp.net.1.running_mean f4 [64]
00000000: 08b6 283f e627 edbd 8640 713f 6cfb 723e
00000010: d648 35be 2c87 a23f ca29 eabf 89fa 563f
00000020: 4f41 a73f afb6 733f 00cf 3dbf 372b c0bf
00000030: 32ee efbf cf43 0dc0 88cb 513f 11d1 f73f
00000040: b1c7 0bbf 842a 78bf 1ced a73c 10cf 9b3d
00000050: 637e 963f 589a 443d a290 273f c93d 503f
00000060: bead 4f3f d3b9 4e3f 8fa4 a8bf 2b0c 403f
00000070: c3b7 6a3f a6e6 8b3f 394e d23d 0ce3 52bf
00000080: d511 18bf 0cbd 4e3d cfb6 24bf 3bfc b1bd
00000090: aaf0 02c0 20d8 30bf 4ac1 f5bf e3b2 243f
000000a0: 8cd1 a5be 2f5a d2bf 95b7 82bf 44d8 4ebf
000000b0: 4193 fe3e e88b ac3e f7e9 dcbf 17a7 2140
000000c0: 557e 6b3f 1254 bd3f 00cd 853f 47d0 2e40
000000d0: fbdd 333f 6b18 1a3f a504 22bf a87a e4bd
000000e0: a8ea 923e 45b5 1ebf 543d 8ebe c82f 193f
000000f0: 5495 9bbf 7927 7abf e3b3 b9bd 0edd 6d3f
0.6590276 -0.11579876 0.9423908 0.23728722 -0.17703566 1.2697501 -1.8294003 0.83976036
1.3066806 0.9520063 -0.7414398 -1.5013188 -1.8744566 -2.2072637 0.8195119 1.9360677
-0.5460158 -0.96939874 0.020498805 0.076078534 1.175732 0.047998756 0.6545507 0.81344277
0.81124485 0.80752295 -1.3175219 0.75018567 0.9168665 1.0929763 0.10268826 -0.82377696
-0.5940221 0.050473258 -0.64341444 -0.08690687 -2.045939 -0.6907978 -1.9199612 0.6433546
-0.32386434 -1.6433772 -1.0212275 -0.80798745 0.4972172 0.3370049 -1.72589 2.5258234
0.9198964 1.4791281 1.0453186 2.7314622 0.7026059 0.6019351 -0.63288337 -0.11156207
0.28694654 -0.61995345 -0.27781165 0.59838533 -1.2154946 -0.9771648 -0.09067514 0.9291543

mlp.net.1.running_var f4 [64]
00000000: d8bd 383d a229 193d 21a5 833d 06f9 b43d
00000010: fbe9 3c3e cfec 023e 1edc 083e 4feb f63d
00000020: 74b5 753d c57d 143d 2bc6 c93d 13c5 133e
00000030: c68a 063e 6af4 d33d 175c 4d3d df74 b73d
00000040: 14e2 eb3d b71e fe3c 5837 123e d92b 813d
00000050: 3aeb 6a3d cf88 e93d 815f 193d fe2b 723e
00000060: e956 f23d c768 db3d b6dc 8d3e 9bd6 f33d
00000070: be93 1f3d be98 143d 00c8 353d 8fc3 3b3e
00000080: 44db 443d 2767 3c3e c394 723d 4bf3 bf3d
00000090: 3e48 563e 7452 0f3e e7d3 533e 0d93 bb3d
000000a0: c3cd 193e fd54 9a3d ae16 1e3e 2dfe ba3d
000000b0: a8f7 103d 8613 833e 9941 363d 6f47 833d
000000c0: fa4f 463d 89b7 be3d b85c 173d 0326 643e
000000d0: d94b 193e 80db 843d 8b37 6a3e a0e2 213e
000000e0: cbc8 0c3d faf8 8b3d 2cb1 5c3e 9d51 343d
000000f0: a10a 883d 2608 3b3d 390d e93c d254 ef3d
0.045102924 0.03739322 0.0642798 0.0883656 0.18448631 0.12785648 0.13365218 0.120566
0.0599875 0.036252756 0.09852251 0.14430647 0.13138875 0.10349353 0.05013665 0.08957838
0.1151773 0.031020505 0.14278924 0.063071914 0.057353236 0.11403047 0.037444595 0.23649594
0.11832983 0.10713344 0.27707452 0.11906167 0.038959257 0.03627848 0.044380188 0.18336318
0.04806067 0.18398724 0.0592239 0.09372576 0.20925996 0.13996297 0.20686303 0.09158907
0.15019898 0.075357415 0.15438339 0.091305114 0.035392433 0.25600833 0.044496153 0.06410109
0.048416115 0.0931235 0.036953658 0.22280125 0.1497034 0.06487179 0.2287275 0.15809107
0.03437118 0.06834598 0.2155196 0.044023145 0.06642652 0.045662068 0.028448688 0.116861

mlp.net.4.weight f4 [64, 64]
00000000: dc72 babd f58e 863d ae94 b4bc 2c20 b4bd
00000010: 391a 953c 99fb 3a3d 5a55 1e3e 6a76 4f3d
00000020: 508a 0ebe fe15 a03d 4380 973d 7da2 003e
00000030: f5a4 f13d 16cd 253e b684 273e 9868 0abd
00000040: db48 8cbb 9199 2fbe aff9 2e3e bcfc 4abe
00000050: 49da 113e 3171 393e ad67 3c3e 602c 8cbd
00000060: c0a4 5b3d 1e73 40be 0934 733e 189a 143e
00000070: 6ee4 2c3e bd8d 0eba 5be2 3c3e edb8 923d
00000080: fee8 b7bd ff2d 6a3e 401a 9c3d 7d60 c63c
00000090: bd13 dcbc 99be 92bd 6d7c 88bd 4d0f 8dbd
000000a0: 22e2 6c3e bb1b 83be f1fd 26be 1098 e03d
000000b0: 06c7 11be f971 ce3c a35c 0c3e 9a43 963d
000000c0: 7d4e 16be 9097 3f3e c8fb d83c 55ea e9bd
000000d0: 6b43 413e 076a 7ebc c06d 7e3d 739f ce3d
000000e0: 2fb8 2abe 2080 e43c 4906 fe3d e420 33be
000000f0: 8664 153e 4ad4 a5bd 7580 05be 5ece 13be
00000100: 2289 7c3b 1376 e3bd 0f5b bc3d a430 2f3b
00000110: 6f7e aa3c d9e7 c3bd e8aa 03be e45d 843d
00000120: 6019 1d3e dc5e 87bd c9e9 a2bd ca5b 06be
00000130: 4e7f 0fbe 2797 973d 8b4e b9bd 81b5 e03d
00000140: 4d16 22bd 35b9 e1bd f53c bc3d 0485 73be
00000150: 1d4b 463e 2835 d4bd 339d 043e fab2 f93b
00000160: 187b 39be 4e32 3c3d c491 4c3d ad09 58be
00000170: a0b3 2d3e 78ca bd3d 2a0f 25bd 819d 073e
00000180: 4cd2 643e fb48 1bbd c6b4 24bd 88f4 003c
00000190: e31e 7abc 7026 29be 6341 203e 1fc2 e23c
000001a0: c1e5 4d3e 2e6b 7a3e f8f5 63be 8ada 1fbe
000001b0: ee67 343d 4196 4fbc ebb6 543e d00c 4fbd
000001c0: 664e 0cbe 4d8e 0dbe 774b 863d a1b8 403e
000001d0: 07fa 91bc 2fbb 06bd bdce 823c 0f23 37be
000001e0: 6c38 cabd 8772 123d fb70 4bbe f12e 11be
000001f0: 1a78 46be e9b0 fd3d 7660 79bd 7754 9d3d
00000200: a4a5 7cbe 2eea 0a3d 75ff c3bc eb17 c8bb
00000210: 0591 86be 30f7 583e db4a 6bbd 9c84 3a3d
00000220: 29b8 4e3e c67d 56be ef0e 5bbd 80fc 3bbd
00000230: ca5b 59be 4176 5fbe 73f2 df3d 5d14 e63d
00000240: 2cf3 bf3d 00b8 013e f426 4cb9 0ee1 5abe
00000250: 1896 2dbe b299 283e eb1e 53be 17db 21be
00000260: 2a3e d23d 6f8a b2bb abae 5bbe 2d4e 463e
00000270: 1da3 52be 33d8 17be 2e4e 163e 9860 fabd
00000280: a486 313c 07cc 113e ac79 983d 15d6 10be
00000290: 9e6b 35bd 4de5 613c 7e49 493e c7bd 603d
000002a0: 2cdd 013e 9281 56be 8804 11bb bd73 dabc
000002b0: 00dd 523e f596 243d d4fe cfbc 1f79 d8bd
000002c0: 34e0 a03d 42d6 43be a653 d4bd d97a d6bc
000002d0: 3b45 bfbd ab89 233e ae4e 2d3c d9de e3bc
000002e0: ad85 e93d b0b0 43be 3b9d 54be 14d4 4ebd
000002f0: c274 5ebb 005d 9b3d 96a7 4fbe 567f 6ebe
00000300: 9f0d 0b3d f2b9 18bd 7df2 08bd 5f9d 9f3d
00000310: b963 5bbd 9582 72be 97df fe3d d241 093a
00000320: e620 06be 5fb3 d63d 3c64 27be dfa6 6fbe
00000330: cb47 10be 5f41 9abc 6097 e03d 8fc5 233e
00000340: 8aed 33be 0ab8 c33d 3aef 183e c921 d03d
00000350: e957 0ebe a6ae 4abe df15 b53d 2a6c 543d
00000360: c5d4 febc 1ae3 a2bd d937 00be 7517 6bbe
00000370: 130c 443e ca91 f6bd 29d2 2e3e 56e5 7cbd
00000380: 16b9 9abc d3a7 07be ba6b ef3d 60f3 94bd
00000390: a48a 303e eb49 c33c 44e9 68be 4362 e4bc
000003a0: 720b e63d 349d a83b fbd0 993a be4e 2cbc
000003b0: 4f8c 1fbe 642b 08bc 79a9 49bc e781 bcbd
000003c0: 3ba1 373e f501 2cbe 1feb 263e e68d 43be
000003d0: d86f 6f3c 293f 013e a6fe 14be 68ef f83c
000003e0: fc2c c83d 5577 73bc 2b92 493c 3678 3f3e
000003f0: 139f 11be 5545 3bbe 29ec 063e 6419 3ebe
-0.09103939 0.06570236 -0.022043552 -0.08795199 0.01820098 0.0456501 0.15462247 0.050650038
-0.1391995 0.07816695 0.07397511 0.12561984 0.11799041 0.16191515 0.16359219 -0.033791155
-0.004281146 -0.17148425 0.17087434 -0.19822973 0.14243425 0.18109585 0.18398924 -0.06844401
0.053623915 -0.18793914 0.23750319 0.14511907 0.16884014 -0.0005437991 0.18445723 0.07164178
-0.089799866 0.22869109 0.07622194 0.024215931 -0.02686488 -0.0716526 -0.06664357 -0.06887684
0.23133138 -0.25607094 -0.16307808 0.109665036 -0.14236078 0.02520083 0.13707213 0.07337113
-0.14678378 0.1871016 0.026487246 -0.114216484 0.18873374 -0.015528209 0.062116385 0.10089006
-0.16671823 0.027893126 0.124035425 -0.17493016 0.14589128 -0.080971316 -0.13037284 -0.14434192
0.0038533886 -0.11106505 0.091970555 0.0026731873 0.020812241 -0.09565706 -0.12858164 0.06463221
0.15341711 -0.0660989 -0.07954747 -0.13120952 -0.14013407 0.07401877 -0.09048184 0.10972119
-0.03957205 -0.110216536 0.09191314 -0.2378121 0.19364591 -0.10361701 0.12950592 0.0076202126
-0.18113363 0.04594641 0.0499437 -0.21097441 0.16963053 0.092671335 -0.040297665 0.13243677
0.22345847 -0.037911396 -0.04021146 0.007870801 -0.015266153 -0.16518569 0.15649943 0.027680455
0.20107175 0.24454948 -0.22261798 -0.1561071 0.044044428 -0.012670101 0.20772903 -0.05054933
-0.13701782 -0.13823815 0.065573625 0.1882043 -0.017819418 -0.032893356 0.015967721 -0.17884468
-0.09874043 0.035753753 -0.19867317 -0.14178063 -0.19381753 0.123872586 -0.060883008 0.07682126
-0.24672562 0.033914737 -0.023925522 -0.006106367 -0.26282516 0.21188045 -0.057444435 0.045536622
0.20187439 -0.20946416 -0.05348104 -0.0458951 -0.21226421 -0.21822454 0.109349154 0.11234353
0.09372553 0.12667847 -0.00019469467 -0.21374914 -0.16951787 0.1646488 -0.20617263 -0.15806232
0.10265763 -0.0054486315 -0.2145335 0.19365759 -0.20570035 -0.14828567 0.1467826 -0.12225455
0.0108353235 0.14237987 0.07445082 -0.14144166 -0.044292085 0.01378758 0.19656941 0.054868486
0.12682027 -0.20947865 -0.0022127945 -0.026666516 0.20592117 0.040183026 -0.025390066 -0.10569977
0.07855263 -0.19124702 -0.10367517 -0.026181625 -0.093393765 0.15970485 0.010577841 -0.027816223
0.1140245 -0.1911037 -0.20763104 -0.050495222 -0.0033944105 0.07586098 -0.20278773 -0.23290762
0.033948537 -0.037286706 -0.03343438 0.07793688 -0.0535619 -0.23682626 0.1244499 0.0005235943
-0.13098487 0.10483431 -0.1634683 -0.234035 -0.14089887 -0.01883 0.109663725 0.15993331
-0.17571083 0.09556587 0.14935008 0.10162694 -0.13900723 -0.19793186 0.08842062 0.051860966
-0.031107316 -0.079534724 -0.12521304 -0.22958167 0.19145231 -0.12039526 0.17072357 -0.06174215
-0.018887084 -0.13247614 0.11690469 -0.072729826 0.17240387 0.023838958 -0.22745234 -0.027878886
0.11232652 0.005145693 0.0011735255 -0.0105168205 -0.15580867 -0.008311126 -0.012308472 -0.092044644
0.17932598 -0.16797622 0.16300629 -0.19097099 0.014614068 0.1262175 -0.14550266 0.030387595
0.09774205 -0.014859994 0.012302916 0.186982 -0.14220838 -0.18288167 0.13176025 -0.18564373

mlp.net.5.weight f4 [64]
00000000: 23c5 6d3f 12ec 773f 2437 763f 1d1c 763f
00000010: 295c 7d3f d1c5 783f a1a7 7f3f 5e11 803f
00000020: 266a 7a3f 01a8 783f a871 753f c6c4 753f
00000030: e4a8 803f c110 7e3f e741 7e3f 0c1b 7f3f
00000040: 2781 783f 67d4 7b3f 6757 703f 2b6e 723f
00000050: 5807 793f 6039 793f 82a7 753f 6d1a 7c3f
00000060: f328 7e3f ccc6 793f c6fd 723f 5515 763f
00000070: 2f1d 743f e6f3 793f bc52 783f 76e8 7f3f
00000080: 8e0c 733f dda2 773f 8f24 763f f96f 7a3f
00000090: 52f6 733f 38d0 7c3f dd5a 783f e9d6 733f
000000a0: 5b26 823f 8661 7b3f 7611 7d3f 7d52 803f
000000b0: 7d7d 7c3f b228 843f a649 7e3f 1691 763f
000000c0: 96fe 773f ee38 733f 056c 833f de98 7d3f
000000d0: a2c5 773f 82fa 7f3f f424 763f 3c21 763f
000000e0: 21fd 783f 0cb0 7c3f c825 733f bc4e 803f
000000f0: d7e2 7a3f a8b5 743f e107 763f 1deb 753f
0.9287893 0.9684459 0.9617789 0.9613665 0.9896875 0.97176844 0.99865156 1.00053
0.9781822 0.97131354 0.9587655 0.9600338 1.0051541 0.99244314 0.9931931 0.99650645
0.9707207 0.98370975 0.93883365 0.9469935 0.9727683 0.9735317 0.9595872 0.9847782
0.99281234 0.97568965 0.9491848 0.961263 0.9535703 0.97637784 0.9700124 0.9996408
0.9494103 0.96732885 0.96149534 0.97827107 0.9529773 0.98755217 0.97013646 0.952498
1.0167955 0.98195684 0.9885477 1.0025173 0.9862898 1.0324919 0.9933113 0.96315134
0.9687284 0.9500874 1.026734 0.9906138 0.9678594 0.9999162 0.96150136 0.9614446
0.97261244 0.98706126 0.94979525 1.0024028 0.9800238 0.95589685 0.9610577 0.9606188
