rf_pipeline/config/results/experiment_2025-11-21_15-42-06/last_model.pt (torch, 203362 bytes, 32 tensors)

cnn.0.conv.weight f4 [16, 3, 3, 3]
0	0x3e82aa52	0.2552057
1	0xbe57b046	-0.21063337
2	0xbe90d7bc	-0.28289592
3	0x3e8c00b3	0.27344283
4	0x3f034f3d	0.51292783
5	0x3e1209ac	0.14261502
6	0xbda15733	-0.0787796
7	0xbe516941	-0.20450307
8	0x3e7075bf	0.23482417
9	0x3e27b16b	0.16376273
10	0x3ef94011	0.4868169
11	0xbe45b765	-0.1930824
12	0x3ea79989	0.32734326
13	0x3ec0117e	0.37513345
14	0x3da9e18f	0.08294975
15	0x3d9f4f92	0.07778849
16	0x3e1bd27e	0.15217015
17	0x3ebe2ca0	0.3714342
18	0xbe92cfaa	-0.2867406
19	0xbe2d0338	-0.16895759
20	0xbe316300	-0.17322922
21	0x3c495ab5	0.012289693
22	0x3f3c77ef	0.73620504
23	0x3dee73c7	0.116431765
24	0xbed7f6b9	-0.42180422
25	0xbceadcff	-0.028669832
26	0xbe60bce0	-0.2194705
27	0x3da25bc9	0.07927663
28	0x3ea896b9	0.32927492
29	0x3dfc7d0d	0.12328539
30	0x3f0422c2	0.51615536
31	0x3e94d480	0.29068375
32	0xbe1dab09	-0.15397276
33	0xbdc2301e	-0.09481834
34	0xbea1c0ac	-0.3159231
35	0x3e337265	0.17524107
36	0x3e821d20	0.25412846
37	0x3e251cb0	0.16124225
38	0xbead28e4	-0.3382026
39	0xbe9a763f	-0.3016834
40	0xbea5aaa0	-0.3235674
41	0xbed34e7d	-0.4127082
42	0xbf08f5ad	-0.5349987
43	0x3d920d3a	0.07131429
44	0x3f037d7c	0.5136335
45	0xbdc10d25	-0.09426335
46	0xbe93adab	-0.28843436
47	0xbd8cb705	-0.06870846
48	0xbdbf6d84	-0.0934706
49	0x3e628278	0.22120082
50	0x3e9c1841	0.30487254
51	0xbd8b785b	-0.06810065
52	0x3db11194	0.08645931
53	0xbe82e214	-0.2556311
54	0x3e304df4	0.17217237
55	0xbdf69e0d	-0.120418645
56	0xbf10a016	-0.5649427
57	0x3e9a89d5	0.30183282
58	0xbdfb645d	-0.12275002
59	0x3ed2396d	0.41059437
60	0x3d36ff99	0.04467735
61	0x3d914204	0.070926696
62	0x3e7eb674	0.24874288
63	0xbdf1117f	-0.11770915
64	0xbedfecc8	-0.43735337
65	0x3e81725a	0.25282556
66	0xbd9888cb	-0.07447966
67	0x3de26d13	0.110559605
68	0xbe1859db	-0.14878027
69	0x3e751590	0.23934007
70	0xbdbefc0c	-0.09325418
71	0x3c5404dc	0.012940612
72	0xbf0f96ee	-0.56089675
73	0xbe9ec5a2	-0.31010157
74	0xbdf5a243	-0.119938396
75	0x3eb38eab	0.35069785
76	0xbefa1710	-0.4884572
77	0xbea32937	-0.31867382
78	0x3e1cb7e5	0.15304525
79	0xbe882471	-0.26590303
80	0xbdc14322	-0.09436633
81	0xbee164b9	-0.44022158
82	0x3ca5c5e2	0.02023596
83	0x3c9b3eac	0.018950783
84	0xbd0645f3	-0.032781553
85	0xbcafd5f4	-0.021464325
86	0xbe9fc719	-0.31206587
87	0xbdc54e58	-0.096340835
88	0x3d84a8d9	0.06477518
89	0x3eebba7a	0.46040708
90	0x3e0d3936	0.13791355
91	0xbdc745e1	-0.09730125
92	0xbd927c9a	-0.07152672
93	0x3c99d43a	0.018777955
94	0xbde9421a	-0.11389561
95	0xbe604909	-0.2190286
96	0x3e711029	0.23541321
97	0x3df786b8	0.120862424
98	0xbd89df1c	-0.06732008
99	0x3da49fd1	0.08038295
100	0x3ea8b742	0.32952315
101	0x3d289f34	0.041167453
102	0xbd972746	-0.07380538
103	0xbe614610	-0.21999383
104	0x3c36decb	0.011161516
105	0x3e0090f3	0.12555294
106	0xbe60bf06	-0.2194787
107	0x3ef7a695	0.4836928
108	0x3d43d21e	0.047807805
109	0xbd2fbd5b	-0.042905193
110	0xbe970f52	-0.29503876
111	0xbde4e600	-0.111766815
112	0xbc09f037	-0.008419088
113	0x3e8525f4	0.26005518
114	0xbc80b51a	-0.015711356
115	0x3ddfa3b7	0.10919898
116	0xbe2f35d0	-0.17110372
117	0xbebe73e4	-0.37197793
118	0xbdbbb948	-0.09166199
119	0xbd3ab2c8	-0.045580655
120	0xbda4c64e	-0.08045636
121	0x3e6e6223	0.23279624
122	0x3dd76f4e	0.105192766
123	0x3e8f9416	0.28042668
124	0xbf038db3	-0.5138809
125	0x3eb4a490	0.352818
126	0x3eaef324	0.34169877
127	0x3db9adf0	0.09066379
128	0xbca89459	-0.02057855
129	0xbdb2e4d8	-0.08735055
130	0x3e92f846	0.28705043
131	0x3e49f6bc	0.19723028
132	0x3efd247a	0.49441892
133	0x3e215f3f	0.1575899
134	0x3e2f750f	0.17134498
135	0x3daade74	0.08343211
136	0xbdcd7c93	-0.10033526
137	0x3f0bdecd	0.5463684
138	0xbe3b97f4	-0.18319684
139	0xbf4bb15d	-0.7956751
140	0x3cbed760	0.023296058
141	0xbeb09448	-0.3448813
142	0xbecfad45	-0.40561882
143	0xbe0a8a5f	-0.13529347
144	0xbbaa9792	-0.005206057
145	0x3f82e659	1.0226547
146	0x3e8bc645	0.27299705
147	0x3e2f1833	0.17099075
148	0x3ef7d0bd	0.48401442
149	0xbe37e4a5	-0.17958315
150	0xbe6c8c5d	-0.2310042
151	0x3e1c7341	0.15278341
152	0x3d9a4ace	0.07533799
153	0xbea6f588	-0.326092
154	0xbe8e28e7	-0.2776558
155	0xbe6ba638	-0.23012626
156	0xbf1e1352	-0.6174823
157	0xbeea3504	-0.45743573
158	0x3e926fbc	0.28600872
159	0x3e8479dc	0.2587422
160	0xbea5812c	-0.32325113
161	0x3ea69dc8	0.32542253
162	0xbe322c2a	-0.1739966
163	0xbd795fd0	-0.06088239
164	0x3d093c23	0.033504616
165	0xbe906a90	-0.282063
166	0xbb6ebfd4	-0.0036430256
167	0x3e65e223	0.22449546
168	0x3c8fa5ff	0.017535208
169	0x3db52d9a	0.088465884
170	0x3b822e1b	0.0039727814
171	0xbeb8b910	-0.3607869
172	0xbdda565c	-0.10661003
173	0xbe67e0c5	-0.22644337
174	0xbe7ffeb2	-0.24999502
175	0xbcdf7c59	-0.027280973
176	0xbe4d9edc	-0.20080131
177	0xbd64453e	-0.055730097
178	0x3dc87fd6	0.09790008
179	0x3e59523a	0.21222773
180	0x3ed7d944	0.42157948
181	0x3e833cca	0.25632316
182	0x3ec6d764	0.38836205
183	0xbe994439	-0.29934862
184	0x3bc6e3ac	0.006069621
185	0x3d8899a0	0.06669927
186	0xbb9e09b7	-0.0048229354
187	0x3f005ad9	0.5013862
188	0x3aa355bc	0.0012461464
189	0x3ea7e539	0.3279207
190	0xbec951d5	-0.39320245
191	0x3de65e0f	0.11248409
192	0xbe165d6a	-0.14684072
193	0x3e2d4d52	0.16924027
194	0x3e5b0cdc	0.21391624
195	0x3dc0ef0f	0.09420597
196	0x3ed950d3	0.42444476
197	0x3eaae212	0.33375603
198	0x3f0c8735	0.5489381
199	0xbd85e225	-0.06537274
200	0x3dbf7272	0.093480006
201	0x3db58b69	0.08864481
202	0xbe6e5828	-0.23275816
203	0x3d83d9a1	0.06437994
204	0xbe0d0401	-0.13771059
205	0x3d3dfae5	0.04638185
206	0x3c506f7a	0.012721891
207	0x3ed89c9f	0.42306992
208	0xbe9fb915	-0.31195894
209	0xbdcfc116	-0.1014425
210	0xbe7f2e48	-0.24919999
211	0xbdc8cfcc	-0.09805259
212	0x3bc5a34d	0.00603143
213	0x3eec47b4	0.46148455
214	0xbd85651f	-0.06513428
215	0x3ee3272a	0.44365817
216	0xbee45015	-0.44592348
217	0x3ec30fa3	0.38097867
218	0x3f327323	0.69706935
219	0x3dd44b41	0.10365916
220	0xbe1028b0	-0.14078021
221	0xbe10fbfa	-0.14158621
222	0xbd9cfe16	-0.076656505
223	0xbd8dd726	-0.06925802
224	0x3ea4ebe5	0.32211223
225	0x3e53c7bc	0.20681661
226	0xbe13cbe1	-0.14433242
227	0x3e49c596	0.1970428
228	0xbeddd6e6	-0.43328017
229	0x3e4361ef	0.19080327
230	0xbe9e53f0	-0.30923414
231	0xbeda2362	-0.4260512
232	0xbee4199a	-0.44550782
233	0x3f29f31f	0.663866
234	0xbe05d7e7	-0.13070641
235	0xbe61850b	-0.22023408
236	0x3b44d1f3	0.0030032366
237	0x3f02d3ff	0.5110473
238	0xbdefbbec	-0.11705765
239	0xbd91b630	-0.07114828
240	0x3dc8d026	0.09805326
241	0xbe447602	-0.19185641
242	0xbe8e5933	-0.2780243
243	0xbe4fdc59	-0.202989
244	0xbd280f7d	-0.041030396
245	0xbed0b4d6	-0.40762967
246	0xbdd3b9c8	-0.10338169
247	0x3e5811be	0.21100518
248	0x3e5b53a5	0.21418627
249	0xbe784fae	-0.24249145
250	0xbb9e8898	-0.0048380606
251	0xbe04102d	-0.12896796
252	0x3e6fa365	0.23402174
253	0xbee3b455	-0.4447352
254	0x3ddb1d06	0.10698895
255	0x3ebdd020	0.3707285

cnn.0.bn.weight f4 [16]
0	0x3f74d7ce	0.9564179
1	0x3f7a46a6	0.9776405
2	0x3f71ed75	0.94502956
3	0x3f78bb6c	0.97160983
4	0x3f7cb702	0.9871675
5	0x3f86b139	1.0522834
6	0x3f72f704	0.94908166
7	0x3f716a02	0.9430238
8	0x3f91059f	1.132984
9	0x3f79d2c2	0.97587216
10	0x3f7af554	0.9803059
11	0x3f8ddf58	1.1083784
12	0x3f78e0b2	0.9721786
13	0x3f7a8610	0.97860813
14	0x3f72bbef	0.94818014
15	0x3f80d262	1.0064204

cnn.0.bn.bias f4 [16]
0	0xbd39a22a	-0.045320667
1	0xbd554574	-0.05206819
2	0xbd81a7a9	-0.06330807
3	0xbcc6a217	-0.024247212
4	0xbda42641	-0.08015109
5	0xbd661075	-0.05616804
6	0xbcbf82c1	-0.023377778
7	0xbd8fcd96	-0.07021634
8	0x3a455b07	0.0007528518
9	0xbd9b053e	-0.07569359
10	0xbd5bd52a	-0.053670086
11	0xbdd4c8b9	-0.10389847
12	0xbd557f39	-0.052123282
13	0xbd5b470d	-0.053534556
14	0xbdf1c27f	-0.11804675
15	0xbd83cc8f	-0.06435501

cnn.0.bn.running_mean f4 [16]
0	0x3f51fe13	0.8202831
1	0x3c5c3e5c	0.013442602
2	0xbe8f3780	-0.2797203
3	0xbcda163b	-0.026621928
4	0x3e7528eb	0.2394139
5	0xbe5f59a1	-0.21811534
6	0xbdbfcd96	-0.09365384
7	0x3f31646f	0.69293875
8	0xbceae8fa	-0.028675545
9	0xbda749b6	-0.08168356
10	0x3ed43615	0.4144751
11	0x3d113f28	0.03546062
12	0x3f911cfb	1.1336969
13	0xbf373bdb	-0.7157571
14	0x3f115226	0.56765974
15	0x3b8ac5f3	0.004235023

cnn.0.bn.running_var f4 [16]
0	0x3e04adac	0.12956876
1	0x3d19ad5d	0.037518848
2	0x3e5f1036	0.21783528
3	0x3d182f47	0.037154462
4	0x3e376907	0.17911159
5	0x3ea94ca3	0.33066282
6	0x3df962d6	0.121770546
7	0x3e10d308	0.14143002
8	0x3d94b9b0	0.072619796
9	0x3ce1b0bf	0.0275501
10	0x3e28a14e	0.16467783
11	0x3c64fd87	0.013976461
12	0x3efca47d	0.49344245
13	0x3e1e1d1f	0.15440796
14	0x3e23be62	0.15990594
15	0x3ddb22a0	0.106999636

cnn.2.conv.weight f4 [32, 16, 3, 3]
0	0x3d9ab83f	0.075546734
1	0xbd7a7621	-0.061147813
2	0x3d2d6a4a	0.042337693
3	0xbe08a850	-0.13345456
4	0xbc7b0202	-0.015320303
5	0xbde48655	-0.11158434
6	0x3a2cbffd	0.0006589888
7	0xbeb27ec4	-0.3486234
8	0x3de21160	0.1103847
9	0x3d651747	0.055930402
10	0x3ea05c9b	0.31320652
11	0xbde08353	-0.10962548
12	0xbe129883	-0.14315991
13	0x3d94a039	0.072571225
14	0xbddee3bc	-0.10883281
15	0xbd8a1c91	-0.0674373
16	0x3e1b42dd	0.15162225
17	0x3e093f06	0.13402948
18	0xbc03dd13	-0.008048314
19	0xbc2520f6	-0.010078659
20	0x3d059764	0.03261508
21	0x3e8331ee	0.2562403
22	0xbd8f5cdd	-0.07000134
23	0xbc9eeeae	-0.01940092
24	0x3c86947c	0.016428225
25	0x3df6da79	0.12053389
26	0x3e4d8202	0.20069125
27	0xbd963a52	-0.073353425
28	0xbe120df5	-0.14263137
29	0x3e403b34	0.18772584
30	0x3cc1b358	0.023645088
31	0xbe38346e	-0.1798875
32	0xbc9990b7	-0.018745763
33	0x3d384f57	0.04499754
34	0x3e497662	0.19674066
35	0xbe62671c	-0.22109646
36	0x3b5eb88d	0.0033984513
37	0xbd7062ff	-0.05868816
38	0xbc13e029	-0.009025612
39	0xbdbc00bf	-0.0917983
40	0xbb6c054e	-0.0036013904
41	0xbd419895	-0.047264654
42	0xbdcccb4b	-0.099997126
43	0xbe219711	-0.15780284
44	0x3d47ae3c	0.048750147
45	0x3d67c4f2	0.056584306
46	0xbbf504e1	-0.0074773883
47	0x3d8d2e1e	0.06893562
48	0x3e07c23c	0.13257688
49	0xbd5855c3	-0.052816164
50	0x3c92ae6f	0.017905442
51	0x3e3f0814	0.18655425
52	0x3c9dc32e	0.019258108
53	0x3cc71558	0.02430217
54	0x3e17fbaa	0.14842096
55	0xbe2db423	-0.16963248
56	0x3de6f132	0.11276473
57	0x3db3d454	0.08780733
58	0x3cc63619	0.024195718
59	0xbe20394f	-0.15646861
60	0xbdac15ce	-0.084025964
61	0x3c285741	0.010274709
62	0x3e05980b	0.13046281
63	0x3e53eadb	0.20695059
64	0xbd3c48fd	-0.045968045
65	0x3e0eb661	0.1393676
66	0xbdef62fa	-0.116888
67	0xbe4cbca8	-0.19993842
68	0x3ce42719	0.027850674
69	0xbdec94c3	-0.115518115
70	0xbdd73fde	-0.105102286
71	0x3be1d729	0.006892104
72	0x3e33948c	0.17537135
73	0xbd42c76f	-0.047553476
74	0xbc4c97d7	-0.012487373
75	0xbc8f24f4	-0.017473675
76	0xbe201f49	-0.15636934
77	0x3d385e69	0.04501191
78	0x3dcb8578	0.099375665
79	0x3de8cc2c	0.11367068
80	0x3d254b17	0.040354814
81	0x3c8f5642	0.017497186
82	0x3d8f0b3b	0.06984564
83	0x3d5f52f7	0.05452248
84	0xbbf6effc	-0.0075359326
85	0xbd819866	-0.06327896
86	0x3d9cc674	0.076550394
87	0xbe491a47	-0.1963893
88	0xba504b91	-0.00079458306
89	0x3d4dbbd6	0.050227962
90	0xbe5c620f	-0.21521781
91	0xbe1f9af1	-0.15586449
92	0xbdf39374	-0.11893359
93	0xbe801e64	-0.25023186
94	0x3d962fe0	0.0733335
95	0xbdd4331b	-0.1036131
96	0xbdabf08e	-0.083954915
97	0x3d9e654b	0.07734164
98	0xbd88be17	-0.06676882
99	0x3d30a76a	0.04312841
100	0xbe4eb8f4	-0.20187742
101	0xbe1fa76d	-0.15591212
102	0xbe86279f	-0.26202103
103	0x3baf3ec4	0.0053480584
104	0x3e34ceeb	0.17657058
105	0x3a697739	0.000890601
106	0x3c192157	0.009346328
107	0xbd84a71b	-0.06477185
108	0x3b657955	0.0035014946
109	0xbdad6ffe	-0.084686264
110	0xbd20a1d6	-0.03921684
111	0xbca25d82	-0.019819979
112	0xbdfd1864	-0.12358168
113	0x3da247de	0.07923864
114	0xbec0e046	-0.37671107
115	0xbe2f81ce	-0.1713936
116	0xbe58ac1b	-0.21159403
117	0xbdd8e875	-0.10591213
118	0x3e8a201f	0.2697763
119	0x3eae4332	0.3403564
120	0x3de52eb8	0.111905515
121	0x3e00924e	0.12555811
122	0x3dd0666e	0.10175787
123	0xbd3c4cd1	-0.045971695
124	0xbe01c520	-0.12672853
125	0x3e389e9d	0.18029256
126	0xbe5c07a9	-0.21487297
127	0xbdc101ee	-0.09424196
128	0xbda4ca6d	-0.08046422
129	0x3d831634	0.06400719
130	0xbe81b3d4	-0.2533251
131	0x3d45a211	0.04825026
132	0x3e43b30d	0.19111271
133	0xbd30a1d4	-0.04312308
134	0x3dd096fa	0.101850465
135	0xbe23c520	-0.15993166
136	0xbd186d94	-0.037213877
137	0xbe487db1	-0.19579197
138	0xbd932ca9	-0.071862526
139	0x3d3ac25d	0.045595516
140	0x3e053384	0.13007933
141	0xbe823e6e	-0.25438255
142	0x3dac8611	0.08424009
143	0xbc191afc	-0.0093448125
144	0xbd8165eb	-0.063182674
145	0xbc9fc9f3	-0.019505477
146	0xbdbb357c	-0.09141061
147	0xbe3d4491	-0.18483187
148	0x3e1376b5	0.14400752
149	0xbc9a0878	-0.018802866
150	0xbdaa6bcb	-0.08321341
151	0xbdd3515b	-0.10318252
152	0xbb04e899	-0.002028024
153	0x3db50dd8	0.08840531
154	0x3ce663c5	0.028123746
155	0x3e1ecffd	0.15509029
156	0x3d5a896a	0.053353705
157	0xbca96165	-0.020676324
158	0xbe73f54f	-0.23824047
159	0xbdc9f98b	-0.0986205
160	0xbdd4c935	-0.1038994
161	0x3e061d45	0.13097103
162	0xbd0da988	-0.034585506
163	0x3d380e03	0.044935238
164	0xbe118626	-0.1421133
165	0xbe26f80d	-0.16305561
166	0xbe268aaf	-0.16263841
167	0xbe2ce8b7	-0.16885649
168	0x3b54cedc	0.003247193
169	0x3d2aa086	0.041656993
170	0x3cc628e6	0.024189424
171	0x3dd9d544	0.1063638
172	0xbd0f2d22	-0.03495515
173	0x3d8a1d80	0.06743908
174	0x3d251474	0.04030271
175	0xb85db476	-5.2858573e-05
176	0x3e60a155	0.21936543
177	0xbd38e277	-0.04513785
178	0xbbe6476d	-0.0070275576
179	0xbd0ad2d5	-0.03389247
180	0x3e043714	0.12911636
181	0xbd7ca2db	-0.06167875
182	0xbd7aa8b0	-0.06119603
183	0x3d904232	0.07043876
184	0x3d11a947	0.035561826
185	0x3d53e5cc	0.051732823
186	0x3e0d0d5c	0.13774627
187	0xbc6af011	-0.014339463
188	0xbd849995	-0.06474606
189	0xbc3417dc	-0.010992017
190	0xbe5a0048	-0.2128917
191	0xbe1ff2e4	-0.15619999
192	0x3e294bd6	0.16532835
193	0x3d87950c	0.06620225
194	0xbe0c8b16	-0.13724932
195	0xbbb1eb0b	-0.0054296306
196	0xbdac833f	-0.08423471
197	0xbd3f50c9	-0.046707902
198	0x3e4684e7	0.19386636
199	0x3e56dca9	0.20982613
200	0xbd405223	-0.04695333
201	0x3e6ffd75	0.2343653
202	0xbcb394da	-0.021921564
203	0xbe01c688	-0.1267339
204	0xbd80f0c4	-0.062959224
205	0x3e829dd4	0.25511038
206	0x3df25fe2	0.118346944
207	0x3b8efe1e	0.004363789
208	0xbe008a48	-0.1255275
209	0x3e290d3b	0.16508953
210	0x3d8e9efb	0.06963917
211	0x3d434704	0.047675148
212	0x3d36ffaa	0.044677414
213	0xbe21403d	-0.15747161
214	0x3e0e4254	0.1389249
215	0x3decc049	0.11560113
216	0xbd4d64d0	-0.05014497
217	0xbe1d7373	-0.15376072
218	0xbe71c1a2	-0.23609021
219	0xbe17b48f	-0.14814971
220	0xbd99a7de	-0.07502721
221	0xbe343a5f	-0.17600392
222	0xbcce4430	-0.025178999
223	0x3dc7264c	0.097241014
224	0xbc7b6a2d	-0.0153451385
225	0xbd165f94	-0.036712244
226	0x3e77ca3b	0.24198239
227	0x3d10bf4d	0.03533869
228	0x3e2fb9bf	0.171607
229	0x39dbbce7	0.00041911678
230	0x3e144e15	0.14482911
231	0x3afe6280	0.0019408017
232	0xbd5bb843	-0.053642523
233	0xbb90752d	-0.0044084997
234	0x3d2eed65	0.042706866
235	0xbd5b62f5	-0.05356117
236	0x3da5716d	0.08078275
237	0x3d106dad	0.035260845
238	0xbc96a4da	-0.018389154
239	0xbe644d4f	-0.22295116
240	0x3d0283cf	0.031863984
241	0x3e1160f9	0.14197148
242	0xbdc7411a	-0.09729214
243	0x3d019b8d	0.031642485
244	0xbd1e9f7a	-0.038726307
245	0x3c9913bc	0.018686168
246	0x3d83bb93	0.06432261
247	0xbd74c0ee	-0.059754305
248	0xbc9bee77	-0.019034607
249	0x3dd2d602	0.10294725
250	0xbc163542	-0.009167971
251	0xbd8e9bd3	-0.06963315
252	0x3c21ff0b	0.009887467
253	0xbe2d9f18	-0.1695522
254	0xbd5cc342	-0.05389715
255	0xbe0fee18	-0.1405567

cnn.2.bn.weight f4 [32]
0	0x3f7e2c3c	0.99286246
1	0x3f82235c	1.0167041
2	0x3f7cd970	0.98769283
3	0x3f781ec2	0.9692193
4	0x3f6ebda6	0.9325813
5	0x3f7f3c0f	0.9970102
6	0x3f80d9a9	1.0066425
7	0x3f7ac7af	0.97960943
8	0x3f940dc9	1.1566707
9	0x3f7d3cfa	0.9892117
10	0x3f71b0f1	0.94410616
11	0x3f838186	1.0273902
12	0x3f82f88e	1.0232103
13	0x3f7b6f1b	0.9821641
14	0x3f7b74ed	0.9822529
15	0x3f6e746b	0.9314639
16	0x3f8a1dec	1.0790381
17	0x3f7eea1a	0.9957596
18	0x3f8203a5	1.0157362
19	0x3f8398f3	1.0281051
20	0x3f82da93	1.0222954
21	0x3f7cb65c	0.9871576
22	0x3f848bc4	1.0355153
23	0x3f83d20f	1.029848
24	0x3f82383f	1.0173415
25	0x3f81cb7d	1.0140225
26	0x3f782b8d	0.96941453
27	0x3f7f9fc5	0.99853164
28	0x3f8083ee	1.0040262
29	0x3f7a2892	0.97718155
30	0x3f7aab59	0.97917706
31	0x3f78a6f4	0.9712975

cnn.2.bn.bias f4 [32]
0	0x3c6d7b95	0.014494796
1	0xbd7df47c	-0.062000737
2	0xbd8675c9	-0.065654345
3	0xbd96a8d2	-0.07356419
4	0xbd64564a	-0.055746354
5	0x3d78b36b	0.06071798
6	0xbd526488	-0.051365405
7	0xbdcdbabc	-0.100453824
8	0x3c833c1e	0.016019877
9	0xbd04791e	-0.03234207
10	0xbd768037	-0.06018087
11	0xbd5b5593	-0.053548407
12	0x3cd3b26e	0.025841918
13	0x3a9da694	0.0012027794
14	0xbda908d8	-0.0825364
15	0xbdac7a18	-0.08421725
16	0xba8957e2	-0.0010478462
17	0xbd52ea3b	-0.05149291
18	0xbc3041f4	-0.010757912
19	0x3ceee3e7	0.029161407
20	0x3c9082b7	0.017640455
21	0xbd4ab49c	-0.04948865
22	0xbd55a41a	-0.052158453
23	0xbe2e970b	-0.17049806
24	0xbd4ffaba	-0.05077622
25	0x3d03f9bf	0.0322206
26	0xbdb209f8	-0.08693308
27	0xbd5ab3f5	-0.053394277
28	0xbd007a32	-0.031366535
29	0xbd9c43ca	-0.07630117
30	0x3c1545ff	0.009110927
31	0xbdb53d51	-0.08849586

cnn.2.bn.running_mean f4 [32]
0	0xbf7a321c	-0.9773271
1	0xbf4bdefb	-0.79637116
2	0xbe959937	-0.29218456
3	0x40192a18	2.3931942
4	0x3ed9233d	0.42409697
5	0x3e7eb48c	0.2487356
6	0xbf0a3e40	-0.54001236
7	0xbf9c0f76	-1.2192218
8	0xbddc5b88	-0.10759646
9	0x3ef98168	0.48731542
10	0xbf473a53	-0.7782337
11	0xbd79a354	-0.060946777
12	0xbfa6a85e	-1.3020132
13	0x3f195ec5	0.5991023
14	0xbe4e5f80	-0.20153618
15	0xbd73190a	-0.05935005
16	0x3ef96d31	0.4871612
17	0xbf2b1a1e	-0.66836727
18	0x3fb2b955	1.3962809
19	0x3eb95eb3	0.36205062
20	0xbf9831b0	-1.1890163
21	0xbf3339c8	-0.7001004
22	0xbd28be76	-0.041197263
23	0xbf07e8bf	-0.5308952
24	0x3f9ae642	1.2101519
25	0x3eeb0693	0.45903453
26	0xbdef406d	-0.1168221
27	0xbf94f7af	-1.1638087
28	0xbe24c082	-0.16089061
29	0xbf8e39ff	-1.1111449
30	0xbf4f65b4	-0.8101456
31	0xbf2dbd47	-0.6786694

cnn.2.bn.running_var f4 [32]
0	0x408af655	4.34257
1	0x404d9abb	3.212569
2	0x3f784af1	0.9698935
3	0x40269e16	2.6033988
4	0x3fa4a462	1.2862666
5	0x3fdeffae	1.7421777
6	0x3f8a921a	1.0825837
7	0x3fa06e76	1.253371
8	0x3f69663b	0.91171616
9	0x3f66d563	0.9016935
10	0x4074b021	3.82325
11	0x3f96cca7	1.1781205
12	0x3ff2597b	1.8933557
13	0x3fdd652a	1.7296498
14	0x3ff63ff4	1.9238267
15	0x3fe1902b	1.7622122
16	0x3f883691	1.0641652
17	0x3f3bf591	0.7342158
18	0x401671c0	2.3506927
19	0x3fa00877	1.2502583
20	0x4023bfad	2.558574
21	0x402bbacc	2.6832762
22	0x3f694da7	0.91134113
23	0x3f306b33	0.68913573
24	0x3fbc4e5f	1.4711417
25	0x3f8f5a40	1.1199417
26	0x406891a5	3.6338894
27	0x3f435ee7	0.76316684
28	0x3f1b6ce0	0.60713005
29	0x3fd550ed	1.6665322
30	0x400b5ce5	2.1775448
31	0x3fb078f0	1.3786907

cnn.4.conv.weight f4 [64, 32, 3, 3]
0	0x3de7037b	0.11279961
1	0x3e04d54f	0.12971996
2	0xbdd9141d	-0.105995394
3	0xbd68f0a3	-0.056870114
4	0xbcaf814c	-0.021423958
5	0x3ad9699f	0.0016587264
6	0xbd2c93b9	-0.042133067
7	0xbdb0cf0d	-0.08633242
8	0x3dfdac6c	0.123864025
9	0x3daa7849	0.08323724
10	0x3b323792	0.0027193767
11	0x3e313b62	0.17307809
12	0xbcca9b18	-0.024732158
13	0x3d21e3d2	0.039523907
14	0x3d4a35db	0.049367767
15	0xbcac30f5	-0.021019438
16	0x3cfe838d	0.031068588
17	0x3d06e2a9	0.032931004
18	0x3d1ba586	0.037999652
19	0xbd85336a	-0.06503947
20	0x3a1d31c4	0.00059964904
21	0xbda64dd7	-0.081203155
22	0x3c93af08	0.018027797
23	0xbd01487a	-0.03156326
24	0xbdf8d12a	-0.1214927
25	0xbd912180	-0.07086468
26	0xbd31aa22	-0.043375142
27	0x3da9ac06	0.08284764
28	0x3c5bd283	0.013416889
29	0x3c91ad77	0.01778291
30	0xbdb12e33	-0.0865139
31	0xbdc2b6f3	-0.09507551
32	0xbdfcc0cc	-0.123414606
33	0x3d3db89c	0.046318635
34	0x3cc9bcb1	0.024626108
35	0x3cc93200	0.024559975
36	0x3daed03b	0.085358106
37	0x3d24f3c2	0.040271528
38	0x3e1035e4	0.14083058
39	0xbc95dd54	-0.018294014
40	0xbc1c3cf5	-0.009536018
41	0x3d68f2c3	0.05687214
42	0xbdcd94ef	-0.100381725
43	0x3dd24f91	0.10269082
44	0x3dc4d2ab	0.09610494
45	0xbc5e42d3	-0.013565737
46	0x3d58e05d	0.052948344
47	0x3e6070c6	0.2191802
48	0xbd481977	-0.04885241
49	0x3d15e34c	0.03659372
50	0xbdb9a539	-0.09064717
51	0x3d92646b	0.071480595
52	0x3e2e0b50	0.16996503
53	0xbd4da1aa	-0.050203003
54	0xbd01a5c5	-0.03165223
55	0x3e29b482	0.16572765
56	0xbe088cd7	-0.13334976
57	0x3d9786dc	0.07398769
58	0x3ced9520	0.029001772
59	0xbdaab818	-0.08335894
60	0xbba68f67	-0.005083013
61	0x3e42ea2e	0.19034645
62	0x3da37157	0.07980602
63	0x3d3f9946	0.046777032
64	0xbd3137c2	-0.043266065
65	0x3cc3c427	0.023897244
66	0xbc315744	-0.010824028
67	0xbd18818f	-0.03723293
68	0x3d4aa58b	0.04947428
69	0x3d94bad5	0.07262198
70	0xbc814e95	-0.015784541
71	0xbdc57119	-0.09640712
72	0xbd39b386	-0.045337223
73	0x3d35a219	0.04434404
74	0x3e3d52c7	0.18488608
75	0xbd868635	-0.06568567
76	0xbe31ea2e	-0.17374489
77	0x3d0feef8	0.035140008
78	0xbe41e598	-0.1893524
79	0xbd879370	-0.06619918
80	0x3c48922e	0.012241883
81	0xbdcbfdbe	-0.09960507
82	0x3d95a9dc	0.07307789
83	0xbe8a7971	-0.27045777
84	0x3d44ca34	0.0480444
85	0xbdd4c49f	-0.10389065
86	0x3d7fb857	0.06243166
87	0x3c9fd811	0.019512208
88	0x3e20e68e	0.1571295
89	0x3cb45367	0.022012426
90	0x3da01b11	0.078176625
91	0xbd245cc4	-0.04012753
92	0xbd070f18	-0.03297338
93	0xbd070a16	-0.032968603
94	0x3e63e623	0.22255759
95	0xbcc73897	-0.024318976
96	0xbe1eb735	-0.15499575
97	0xbdb6b428	-0.08921081
98	0xbd87a688	-0.0662356
99	0xbd41a8c0	-0.047280073
100	0xbe262731	-0.16225888
101	0xbd09f2d8	-0.03367886
102	0xbe19f5ab	-0.15035121
103	0xbd8ec082	-0.06970312
104	0x3d0c3e3e	0.034239046
105	0x3d964ff4	0.073394686
106	0xbdaf9091	-0.08572496
107	0x3d085c42	0.03329111
108	0xbd24484e	-0.040108018
109	0xbd8c8a3f	-0.06862306
110	0xbdaf11de	-0.0854833
111	0xbddd855d	-0.10816453
112	0xbd83b3f8	-0.06430811
113	0x39e64298	0.00043918635
114	0xbda2f720	-0.079572916
115	0xbc1d7b8b	-0.0096119745
116	0xba33baa8	-0.0006856122
117	0x3dd342de	0.10315488
118	0xbd53ccb4	-0.051708892
119	0xbca27c6c	-0.01983472
120	0x3e308905	0.17239769
121	0x3d216091	0.039398734
122	0x3d4d434a	0.050113
123	0x3cb4fdee	0.02209374
124	0x3afb9e97	0.0019197044
125	0xbd47c911	-0.048775736
126	0x3df936df	0.12168669
127	0x3cb319f1	0.021862956
128	0xbd850e8c	-0.06496915
129	0xbdb89465	-0.09012679
130	0xbd5a0547	-0.05322769
131	0xbddff756	-0.109358475
132	0xbde18810	-0.1101228
133	0x3da82a8d	0.08211241
134	0x3e1b86c0	0.15188122
135	0xbdd70e78	-0.105008066
136	0xbde20373	-0.11035814
137	0x3d380231	0.044923965
138	0xbdec6409	-0.11542518
139	0xbc90537a	-0.01761793
140	0xbd9a21a1	-0.075259455
141	0xbdb58aa3	-0.088643335
142	0xbc4b82be	-0.012421308
143	0x3d4a72cc	0.049425885
144	0xbdceba89	-0.100941725
145	0xbce6814b	-0.028137824
146	0x3d8d27fd	0.06892393
147	0x3ddcc066	0.107788846
148	0xbc009311	-0.007847563
149	0xbe66a597	-0.22524105
150	0xbcbe52a5	-0.023232767
151	0xbdf068b9	-0.11738724
152	0xbe5bfa42	-0.21482185
153	0x3dd58b49	0.10426957
154	0xbb69f01f	-0.0035696102
155	0x3ba1a620	0.0049331337
156	0xbc733dd4	-0.014846284
157	0x3d4853c4	0.04890801
158	0xbe64a7d8	-0.22329652
159	0xbd492b7a	-0.049113728
160	0xbcd91f88	-0.026504293
161	0x3c01cc28	0.00792221
162	0xbd8ab2c8	-0.06772381
163	0x3e474847	0.19461165
164	0x3d7c2a4c	0.061563775
165	0xbd3e9f3a	-0.04653857
166	0x3d4c488b	0.04987387
167	0x3db76897	0.08955496
168	0xbda829d3	-0.08211102
169	0x3d61abc7	0.05509546
170	0x3daff46b	0.08591541
171	0x3d6beef3	0.057600927
172	0xbccbf86e	-0.024898734
173	0xbc8e4089	-0.017364757
174	0x3cdd1518	0.026987597
175	0xbcba6241	-0.02275193
176	0xbe0793f7	-0.13240038
177	0xbde0259a	-0.10944672
178	0xbe2b5a54	-0.16733676
179	0x3c937e60	0.018004596
180	0xbdf1d363	-0.11807897
181	0x3dbaa241	0.09112979
182	0xbc7d7ba1	-0.01547137
183	0x3e5101b3	0.20410804
184	0xbe6093c6	-0.21931371
185	0x3d807bde	0.06273626
186	0xbe045a7a	-0.12925139
187	0x3bc09c0b	0.005877977
188	0x3cdef424	0.027216025
189	0xbe10df35	-0.14147647
190	0x3cc9945d	0.024606878
191	0x3dd7707f	0.10519504
192	0x3d8bd517	0.06827753
193	0x3e090388	0.13380253
194	0xbdc13e57	-0.094357185
195	0x3c553e3e	0.013015328
196	0xbe4738b0	-0.19455218
197	0x3d6d9d3a	0.05801127
198	0x3dc58e76	0.09646313
199	0x3dc1818c	0.09448537
200	0xbe1be115	-0.1522258
201	0xbbfb7cb5	-0.0076747783
202	0xbe3ad12b	-0.18243854
203	0x3dcaf30e	0.0990964
204	0x3cd86f87	0.026420368
205	0xbd64c0e4	-0.055848017
206	0x3b0d8e8e	0.0021599862
207	0x3d01fadf	0.03173339
208	0xbe24f880	-0.1611042
209	0xbda9ed25	-0.08297185
210	0x3bd4cf42	0.0064944336
211	0x3dfd14c6	0.12357478
212	0xbd9bc497	-0.07605856
213	0xbdfc8a4f	-0.12331068
214	0x3e0455be	0.12923333
215	0xbdaf7301	-0.08566857
216	0x3e3adab6	0.18247494
217	0x3de98810	0.11402905
218	0x3e736840	0.23770237
219	0xbdd2259c	-0.1026108
220	0xbdb9be71	-0.09069527
221	0x3db03a66	0.086048886
222	0xbd0fce4a	-0.035108842
223	0xbd6835f9	-0.056692097
224	0xbcf50bf7	-0.029912932
225	0xba9478d9	-0.0011327519
226	0x3deda666	0.116040036
227	0x3d80ce33	0.062893294
228	0x3d4ca7c2	0.049964674
229	0x3e0f6c65	0.14006193
230	0xbde6c02a	-0.11267121
231	0x3d4e9001	0.0504303
232	0xbe160745	-0.1465121
233	0x3d3ce9bf	0.046121355
234	0xbdfab634	-0.12241784
235	0x3da26847	0.079300456
236	0xbdc0ce51	-0.09414352
237	0xbe18c4a0	-0.14918756
238	0x3d23a5b9	0.039952967
239	0x3dc6e781	0.097121246
240	0x3d4fc3a8	0.0507237
241	0xbdce42cb	-0.100713335
242	0xbe090242	-0.13379768
243	0xbdbfca4f	-0.09364759
244	0x3dfe9246	0.12430243
245	0x3db52b66	0.08846168
246	0x3e318176	0.17334542
247	0xbcd87f05	-0.026427755
248	0x3de0c8d6	0.109758064
249	0x3be3579c	0.006937934
250	0x3cc0c6c1	0.023532273
251	0x3d9d1aba	0.07671113
252	0x3c758eff	0.014987706
253	0x3d8fc248	0.07019478
254	0x3deb0cc3	0.114770435
255	0x3e339923	0.17538886

cnn.4.bn.weight f4 [64]
0	0x3f869e22	1.0517008
1	0x3f846b58	1.0345259
2	0x3f874330	1.0567379
3	0x3f855ccc	1.0418944
4	0x3f895541	1.0729142
5	0x3f8ef130	1.1167355
6	0x3f8028a5	1.0012404
7	0x3f8aac9d	1.0833927
8	0x3f7b889b	0.9825532
9	0x3f83f036	1.0307682
10	0x3f77c484	0.96784234
11	0x3f76ed0d	0.9645546
12	0x3f8ca1b6	1.098685
13	0x3f813e2a	1.0097096
14	0x3f8af48d	1.0855881
15	0x3f81873a	1.0119393
16	0x3f76e49c	0.9644258
17	0x3f868739	1.0510017
18	0x3f8e7be6	1.1131561
19	0x3f86d541	1.053383
20	0x3f84dca4	1.0379834
21	0x3f83f29f	1.0308417
22	0x3f79d8db	0.9759652
23	0x3f873d77	1.0565633
24	0x3f7e8238	0.9941745
25	0x3f813213	1.0093406
26	0x3f7ff7ca	0.9998747
27	0x3f879517	1.0592374
28	0x3f85d9e0	1.0457115
29	0x3f7bc14f	0.9834184
30	0x3f8d3d6b	1.1034368
31	0x3f7feee1	0.99973875
32	0x3f876f40	1.0580826
33	0x3f7f6f3e	0.9977912
34	0x3f81609b	1.0107607
35	0x3f86fbee	1.0545633
36	0x3f863162	1.048382
37	0x3f8316de	1.0241354
38	0x3f814cb5	1.0101534
39	0x3f8749f9	1.056945
40	0x3f83ba73	1.0291275
41	0x3f85ab87	1.0442971
42	0x3f828611	1.0197164
43	0x3f81f7b6	1.015372
44	0x3f87207f	1.0556792
45	0x3f80a077	1.004897
46	0x3f83ba45	1.029122
47	0x3f7d1bfd	0.9887083
48	0x3f7e2ddd	0.9928873
49	0x3f7f30a3	0.9968359
50	0x3f90ba6e	1.1306894
51	0x3f82967b	1.0202173
52	0x3f843a41	1.0330278
53	0x3f8179f6	1.0115345
54	0x3f7c53a3	0.9856512
55	0x3f7b9cdf	0.9828624
56	0x3f8109c0	1.00811
57	0x3f86b9b3	1.0525421
58	0x3f7b1fb0	0.98095226
59	0x3f7c1796	0.9847349
60	0x3f82d86c	1.0222297
61	0x3f840693	1.0314506
62	0x3f8c532b	1.0962881
63	0x3f797a76	0.97452486

cnn.4.bn.bias f4 [64]
0	0x3d358bf5	0.044322927
1	0x3d82b565	0.063822545
2	0xbd8cc653	-0.06873765
3	0x3bf0a5bf	0.007343977
4	0xbd81dcb6	-0.063409254
5	0xbd04b47a	-0.03239868
6	0x3c86d905	0.016460905
7	0xbc99fa6d	-0.01879617
8	0x3b985e91	0.004649945
9	0x3cc6c730	0.024264902
10	0xbabc0fd1	-0.0014347975
11	0xbceb96eb	-0.028758487
12	0x39831e5a	0.0002500888
13	0x3cca2fb3	0.024680948
14	0xbd83ecf1	-0.06441677
15	0xbcd18ac2	-0.02557886
16	0xbcc7e903	-0.0244031
17	0xba8240c3	-0.0009937513
18	0xbcfddfcf	-0.03099051
19	0xbd65293b	-0.055947524
20	0xbcf624b9	-0.030046808
21	0xbc9921ef	-0.018692939
22	0xbc0c0dcd	-0.008548212
23	0xbda02daf	-0.078212135
24	0xbd852530	-0.065012336
25	0x3c9ae913	0.018909967
26	0xb9b6ce8a	-0.0003486763
27	0x3ca18deb	0.019720992
28	0xbc2e23fd	-0.010628697
29	0xbb61543d	-0.0034382485
30	0xbcc66c13	-0.024221456
31	0x3c3b7367	0.011441088
32	0x3c79a3eb	0.015236835
33	0xbba92a3b	-0.005162505
34	0xbc4748a6	-0.012163317
35	0x3d86c744	0.06580976
36	0xbd6e17d7	-0.058128204
37	0x3ba49dbf	0.0050236876
38	0xbc98410e	-0.018585708
39	0x3b8dcf25	0.004327672
40	0x3d3ff8df	0.0468682
41	0xbd81415d	-0.06311295
42	0x3d03bae1	0.032160643
43	0xbac8a3c6	-0.0015307597
44	0xbbfe831b	-0.007767094
45	0x3c54527a	0.012959117
46	0x3c9bc303	0.019013887
47	0xbc6c6fe3	-0.014430973
48	0x3b444af8	0.0029951911
49	0xbcb77883	-0.022396332
50	0xbd86a012	-0.065735
51	0xbe0ba24c	-0.1363613
52	0x3ca49886	0.02009226
53	0xbd6dadd4	-0.058027104
54	0xbc2d7ca0	-0.010588795
55	0xbbccfde2	-0.006255851
56	0x3ceba13c	0.028763406
57	0x3ce5ffea	0.02807613
58	0xba820b05	-0.0009921497
59	0xbce58aa7	-0.028020216
60	0x3c96e561	0.018419923
61	0xbd94a1e7	-0.07257443
62	0xbd3acfb3	-0.045608234
63	0xbce0015f	-0.027344404

cnn.4.bn.running_mean f4 [64]
0	0xbea11613	-0.31462154
1	0x3f249251	0.6428576
2	0x3f31f179	0.69509083
3	0x3faec11d	1.3652683
4	0x3f754ce7	0.9582047
5	0xbfbdbe67	-1.4823731
6	0xbeaddd50	-0.3395791
7	0x3da54651	0.080700524
8	0x3f90545d	1.1275746
9	0x3f82e916	1.0227382
10	0x3fbd936c	1.4810615
11	0xbf9b6494	-1.2140069
12	0xbe88bce1	-0.26706603
13	0x3f673c8c	0.9032676
14	0x3fbdfa62	1.4842036
15	0x3ee85048	0.4537375
16	0xbd9e6919	-0.077348895
17	0xbea27a34	-0.3173386
18	0x3f4c255c	0.79744506
19	0x3ff02483	1.8761142
20	0xbfaf7398	-1.3707151
21	0x3f59654e	0.84920204
22	0x3f4d0aa4	0.8009436
23	0xbfd7e111	-1.686556
24	0xbfb59c66	-1.4188354
25	0x3f8abea8	1.0839434
26	0xbf2e3e3d	-0.6806372
27	0x3f542326	0.8286613
28	0xbf23fdc1	-0.6405907
29	0xbfc5c789	-1.5451518
30	0x3da45ab9	0.080251165
31	0xbefe94ec	-0.49722993
32	0x3f769ad8	0.9633002
33	0x3f24327e	0.64139545
34	0x3f590cb5	0.84785014
35	0x3f245879	0.641975
36	0x3f49e10d	0.78859025
37	0x3f54ef50	0.8317766
38	0x3f426df0	0.75949
39	0xc01a4daa	-2.4109902
40	0x3e1847eb	0.14871185
41	0x3f98d256	1.193919
42	0xbf378170	-0.7168188
43	0xbfda1516	-1.7037685
44	0xbf1ef87a	-0.62097895
45	0xbf9620d2	-1.1728766
46	0x3e76b072	0.24090746
47	0x3f808131	1.0039426
48	0x3fc8c834	1.5686097
49	0xbfa0e253	-1.2569069
50	0xbfc09fae	-1.504873
51	0xbf93158a	-1.1490948
52	0x3fcf65bb	1.6202921
53	0xc00243f0	-2.0353966
54	0x3e7f1c77	0.24913202
55	0xc0234a37	-2.5514047
56	0x3f28617c	0.6577375
57	0x3ecd3e62	0.40086657
58	0x3e84e129	0.25953034
59	0x40082d5c	2.1277685
60	0x3fadd6b4	1.3581147
61	0xbfb61919	-1.4226409
62	0xbed9fb6c	-0.42574632
63	0xbfd58567	-1.6681336

cnn.4.bn.running_var f4 [64]
0	0x3fc112d2	1.5083869
1	0x3fbe0f70	1.4848461
2	0x4084a68b	4.14533
3	0x3fe81e68	1.8134279
4	0x3fcc2d47	1.5951318
5	0x4056b560	3.3548203
6	0x3ff7f390	1.9371204
7	0x4000a505	2.010072
8	0x3faa8fbd	1.3325115
9	0x3ffb3333	1.9625
10	0x3f89f661	1.0778314
11	0x3fae36fe	1.3610532
12	0x4035f5ed	2.843135
13	0x3fef3bd8	1.8690138
14	0x40589220	3.3839188
15	0x3fda148a	1.7037518
16	0x409bce20	4.8689117
17	0x4035bcfe	2.8396602
18	0x4027d851	2.622578
19	0x3f8cb83a	1.0993721
20	0x4056c2eb	3.3556468
21	0x3fbd6ac5	1.4798208
22	0x404f695a	3.2408051
23	0x40402c0f	3.0026891
24	0x4027b0db	2.6201694
25	0x4004defe	2.0761104
26	0x3f96b34a	1.1773465
27	0x4059cb76	3.4030433
28	0x4079d5fc	3.9036856
29	0x407fcdcf	3.9969366
30	0x401c3efb	2.441344
31	0x3fe30792	1.7736685
32	0x3fcb7ca4	1.5897412
33	0x3fb86f7d	1.4409024
34	0x3ffada12	1.95978
35	0x402c76b3	2.6947448
36	0x4003b92f	2.0581777
37	0x40336152	2.802815
38	0x4014549b	2.317664
39	0x40530515	3.2971852
40	0x3fcef096	1.6167171
41	0x401dfa19	2.4683897
42	0x4003c7d8	2.0590725
43	0x40243008	2.5654316
44	0x40947769	4.6395764
45	0x401705de	2.359733
46	0x3fb2acb1	1.3958951
47	0x4008a96c	2.1353407
48	0x4003ccb3	2.0593688
49	0x403df545	2.968095
50	0x40312b69	2.7682745
51	0x4049c10e	3.1524081
52	0x4032c063	2.7929924
53	0x4050ab93	3.260472
54	0x3fb2a8ca	1.395776
55	0x401da716	2.463323
56	0x3fb1c090	1.388689
57	0x3fef0993	1.8674797
58	0x4002cea0	2.0438614
59	0x3f9df56e	1.2340524
60	0x3fae2cff	1.3607482
61	0x40357111	2.835026
62	0x4013e2b0	2.310711
63	0x4002fc45	2.0466473

mlp.net.0.weight f4 [64, 32]
0	0x3cd9e752	0.02659956
1	0xbd36404c	-0.044494912
2	0x3e7e1cb8	0.24815643
3	0x3ab5afa4	0.0013861549
4	0x3e032c9c	0.12809986
5	0xbe06e0ec	-0.13171738
6	0x3dd90e79	0.105984636
7	0x3e250e86	0.16118822
8	0xbe54cb09	-0.20780577
9	0x3e556e4b	0.20842855
10	0x3e393e34	0.18090135
11	0x3dbda330	0.09259641
12	0x3e276dc4	0.16350466
13	0x3d0a3d5d	0.033749927
14	0x3da285a3	0.079356454
15	0xbe854830	-0.26031637
16	0x3e382378	0.1798228
17	0x3e7c8ef1	0.24663903
18	0xbe3a9cd3	-0.18223886
19	0xbe4a8f9b	-0.19781344
20	0x3e537b2c	0.20652455
21	0x3ddb104b	0.10696467
22	0x3df56220	0.119816065
23	0xbdfe5158	-0.12417859
24	0xbe36f2a3	-0.17865996
25	0xbe825082	-0.25452048
26	0xbca6e3be	-0.020372268
27	0xbe71d795	-0.23617394
28	0x3c47ad10	0.012187257
29	0xbc525cc9	-0.0128395045
30	0xbe76e85d	-0.24112077
31	0xbe351ffa	-0.1768798
32	0xbc9d4db8	-0.019202098
33	0x3ca5d489	0.020242946
34	0xbcf2c6fd	-0.0296359
35	0x3dad12a1	0.08450819
36	0xbd09aaf3	-0.033610296
37	0xbe82569f	-0.25456712
38	0xbe30452d	-0.17213888
39	0xbd25ce0f	-0.040479716
40	0xbe2be4dd	-0.16786523
41	0x3dba3436	0.0909199
42	0xbbee49f1	-0.007271998
43	0xbd9ba810	-0.07600415
44	0x3e137e12	0.14403561
45	0x3bf240eb	0.0073929927
46	0xbe5d9c50	-0.2164166
47	0x3cc51493	0.024057662
48	0xbd04ad2e	-0.03239172
49	0x3daaa4d4	0.0833222
50	0xbdb54a32	-0.08852042
51	0xbe7f53b1	-0.2493427
52	0xbcd37627	-0.025813175
53	0xbe3fde37	-0.18737112
54	0x3dbbc594	0.091685444
55	0xbdce155c	-0.10062668
56	0x3dd6592a	0.104662254
57	0x3e193b44	0.14964014
58	0x3c808dde	0.015692648
59	0xbde0ee2d	-0.109829284
60	0x3e0a1ea8	0.13488257
61	0x3e3c4296	0.18384776
62	0xbdf41ee4	-0.119199544
63	0xbd109f9b	-0.03530846
64	0xbc14b79a	-0.009076977
65	0x3cba606c	0.022751056
66	0xbe33bc42	-0.17552283
67	0x3e34a1fa	0.17639914
68	0x3db8c572	0.09022035
69	0xbd531956	-0.051537834
70	0x3dbd13aa	0.09232266
71	0x3ba65bf8	0.0050768815
72	0xbe6006c3	-0.2187758
73	0xbe2f74d5	-0.17134412
74	0x3dc11b18	0.09428996
75	0xbe04816a	-0.12939993
76	0xbdc4b8cb	-0.09605559
77	0x3d0dfdaf	0.03466576
78	0xbe455df0	-0.19274116
79	0x3e262268	0.16224062
80	0xbc8bdfd2	-0.0170745
81	0xbe34d749	-0.1766025
82	0xbe2c2200	-0.16809845
83	0xbdafe895	-0.085892834
84	0xbd755c14	-0.059902266
85	0xbe4b8483	-0.19874768
86	0x3d5ccfc0	0.053909063
87	0x3e267238	0.16254508
88	0xbe80a964	-0.25129235
89	0xbe0fae31	-0.14031292
90	0xbe55f16b	-0.20892875
91	0xbe523010	-0.20526147
92	0x3def78e6	0.116929814
93	0xbdf9ed3c	-0.12203452
94	0xbc703ce3	-0.014662954
95	0x3e48269d	0.1954598
96	0x3e3f286a	0.1866776
97	0x3e7e566b	0.24837653
98	0x3e062415	0.13099702
99	0x3e04a087	0.12951861
100	0xbda7c20a	-0.08191307
101	0x3e76107a	0.24029723
102	0x3df7f7c5	0.12107805
103	0x3e43296d	0.19058771
104	0x3bcdb625	0.006277817
105	0xbe5b8d16	-0.21440539
106	0x3db1cca4	0.0868161
107	0x3e2085b2	0.15676
108	0x3e4927a9	0.19644035
109	0x3d8461fa	0.06464
110	0xbe566342	-0.20936301
111	0xbe184cad	-0.14873
112	0xbe4bde51	-0.19909026
113	0xbde88e8b	-0.11355313
114	0x3de12ec6	0.109952495
115	0x3d98f3c6	0.07468371
116	0x3bae3390	0.0053162053
117	0xbe122bb3	-0.14274482
118	0xbdf286c8	-0.11842114
119	0xbe0ff054	-0.14056522
120	0xbdf8bf10	-0.12145817
121	0xbdf0e05b	-0.117615424
122	0xbc387c55	-0.011260112
123	0xbe70ded4	-0.23522502
124	0x3e04ce6e	0.12969372
125	0xbda8734e	-0.082251176
126	0x3e0c9783	0.13729672
127	0xbe04670f	-0.12929939
128	0xbe69b83a	-0.22824183
129	0x3db4a018	0.08819598
130	0x3e56374d	0.20919533
131	0xbe56c2bd	-0.20972724
132	0x3e3a93da	0.18220463
133	0xbd816c1b	-0.063194476
134	0xbdd70633	-0.10499229
135	0x3e4d2613	0.20034055
136	0xbdec4846	-0.115372226
137	0xbd20c01e	-0.039245717
138	0x3dc5590e	0.096361265
139	0x3e642078	0.22278011
140	0xbd33f21c	-0.043932065
141	0xbdd9354b	-0.10605868
142	0xbdb1f972	-0.08690156
143	0xbe5d855b	-0.21632902
144	0xbdfc8ecf	-0.12331926
145	0x3e1a8b1a	0.15092126
146	0x3e168bc7	0.14701758
147	0xbe74515d	-0.23859163
148	0xbe523ead	-0.20531721
149	0x3d3ad827	0.045616295
150	0x3db81e68	0.089901745
151	0x3e6b2076	0.22961602
152	0x3dd78312	0.105230466
153	0xbe44988a	-0.19198814
154	0xbe7e517f	-0.24835776
155	0x3e0ad51d	0.13557859
156	0x3d9abc3f	0.07555436
157	0x3d975efd	0.073911645
158	0x3e683b53	0.2267888
159	0xbe2825b6	-0.16420636
160	0x3df60ca5	0.120141305
161	0x3d9a5dcd	0.07537422
162	0xbe2dfbb2	-0.16990545
163	0x3e2ff661	0.1718383
164	0x39b5aef2	0.00034653355
165	0xbe6c9954	-0.23105365
166	0x3cff06c9	0.031131165
167	0x3cd509c9	0.026005642
168	0x3dc960a0	0.09832883
169	0xbdbec2ee	-0.09314524
170	0x3e2f9cfb	0.17149727
171	0xbe5246cc	-0.2053482
172	0x3db83108	0.08993727
173	0x3de66f8a	0.11251743
174	0xbe190ebb	-0.14947025
175	0x3e2cdf2f	0.16882013
176	0xbdf58924	-0.11989048
177	0x3e08efd6	0.1337274
178	0x3de1c4fe	0.110239014
179	0xbae8393e	-0.0017717255
180	0x3d59ba36	0.0531561
181	0x3e552835	0.20816119
182	0x3dda9d14	0.106744915
183	0x3e1ad9d4	0.15122157
184	0xbc9cb084	-0.019127138
185	0x3dc3a03e	0.09552048
186	0x3e629202	0.2212601
187	0xbe3dd23b	-0.18537228
188	0xbda51a95	-0.08061711
189	0x3dc8206a	0.097718075
190	0x3d870b42	0.06593944
191	0xbe21f3b9	-0.15815629
192	0xbd9dacef	-0.07699
193	0xbdcc08ba	-0.09962602
194	0x3e3478d8	0.17624223
195	0xbe918a09	-0.28425625
196	0xbe24598c	-0.16049784
197	0xbe79afc3	-0.24383454
198	0xbdefc3aa	-0.11707242
199	0x3db2cb11	0.08730138
200	0xbe305c9f	-0.17222832
201	0x3e1b3446	0.1515666
202	0x3d124432	0.035709567
203	0xbe056dbe	-0.13030145
204	0xbc86af91	-0.016441138
205	0xbd8cc553	-0.06873574
206	0xbd9febbd	-0.078086354
207	0x3d1d22c0	0.03836322
208	0xbe244423	-0.16041617
209	0xbd98f4fb	-0.07468601
210	0xbe6309cd	-0.22171707
211	0xbdbe14bf	-0.09281301
212	0xbe1669f7	-0.1468886
213	0x3e2815c3	0.16414551
214	0xbe29636c	-0.16541833
215	0x3e38f02a	0.18060365
216	0x3dbde003	0.092712425
217	0x3cb292a3	0.021798437
218	0x3e470c51	0.19438292
219	0x3df40c76	0.11916439
220	0xbe1da3d8	-0.15394533
221	0xbe17fcca	-0.14842525
222	0x3daf4deb	0.085597835
223	0xbd62a822	-0.055336125
224	0xbe2da4d1	-0.16957404
225	0x3df60efb	0.12014576
226	0xbe2f6530	-0.17128444
227	0x3e5eb1b1	0.21747471
228	0x3de43b61	0.11144138
229	0x3db5e046	0.088806674
230	0x3e5a7fba	0.21337786
231	0x3e195900	0.14975357
232	0x3e7934c8	0.2433654
233	0xbe5f2961	-0.21793129
234	0xbd25b59e	-0.040456407
235	0x3dae0060	0.08496165
236	0x3d76b749	0.060233388
237	0xbe630f3d	-0.22173782
238	0x3c41d17a	0.011829728
239	0x3d976f78	0.07394308
240	0xbd3dd29e	-0.04634344
241	0x3e3fb177	0.18720041
242	0x3e0bdc7c	0.13658327
243	0xbdc40d63	-0.09572866
244	0x3e690155	0.22754414
245	0xbe2106c8	-0.15725243
246	0x3e43687a	0.19082823
247	0xbcd0e080	-0.025497675
248	0x3dbb02c0	0.09131384
249	0x3e9558ff	0.2916946
250	0xbe055791	-0.13021685
251	0xbcf45b3f	-0.029828666
252	0x3e41a904	0.1891213
253	0xbe2b5783	-0.16732602
254	0xbcb4f9ba	-0.022091735
255	0xbca98035	-0.020691017

mlp.net.1.weight f4 [64]
0	0x3f8491e5	1.0357023
1	0x3f80252f	1.0011348
2	0x3f74db75	0.95647365
3	0x3f793fef	0.9736318
4	0x3f7d7864	0.99011827
5	0x3f7875bd	0.97054654
6	0x3f7e36c8	0.9930234
7	0x3f7f9b77	0.99846596
8	0x3f75e693	0.96054953
9	0x3f80d2e0	1.0064354
10	0x3f812d6c	1.0091987
11	0x3f7fc2dd	0.9990671
12	0x3f7cc7e8	0.9874253
13	0x3f800592	1.00017
14	0x3f83ad7c	1.0287318
15	0x3f80781d	1.0036656
16	0x3f7fba43	0.9989359
17	0x3f881a60	1.0633049
18	0x3f80526a	1.0025151
19	0x3f7d548c	0.98957133
20	0x3f7b23f6	0.9810175
21	0x3f82cfbb	1.0219644
22	0x3f824807	1.0178231
23	0x3f7e4cbd	0.99335843
24	0x3f814db2	1.0101836
25	0x3f83a484	1.0284581
26	0x3f8306a2	1.0236399
27	0x3f8135f5	1.0094591
28	0x3f80b3c3	1.0054859
29	0x3f8493c3	1.0357593
30	0x3f80c335	1.0059572
31	0x3f7c6b2a	0.9860102
32	0x3f85898d	1.0432602
33	0x3f8214b9	1.0162574
34	0x3f828773	1.0197586
35	0x3f82210e	1.0166337
36	0x3f875079	1.0571433
37	0x3f83d18a	1.0298321
38	0x3f814d49	1.010171
39	0x3f7e52ca	0.99345076
40	0x3f7a31c4	0.97732186
41	0x3f823761	1.017315
42	0x3f8144d6	1.0099132
43	0x3f7b2d27	0.9811577
44	0x3f7983a7	0.9746651
45	0x3f7c2bf6	0.9850458
46	0x3f81f9d7	1.015437
47	0x3f803c21	1.001835
48	0x3f756a90	0.95865726
49	0x3f85e36c	1.0460029
50	0x3f811d43	1.0087055
51	0x3f783b33	0.9696533
52	0x3f810292	1.0078909
53	0x3f805142	1.0024798
54	0x3f7d2831	0.9888945
55	0x3f80c447	1.0059899
56	0x3f7a7e62	0.97849095
57	0x3f804797	1.0021847
58	0x3f7c64cc	0.98591304
59	0x3f7f041b	0.9961564
60	0x3f7ac887	0.9796223
61	0x3f82dc8d	1.0223557
62	0x3f76e775	0.96446925
63	0x3f82a736	1.0207279

mlp.net.1.bias f4 [64]
0	0xbcc4c4a9	-0.024019556
1	0xbbe617c1	-0.0070218747
2	0xbd0b931a	-0.034075834
3	0xbc19839c	-0.009369757
4	0x3c3efe33	0.0116572855
5	0xbceb68d4	-0.02873651
6	0x3cb3233c	0.021867387
7	0x3d31c6a5	0.043402333
8	0xbd3ae9bf	-0.045633074
9	0x3a5f099c	0.0008508207
10	0xbb9af7e6	-0.004729259
11	0x3cb02202	0.021500591
12	0x3c54db22	0.012991698
13	0xbc9f729b	-0.019463828
14	0x3c26fcd8	0.010192119
15	0x3d1b1660	0.037863135
16	0xbc297480	-0.010342717
17	0x3d44698f	0.04795223
18	0x3d1cf353	0.03831799
19	0xbc7461dc	-0.01491591
20	0xbc953d32	-0.018217657
21	0xbc284b07	-0.010271794
22	0xbc34745e	-0.011014072
23	0x3beeefc3	0.0072917654
24	0x3c96b07a	0.018394697
25	0x3d487769	0.048942003
26	0x3cb86728	0.022510126
27	0x3bf23a12	0.0073921764
28	0xbc936a19	-0.017994927
29	0x3d0ee8f2	0.034890123
30	0x3cb70dc0	0.022345424
31	0xbc6bae81	-0.014384867
32	0x3d3625de	0.044469707
33	0x3c9dac73	0.01924727
34	0x3cfa1ff5	0.030532816
35	0xbc0af401	-0.008481027
36	0x3d085f78	0.03329417
37	0xbbde923a	-0.006792334
38	0xbc1917e9	-0.0093440795
39	0xbbd7b2ee	-0.0065826094
40	0xbbac92c6	-0.00526652
41	0x3b67a40a	0.0035345578
42	0x3caf9945	0.02143539
43	0x3cba4351	0.022737177
44	0xbc890f51	-0.016730936
45	0xbbd08a99	-0.0063641784
46	0xbc590824	-0.01324657
47	0xbc0866d6	-0.008325299
48	0xbcfa2ced	-0.030539
49	0x3db1c5d9	0.086803146
50	0x3d5d0415	0.05395897
51	0xbd3d3935	-0.046197135
52	0x3cf3d3cc	0.029764079
53	0x3cdd1a45	0.026990065
54	0x3bcef5cf	0.0063159238
55	0x3c1f3f40	0.00971967
56	0xbd04390b	-0.032280963
57	0x3b6b9a6a	0.0035950192
58	0xbcf914fb	-0.030405512
59	0xbb02b014	-0.0019941377
60	0xbcd5f215	-0.02611641
61	0x3cac4c20	0.021032393
62	0xbc51416d	-0.012771946
63	0xbc2b4107	-0.010452515

mlp.net.1.running_mean f4 [64]
0	0x3f332bad	0.6998852
1	0xbe3e3566	-0.18575057
2	0x3f6eb578	0.9324565
3	0x3e84cc9e	0.2593736
4	0xbe4ec455	-0.20192082
5	0x3fa1a2df	1.2627829
6	0xbfec3999	-1.8455077
7	0x3f5ded8f	0.8669061
8	0x3fad0e4e	1.351999
9	0x3f70cbb2	0.94060814
10	0xbf388d16	-0.7209028
11	0xbfbe5e27	-1.4872483
12	0xbff14240	-1.8848343
13	0xc009b625	-2.1517422
14	0x3f57411f	0.8408374
15	0x3fff76a0	1.9958076
16	0xbf065196	-0.5246824
17	0xbf84c9e8	-1.0374117
18	0x3d2a0abf	0.041514155
19	0x3da2b341	0.07944346
20	0x3f9a48c6	1.2053459
21	0x3cdca57a	0.026934374
22	0x3f2c5c71	0.67328554
23	0x3f57c38e	0.8428277
24	0x3f4aaddb	0.7917153
25	0x3f499caf	0.78754705
26	0xbfb0853f	-1.3790663
27	0x3f354b4a	0.70818007
28	0x3f7ef36b	0.99590176
29	0x3f7f2e4e	0.9968003
30	0x3d8200e9	0.0634783
31	0xbf4bdc5a	-0.79633105
32	0xbf10df38	-0.56590605
33	0xbd33db54	-0.04391034
34	0xbf32a55e	-0.6978358
35	0xbd68f79e	-0.05687677
36	0xc003ce48	-2.0594654
37	0xbf3fd7d6	-0.74938715
38	0xbff3555b	-1.9010423
39	0x3f329716	0.6976179
40	0xbeace686	-0.33769625
41	0xbfcddf05	-1.6083685
42	0xbf79318f	-0.97341245
43	0xbf47a678	-0.77988386
44	0x3ef0a607	0.4700167
45	0x3ec3d028	0.38244748
46	0xbfe1cfe5	-1.7641569
47	0x40251401	2.579346
48	0x3f5d117a	0.8635479
49	0x3faf3aed	1.3689858
50	0x3f8759f8	1.0574331
51	0x403096a8	2.7591953
52	0x3f3367ec	0.7008045
53	0x3f1976da	0.5994698
54	0xbf227ff7	-0.6347651
55	0xbe2a7342	-0.1664553
56	0x3e842406	0.25808734
57	0xbf2de934	-0.67933965
58	0xbe9d8cc7	-0.30771467
59	0x3f0b4222	0.54397786
60	0xbf967595	-1.1754633
61	0xbf7119d5	-0.9418004
62	0xbd95c0a5	-0.07312135
63	0x3f76cabf	0.96403116

mlp.net.1.running_var f4 [64]
0	0x3d83cec3	0.06435921
1	0x3d26874d	0.040656377
2	0x3d7ea7a3	0.06217159
3	0x3dae194c	0.08500919
4	0x3e329413	0.17439298
5	0x3e09bf36	0.13451847
6	0x3e07375d	0.13204713
7	0x3e0d3faa	0.13793817
8	0x3d93b74c	0.072126955
9	0x3d17618a	0.036958255
10	0x3de7166b	0.11283573
11	0x3e393bac	0.1808917
12	0x3e0610da	0.13092366
13	0x3dfaadd1	0.12240184
14	0x3da4aa89	0.080403395
15	0x3db83028	0.0899356
16	0x3deebbff	0.11656951
17	0x3d50ae24	0.050947323
18	0x3e0d5b47	0.13804351
19	0x3d8b2496	0.067940876
20	0x3d9b891c	0.07594511
21	0x3ddfb2d4	0.10922781
22	0x3d22cf87	0.039748695
23	0x3e7ea41f	0.24867295
24	0x3def31b0	0.11679399
25	0x3e054bfa	0.13017264
26	0x3e9c91c6	0.30579966
27	0x3def4289	0.116826124
28	0x3d47b8aa	0.048760094
29	0x3d5ba663	0.053625476
30	0x3d53873f	0.051642653
31	0x3e6b92a3	0.23005156
32	0x3d34af1b	0.044112306
33	0x3e6cb6a8	0.23116553
34	0x3dc304f0	0.09522426
35	0x3e07368e	0.13204405
36	0x3e7e6d4d	0.24846382
37	0x3e40757e	0.1879482
38	0x3e69aad9	0.2281908
39	0x3ddbb136	0.1072716
40	0x3e1dcb9b	0.154097
41	0x3d93ccad	0.07216773
42	0x3e26d63b	0.1629266
43	0x3dbd50cf	0.09243929
44	0x3d39cacc	0.045359418
45	0x3e8b58b2	0.27216107
46	0x3d5b0de5	0.053480048
47	0x3d8b8e16	0.0681421
48	0x3dcde4e4	0.10053423
49	0x3db9bee8	0.090696156
50	0x3cb89f2e	0.02253684
51	0x3e70384e	0.23458979
52	0x3e0d2d52	0.1378682
53	0x3d8286ab	0.06373342
54	0x3e635ff1	0.22204567
55	0x3e272c90	0.16325593
56	0x3d43e2ae	0.0478236
57	0x3da5d435	0.08097116
58	0x3ea288c8	0.3174498
59	0x3d8ba765	0.06819037
60	0x3deef92f	0.11668622
61	0x3d386cfe	0.045025818
62	0x3cfc1376	0.030770998
63	0x3e1aeb4e	0.15128824
