rf_pipeline/checkpoints/hybrid_h5_best.pt (torch, 202378 bytes, 32 tensors)

cnn.0.conv.weight f4 [16, 3, 3, 3]
00000000: a441 36bf 48ce e33d d2a6 a7be 1992 5dbe
00000010: 30ea b8be 18cd 153c 95e6 153e 6eef 813e
00000020: 122f a63e 90d5 0dbf 735c 7abe bcb2 033f
00000030: 19f6 1bbf 6d22 8bbe 76c4 bbbe ef23 d7bc
00000040: 44d8 94bd 2c35 e43e 174a 75bc dcc4 1e3f
00000050: 0858 8c3d 9306 13bf 6748 03bf 9a87 09bd
00000060: cb0c ad3c 31ca ee3e 63fe 083e bfdf abbe
00000070: c740 b6bd c8f1 cdbd 5f06 f43d 29ac be3e
00000080: fd83 a9bd 09ea 6dbf 86eb ff3e a97e 9b3e
00000090: 0608 09be 1987 e6be d453 483e bef9 77bc
000000a0: 3dd1 4d3a 4182 19bd d7b5 9abe e9d8 14be
000000b0: 34c3 673e 7053 15bf c79d b53e 6a90 1ebd
000000c0: 6b43 863e 2413 f0bd cc4e f53e dc0c d3be
000000d0: 2f66 afbe f9d3 8b3d 8ebb 20bf 2404 93be
000000e0: cf99 703e 5d40 82bd d8be 9a3e 96b9 dcbe
000000f0: 074a 263f 716c d9bd 5349 153e 7468 f9be
00000100: ed9a 7dba a659 873d 707f 4abf abe8 30bf
00000110: d498 b73d e03d e13e eed4 933e 60e3 94bd
00000120: 1e00 27bf 650f 89bd b1b2 debe ba58 0e3d
00000130: 6d54 6cbe f6ad 2a3e fa32 f3bd b948 413e
00000140: 7bba e2bd 5685 233f bbb9 b83e 3234 81be
00000150: a529 7b3e 469d 57bc 34b9 28be e360 563e
00000160: 4821 8e3e f9e6 d0bd e1ea 89be 4b89 1d3f
00000170: d5f5 613e 7797 4cbe d0c5 4d3e 88ba c53e
00000180: 0be2 1bbf 6ad0 933e 8d55 69be 377a 82be
00000190: 77d2 bdbc 66cc dd3e 8a50 d83e b412 773e
000001a0: 6e11 c23e 671b 81be e78d fa3c bed0 8a3e
000001b0: ec09 87bc b120 bf3c e7c2 11bf 91c2 74bb
000001c0: 9bb3 373e 5362 14bf a910 4f3e ac8a 0ebe
000001d0: be83 60be b7d3 123f 0be5 2ebf 4d2e 843e
000001e0: fb47 eb3d 7760 e7bc e7a7 b5be 3378 b33e
000001f0: 5d3e b83e 5288 6fbe fed1 3fbd 7d18 f33c
00000200: 0c12 8dbe d6c7 ed3e 96f2 ddbd f529 f5be
00000210: c9fe 173e 43da f1bd 8310 85bd ae9d b6be
00000220: 671c 3c3e d329 09be b447 4b3e 1b91 483f
00000230: 2abc 29be 6c06 a1bd c493 47bc 089f 9fbd
00000240: a504 343e b59b 573e 87a8 bebd be6f 523e
00000250: 6de6 023e 2d75 8f3e b548 5bbd 2107 0abf
00000260: 6857 aa3d f975 483e 728a f7ba e69f debe
00000270: f4c0 5d3e 1af1 25be 2913 c6be b3c9 81bd
00000280: fc4d e9be 00ed c7be 0feb 493e 6daf 38bf
00000290: fda9 ea3d 1808 ed3d a55d 5c3d d42f b8bc
000002a0: cfa5 debe d988 57be 1765 5cbe 4f2e 143e
000002b0: 37ac 9fbf ffdd cb3c c967 ec3d 19dd 113f
000002c0: 65cd 2ebe f46a 6e3e a64b c93d fd21 f2be
000002d0: b117 67be e1bc 13bd 9414 f73d d44c 6c3d
000002e0: 1eeb 263d ac96 933e e411 be3d 0aa4 0bbf
000002f0: d109 c43c ba2b 3b3e 4167 a73e 9b36 5cbe
00000300: 51db b23d ac39 81be 96ae 2c3e 43c7 9fbe
00000310: 3038 73be 94fa 0e3f f008 76be 9187 19bf
00000320: 9ac6 053f ab31 18bf 4102 01bf d038 4c3e
00000330: 1f55 2fbf 907b 12be 7500 7e3c 971f 873e
00000340: f0ca 02bd b5f4 b43d 7421 003f 531c 0bbf
00000350: 1f67 793e cc51 20be 7038 fdbe 87e5 7c3d
00000360: 75f5 12bf 9a1b 373e 487e c5be 4ef1 19be
00000370: f84e 83bd a369 b23c 06de 813d 5951 223c
00000380: 381e 083e 00e8 afbe f2b0 043e 48d0 d0be
00000390: 16be 933d a62d b1be f0d5 96bd cf92 cd3d
000003a0: 8de3 e5bd c095 43be fc32 8abe 2d34 0e3f
000003b0: 1e66 0fbf b763 cf3d 42b7 8bbe 3fa1 93bb
000003c0: b617 8b3e 1cf5 98be 8d16 003f 6e99 33be
000003d0: c154 af3e 65fe 943d 3680 8a3e 7e3f 8b3e
000003e0: 4553 cb3d e73b 483d 5dd9 62be b81e d13e
000003f0: fa1a 013f 3d03 313e 27f9 b03d fd5d d4be
-0.7119391 0.111233294 -0.3274446 -0.21637763 -0.3611617 0.009143136 0.14638741 0.25377983
0.32457787 -0.55403996 -0.24449329 0.514446 -0.6092239 -0.27174702 -0.36673325 -0.026262252
-0.07267812 0.44571817 -0.014971278 0.62019134 0.06852728 -0.57431906 -0.5128235 -0.033576585
0.021124264 0.46638635 0.13378291 -0.33569142 -0.08899074 -0.10055882 0.11915278 0.37240723
-0.08277128 -0.92935234 0.49984378 0.30370072 -0.13381967 -0.45024946 0.19563228 -0.015135227
0.00078513083 -0.037477735 -0.30216858 -0.1453587 0.22633058 -0.5833044 0.35471937 -0.038711943
0.2622331 -0.11722401 0.4791168 -0.41220748 -0.34257647 0.0682754 -0.62786186 -0.28714097
0.23496173 -0.063599326 0.30223727 -0.4311034 0.64956707 -0.10616387 0.14578752 -0.48712504
-0.000967427 0.06608896 -0.79100704 -0.69105023 0.089646965 0.4399252 0.2887339 -0.07269931
-0.65234554 -0.066923894 -0.43495706 0.034752585 -0.23079081 0.16667923 -0.118749574 0.18875398
-0.110707246 0.6387533 0.360792 -0.25235134 0.24527605 -0.0131600555 -0.164769 0.20935397
0.27759767 -0.102003045 -0.2693701 0.6153762 0.22066434 -0.19979654 0.2009499 0.38618875
-0.6089179 0.28869945 -0.22786541 -0.25483868 -0.023171647 0.43320006 0.42248946 0.24128228
0.37903923 -0.2521622 0.030585242 0.27112383 -0.016484223 0.023331018 -0.5693802 -0.0037347416
0.17939608 -0.5796253 0.20221199 -0.13920087 -0.21925256 0.573543 -0.6831824 0.25816575
0.114883386 -0.02824424 -0.35479662 0.35052642 0.3598508 -0.23391846 -0.046831124 0.029674763
-0.2755283 0.46441525 -0.10837285 -0.47883573 0.14843287 -0.11809208 -0.0649729 -0.35667175
0.1837021 -0.13394861 0.19851571 0.78346413 -0.16575685 -0.07862553 -0.012181226 -0.07794005
0.17579897 0.21055491 -0.09309488 0.20550439 0.12783213 0.28019086 -0.053536136 -0.5391713
0.08317453 0.19576253 -0.0018885864 -0.43481368 0.21655637 -0.16205254 -0.38686493 -0.06337299
-0.4556731 -0.39048004 0.19718574 -0.7214268 0.11458204 0.115738094 0.053800244 -0.022483744
-0.43485877 -0.21048297 -0.21522938 0.1447079 -1.2474431 0.02488613 0.11543233 0.56977993
-0.1707054 0.23282987 0.09828882 -0.47291556 -0.22567631 -0.0360688 0.12064472 0.057690457
0.04075157 0.2882589 0.09280756 -0.5454718 0.023930462 0.18278399 0.32695964 -0.21505205
0.087332375 -0.25239313 0.16863474 -0.31206712 -0.23751903 0.558511 -0.24026847 -0.5997248
0.52256167 -0.5945079 -0.50394064 0.19943547 -0.6848926 -0.14304948 0.015503039 0.2639129
-0.031931818 0.08835737 0.50051045 -0.54340094 0.24355744 -0.15656203 -0.4945712 0.06174233
-0.5740579 0.17881623 -0.38572907 -0.15033457 -0.064115465 0.021778887 0.06341176 0.00990709
0.13292778 -0.3435669 0.12958124 -0.40783906 0.072139904 -0.3460514 -0.07365024 0.10037767
-0.112250425 -0.19100094 -0.26992023 0.55548364 -0.56015193 0.10126441 -0.27288252 -0.004505306
0.27166528 -0.29874504 0.5003441 -0.17538998 0.3424435 0.072750844 0.27050942 0.27196878
0.09927992 0.048885252 -0.2215323 0.4084375 0.5043179 0.17286392 0.08641272 -0.41477957

cnn.0.bn.weight f4 [16]
00000000: 6d95 883f 493e 813f 76cc 833f a0ec 193f
00000010: d8f8 9d3f e2ee 583f b56f 9a3f 96e4 a33f
00000020: 7faa 833f 9adb 3a3f ee35 353f 332a 913f
00000030: 2d1e 8e3f 4205 2c3f 1a3a 813f 136a 2b3f
1.0670601 1.0097133 1.0296772 0.60126686 1.2341566 0.84739506 1.206534 1.2804134
1.0286406 0.72991335 0.70785415 1.1341003 1.1102959 0.6719552 1.0095856 0.6695873

cnn.0.bn.bias f4 [16]
00000000: 41d4 b1be 5111 65be cd90 f23a 02af 80bf
00000010: cf13 98bd 2353 77be de63 adbe d354 27be
00000020: 050b fa3c df22 42bf 29f5 ed3d 9f15 11bf
00000030: c709 3abe 0486 cbbe a611 c6be 59d7 7fbe
-0.3473225 -0.22369887 0.0018506289 -1.0053408 -0.07425653 -0.24152808 -0.33865255 -0.16340952
0.030522833 -0.7583446 0.11619026 -0.56673616 -0.18167792 -0.39750683 -0.3868534 -0.24984492

cnn.0.bn.running_mean f4 [16]
00000000: 12dc 24be ac2c ccbd fd25 63be a0e8 7f3e
00000010: 6aac debd 927d 6cbd ba89 2fbe 4afc 1ebe
00000020: d0f0 28be 85b1 e33e 366d 173e c02f 34be
00000030: 182f fbbd 45f1 e43e 34b2 b6bd ff85 5c3e
-0.16099575 -0.09969458 -0.2218246 0.24991083 -0.10872729 -0.05773694 -0.17142382 -0.15525928
-0.16498113 0.44471374 0.14787754 -0.1759634 -0.12264842 0.44715324 -0.08920708 0.2153549

cnn.0.bn.running_var f4 [16]
00000000: 11a6 713d 08d1 ef3c 970d a93d 4172 ad3d
00000010: 1b95 053d 72a1 753c cb5d 563d a513 3c3d
00000020: 683c 453d b39c 823e ce1d 153d c8a4 373d
00000030: 5684 313d 5626 853e d3cf d33c ccad 893d
0.058996264 0.029274479 0.08254545 0.08469058 0.0326129 0.014992105 0.05233554 0.045917172
0.04815331 0.25510177 0.036405377 0.044834882 0.043339096 0.2600581 0.025855934 0.06722602

cnn.2.conv.weight f4 [32, 16, 3, 3]
00000000: 4caf 88be e780 babe 72aa 1bbe b957 723d
00000010: f875 c93d dfeb ef3d b42d 6fbd 28ee 25bd
00000020: 63a9 a43e c543 0fbd 8cf7 abbd 2112 c63d
00000030: c0c9 e33d a636 d63d 7f18 033e 8817 47be
00000040: dc02 133e 7136 25be b638 e0be 4eeb 15bf
00000050: ecdb e1be 3da4 b23e e6f6 713d bde3 423d
00000060: 97e8 533e 0b7a 2b3e df7e 01be 9c69 6dbc
00000070: 20b9 d33d 6def 9bbe ac82 1f3d d126 b7bd
00000080: 3d5e 97bc 92dc 4b3e 54ed bb3c 58d9 c83e
00000090: 2933 3ebe f34e b33b 90e0 5b3d 9ccc f6bb
000000a0: 8bb5 19be 6e4c 4e3e 68a1 bb3d 4027 593d
000000b0: 7cc0 d3bd 6eab adbd 82ee 973e 4a18 dbbe
000000c0: 43a6 ccbd 8037 053e 91b2 4fbd e97b dc3d
000000d0: 649c 81bd 6c37 8e3d cb67 52be ea6a c53b
000000e0: fbfb cb3d 17ad 663d d793 763e 86a7 553e
000000f0: c63e 853d e4ba 88be a2f2 febe 80cf f43e
00000100: f5a3 0d3e 3e5d 7c3e 1822 a93e f88c 433e
00000110: 0eef cb3d b808 95be e1fd 79bd 8da6 f3be
00000120: d27e 5bbe a1e6 adbe 6de8 d0be 300f 483e
00000130: e8c1 f13b ae12 84bc 5a46 0b3e 03d4 d03e
00000140: 6838 863e aa9b 3f3e 5d8d c23e 2209 97bd
00000150: 20a9 74be 268e 90bd 03ec a8bd 817f 023e
00000160: e60f 833c 3598 bd3d 3b11 38be 5b61 19be
00000170: 5f83 fcbe 201a 78bd ba98 e13d 8266 103d
00000180: 8eac af3d b577 cabc 3796 233e 62e8 efbc
00000190: 0454 6e3e c948 343d 4994 ac3e 6bd0 b83d
000001a0: 0ac2 1fbe 4bb7 a8bd ae7d debe b8ef dcbe
000001b0: ce79 dfbd c88b 98bd afbe 2bbe a11a c1bd
000001c0: e813 923e 0733 543e 7565 02be c501 27bd
000001d0: 6507 c23d a099 9cbd 5af4 9bbd 05aa 8abd
000001e0: c1cf 71bd 2358 903c f8f6 99be 5e9a 0d3e
000001f0: cc4b d03d ab29 d3bb e09e 543c ab08 743d
00000200: d051 1abe 5b09 5a3e e8c4 8e3d 78c9 1e3d
00000210: 5de9 ff3d f34b 5e3b 8f7f 3cbe 7256 c7bb
00000220: 09fe 853d ced2 56be 7e97 4fbc 89e3 143d
00000230: 0d29 c1be a50d 583c cdfb 0abd 027b 343d
00000240: 4e09 debe fb81 5abe 8c4c 6ebc 904b 0cbf
00000250: a9e7 13bd 6907 e73d c2c5 db3d b0b3 213e
00000260: a907 d83d 8f92 51be 5a61 403e 074f f4bc
00000270: 71f2 283e 63bb a2be 8b70 0fbd 5792 b03d
00000280: 0234 36be 83f3 87ba 5780 b4bd a07c 06be
00000290: 6ae6 793c d0a2 633e afc7 9fbe 8212 3cbe
000002a0: 8b9f 2a3e 5655 d4bd a5b9 5b3e 1648 95bd
000002b0: 5122 593e bac5 393e 3aa5 60bd 981f 5f3d
000002c0: 5955 0dbc 1a8c 9dbd 04a2 bd3d 0324 bf3c
000002d0: b302 073d fde6 ce3d aebe 683d 0595 8a3e
000002e0: 47a4 8d3d 0a89 84be 4d8c 863d eb66 5fbe
000002f0: 7813 2ebb 544d 1d3c 875a aabd 2ef9 ebbd
00000300: 6d2d 99bd 1881 0abd 05e6 d73d 79b3 9f3d
00000310: 59f5 d63d d695 a33e fc64 07bc 4ee0 1a3d
00000320: ba33 3fbe 57db 6d3e 6763 673e 5aee 6fbe
00000330: 9991 a73e 5c92 23bd 0e0b 12bd dd5e 42be
00000340: c5cd c93e 9e23 323d 7787 223d 4407 8f3e
00000350: 26ec 013e 9c66 f1bd cef3 253e f2ed 17be
00000360: 11a2 863d e42b 01be 9a32 d2bb 3364 0f3e
00000370: 2c54 ccbe 60ab e1bd 2cf2 823d 4869 253e
00000380: f697 a73e 5794 52bc 3a99 b13d 629b 343e
00000390: 7a71 dfbd 8230 83be ed07 84be 557c 0f3e
000003a0: 7b3d 523d d4d2 42be 1a37 89be c6d0 1cbe
000003b0: 0366 1e3e 61aa a6bd d5ba 12bd 9199 1cbe
000003c0: 6583 6e3d e637 a7bc 5cfd a13e dfa1 8e3e
000003d0: 7fe0 e6bd 66d3 a1be aaa8 3e3e 5954 663e
000003e0: 78f3 d9bd 9171 5f3e 7ddb 1a3e 75ce a4be
000003f0: 8927 b0be 1f0a b43e 6d68 653c d23a ffbe
-0.2669624 -0.3642647 -0.15201738 0.05916569 0.09836954 0.11714911 -0.058393195 -0.040510327
0.32160482 -0.03497674 -0.08396825 0.096714266 0.11122465 0.10459642 0.12802313 -0.1944257
0.1435656 -0.16134049 -0.43793267 -0.5856217 -0.441131 0.3489093 0.05907335 0.04758047
0.20694195 0.16745774 -0.12646054 -0.014490511 0.10338044 -0.30456105 0.038942978 -0.089429505
-0.018477554 0.1990836 0.022940315 0.3922832 -0.18574204 0.005472058 0.053680956 -0.0075317156
-0.1501066 0.20146343 0.09161645 0.053015947 -0.10339448 -0.08479963 0.29674155 -0.4279197
-0.099926494 0.13009453 -0.050707404 0.107658215 -0.06328657 0.06944165 -0.20547406 0.006024708
0.09960171 0.056317415 0.24079834 0.20864686 0.06506114 -0.26705086 -0.4979449 0.4781456
0.13832076 0.24644944 0.33033824 0.19096744 0.099577054 -0.29108214 -0.061033133 -0.47588006
-0.21435097 -0.33965018 -0.40802327 0.19537044 0.0073778518 -0.016122188 0.13601056 0.40786752
0.2621491 0.18711725 0.37998477 -0.07374789 -0.23892641 -0.07058363 -0.08248141 0.12743951
0.015998792 0.09257547 -0.17975323 -0.14978544 -0.49318978 -0.06057179 0.110154584 0.03525401
0.08577834 -0.024715284 0.15975271 -0.029285613 0.23274237 0.044014726 0.33706883 0.090241276
-0.15601364 -0.08238085 -0.4345526 -0.4315164 -0.10911904 -0.07448536 -0.16771959 -0.09428907
0.28530812 0.2072259 -0.12734015 -0.040773172 0.09474067 -0.07646489 -0.07614966 -0.0677071
-0.05903602 0.017620152 -0.30071235 0.13828418 0.10170707 -0.006444176 0.012977332 0.05957858
-0.15070271 0.21292631 0.06971151 0.038766354 0.124956824 0.003391978 -0.18408035 -0.006083303
0.06542594 -0.20978853 -0.012670396 0.036349807 -0.37726632 0.013186847 -0.033931542 0.044062622
-0.43366474 -0.21338646 -0.014544617 -0.548028 -0.0361096 0.1128071 0.10731079 0.15791202
0.10548336 -0.20466064 0.18787137 -0.02982284 0.16498734 -0.3178359 -0.03501944 0.08621662
-0.17793277 -0.0010372255 -0.088135414 -0.13133478 0.015252689 0.22230077 -0.31207034 -0.18366435
0.16662423 -0.10367839 0.21457537 -0.0728914 0.21204497 0.18141833 -0.054845072 0.05447349
-0.0086263055 -0.07692738 0.09259418 0.023332601 0.03296156 0.10102651 0.05682247 0.27066818
0.06916099 -0.25885803 0.06569729 -0.21816604 -0.0026561897 0.009600956 -0.08318048 -0.11522137
-0.074793674 -0.03381452 0.105419196 0.077979036 0.10496015 0.31950253 -0.008263823 0.03781157
-0.18672076 0.23228203 0.22596513 -0.23430768 0.3272827 -0.0399345 -0.035655074 -0.189815
0.39414802 0.043491 0.03967997 0.2793523 0.1268774 -0.11787149 0.16206285 -0.14836863
0.065738805 -0.12614399 -0.0064147236 0.14003067 -0.39907968 -0.11019015 0.06393847 0.16153443
0.32733124 -0.01285275 0.08671804 0.17637399 -0.10910316 -0.25622946 -0.25787297 0.14012273
0.051328164 -0.19025737 -0.26799852 -0.15314016 0.15468602 -0.08137966 -0.03582271 -0.15292956
0.058230776 -0.020412397 0.3163861 0.27857873 -0.11273288 -0.31606597 0.18619028 0.22493114
-0.10642141 0.21820666 0.1512279 -0.32188764 -0.34405163 0.35163972 0.014001948 -0.49849564

cnn.2.bn.weight f4 [32]
00000000: 6a71 473f bdf6 5b3f 342b 773f 6e4c 433f
00000010: 3342 633f b6bf 483f 235d 523f 29bb 463f
00000020: 092d 443f 9180 6a3f 16a2 7f3f 2d89 753f
00000030: 1f11 503f 92bd 623f c9d7 3a3f 2797 3a3f
00000040: dd1d 803f 0ef0 083f 3b2b 4b3f 814b 843f
00000050: 3c8e 513f d1bc 3d3f 4121 163f a1ce 6a3f
00000060: a879 513f 0f1a 573f 3f16 4a3f 0db0 533f
00000070: 2ae3 7f3f 248b 543f 919b 6b3f fd75 8a3f
0.7790743 0.8592337 0.965503 0.762885 0.88772887 0.7841753 0.82173365 0.77629334
0.7663122 0.91602427 0.998567 0.9591244 0.81276125 0.8857051 0.7298551 0.7288689
1.0009114 0.53491294 0.7936284 1.0335542 0.8185766 0.74116236 0.5864449 0.9172154
0.8182626 0.8402414 0.78940195 0.8269051 0.99956 0.8302481 0.9203425 1.0817257

cnn.2.bn.bias f4 [32]
00000000: af2d 20bf 0dab 39bf c795 80bf ef5c 23bf
00000010: 4e4c 4cbf c9bc 1cbf ab6c 25bf 64da 96be
00000020: 98ec 02bf 651f 51bf 0287 26bf eb2d 48bf
00000030: 0ac9 3dbf 5b52 51bf ef7a 27bf 2692 34bf
00000040: 9832 34bf 42f5 18bf e247 0fbf 1b74 18bf
00000050: a5d2 2ebf 5c75 65bf 9cf3 17bf 107d 59bf
00000060: e6a6 69bf ae08 a0be 7f37 2fbf 134d dabe
00000070: 2255 1bbf 0c19 0dbf 4537 60bf 8d72 0abf
-0.6256971 -0.7252663 -1.0045708 -0.6381368 -0.7980393 -0.61225563 -0.6461894 -0.29463494
-0.51142263 -0.8168853 -0.65049756 -0.78195065 -0.74134886 -0.8176629 -0.65421957 -0.70535505
-0.703897 -0.59749234 -0.5596906 -0.5955216 -0.6829017 -0.896322 -0.59356093 -0.84956455
-0.9127029 -0.31256622 -0.68444055 -0.42636928 -0.6067678 -0.55116343 -0.87584335 -0.5408104

cnn.2.bn.running_mean f4 [32]
00000000: 2caa 13bf 9750 a7be e030 a6bf 6f66 ac3d
00000010: 48e0 a3bf dc8a 94be 239e 99be 2077 acbf
00000020: d696 27be 7794 3d3e c5b8 09bf ad03 51bf
00000030: 2d8e b7be 06a0 0abf 84c0 b9be 7171 acbe
00000040: 310a 753c 8edf e6be 8cb4 ebbf 8fb7 76bf
00000050: b544 443f 6dfc 97be 027b 93bf c0d1 61be
00000060: 5933 86bf ac5b 7cbf 6619 a8bf 7a9d 78bf
00000070: e020 31bf 55f7 69bf 3529 dcbf f35a ccbe
-0.57681537 -0.32678673 -1.2983665 0.08417975 -1.280282 -0.2901219 -0.3000346 -1.3473854
-0.16366133 0.18513666 -0.5379756 -0.81646234 -0.3585066 -0.54150426 -0.3627969 -0.336803
0.014956043 -0.45092434 -1.8414474 -0.9637384 0.7666734 -0.29684773 -1.1521914 -0.2205267
-1.048442 -0.9857738 -1.3132751 -0.9711529 -0.6919079 -0.91393024 -1.7200075 -0.3991314

cnn.2.bn.running_var f4 [32]
00000000: 74c3 c33f 2d8f a63f 9752 c23f 3242 b13f
00000010: 060e a23f d308 8f3f 0566 bf3f 2621 b63f
00000020: 6034 703f 0f4d 9b3f f982 bc3f 8630 fb3f
00000030: 60ac 6a3f a28a 9a3f ba47 903f 9ac2 b13f
00000040: 8a53 c53f 33dd 6e3f 6ee2 bd3f bc01 c83f
00000050: 6941 893f 40f4 9c3f 5fb1 b23f 6a85 fc3f
00000060: ec8a 983f 8924 b93f 66c7 8b3f 83f8 973f
00000070: 06a6 db3f 7950 d93f 87e7 c03f 9879 0240
1.5294023 1.3012444 1.5181454 1.3848326 1.266053 1.1174568 1.4953009 1.4228866
0.9382992 1.2132891 1.472747 1.9624183 0.91669273 1.2073557 1.1271889 1.3887513
1.5416119 0.93306273 1.4834726 1.5625529 1.0723087 1.2262039 1.3960379 1.9728215
1.1917396 1.4464275 1.0920227 1.1872715 1.7160041 1.6977683 1.5070657 2.0386715

cnn.4.conv.weight f4 [64, 32, 3, 3]
00000000: ad6b cb3d 7ce4 5abd 94bf 93bd 36aa db3e
00000010: ccd6 f83e 3f71 c53d 4139 883d acb9 193c
00000020: 74a1 1abd e4b5 bebd 5053 643d 7a7f 2dbe
00000030: f228 013d 94b8 c73b 984b 1d3e 01e9 19be
00000040: 7b51 d5bd 6105 353e 270a a2bc bbfa 87be
00000050: d9c4 5a3e 50c0 32be adf3 ca3c 0417 36bd
00000060: f0fd a2bb e3d0 b8bc eeab d1be b221 d63c
00000070: 9a57 dabc d1a8 74bd ffb6 0abe d3a0 933c
00000080: 93e4 13bd 3d6b 1abe 8beb 593b 998f 2fbe
00000090: ca0b 9b3d 08d9 29bd 7829 5dbe abc1 6cbe
000000a0: 55f2 f93d a68f abbd 8f75 0a3d 4b1b d2bd
000000b0: 87e4 3fbe c023 f43c 087e 123e 8e26 4d3d
000000c0: d383 d53c fe58 b63e 1bc9 f73d b83a 02be
000000d0: 9ab5 8abc e460 59be 208a fbbc 64f3 4f3e
000000e0: 1a4e 25bc 2216 683e f550 433e 7788 22be
000000f0: 3455 cc3d 789b 76bc 9810 a33d 7c38 b73d
00000100: e306 f1bc 26fc b6bd d52e 9e3d 38c0 393e
00000110: 984a 373d 2504 14be 6356 2b3e 3468 87be
00000120: 7a31 f2bc c7de 753e 4130 72bd 4b58 803e
00000130: b4f3 0d3e 5755 e2bd 38bc 613e de4a 0f3d
00000140: 6601 683d 742a f03b ffe6 d53d 285f abbd
00000150: 8cf3 853d 3206 513e acb0 dc3d 1d20 df3c
00000160: f114 44bd c4bb 7ebe aa79 043e c64f 1c3c
00000170: 27fc ae3d e4f6 9a3e 161c 90be a09d bb3c
00000180: 8106 6a3d 4c08 04be de1f 6cbe e966 3abe
00000190: 17fd 71be c344 92be dd2c 083e e726 683e
000001a0: 3baa 453d 82a6 0b3d bff4 3b3d cb18 83be
000001b0: f23f 713d 83a6 9b3d b48f e13c 1b3f 69bd
000001c0: cb7b 6e3e 7bff ea3d 1619 c73a e146 7f3b
000001d0: 3f74 aa3d ab18 9dbe a4fe af3c 2ab4 83be
000001e0: 070f 96be 3978 7fbd 00ed 84be c9c7 25bd
000001f0: 2ea2 03be 5112 19be 072e a1be 70f4 093d
00000200: fd9f 05bd 0660 7cbe e349 db3c 285e 3f3e
00000210: 5ffa 133b 1bc8 883d bac5 3e3e 7e67 e8bd
00000220: 8c53 c0bd 6afa 523c b10d 75be f222 67be
00000230: 2048 4bbd ed4c bd3d 4daa 5d3c 384c 23be
00000240: 0f88 42bd 06da 26bd ddd5 91bd 61d8 d43d
00000250: 4979 fa3d e097 e9bd e304 be3b c431 d4bd
00000260: 3751 6abe 79fe 5dbd 145c a1be 009f 5ebe
00000270: c292 643b 0d71 f53d 5c6b 323c 38e9 b83d
00000280: 6165 4abe a178 3f3e 62fb f73d 59b5 9cbd
00000290: dbb3 573e b691 66be 379a 1b3e 7d05 683e
000002a0: 35f0 3cbd 5e7e a2be 7aca bfbe b00d 72be
000002b0: 641f 58be 3812 afbd 763d b43d 2ae7 523e
000002c0: 7cac 3d3d 999e d23d 4e85 a3bd b936 79bd
000002d0: 2337 9c3d 70fa 133e 1e5a 83be 27cc c73d
000002e0: df35 043e e349 01be 3afb 6c3e 5819 dcbc
000002f0: a926 8dbd 84a7 d83d 8110 303e aff4 e9bc
00000300: e205 09be 5b4d b43d 6fdd 0b3e 3459 f63d
00000310: f514 373c 75b8 aa3d 7f2f bbbd 8e0b 5b3e
00000320: d3c3 2cbd 160e e93d c43a 1e3e 5225 9abd
00000330: 93f3 4ebe 5e34 11be ebbc bb3d 8045 a0bd
00000340: 4e58 8e3e 22bc 0fbc 54e6 203e cdc9 643e
00000350: 8843 32bd 90fa 3f3e 4faf 063d 09dd a1be
00000360: f309 dbbd 8be1 773e 34ae 62be 5ed8 8b3d
00000370: 554f 963d 326a 6c3e e4bf 6bbd b4f7 21be
00000380: 55e2 19be edf0 27be e376 3b3d 269a 353e
00000390: ec6b ad3d 4edc 8e3d da66 a73d 6f6d 62bd
000003a0: 54dc 05be 59de f9bd 4a00 b93c ad9a ba3c
000003b0: 5464 47bd 192d 833e 8022 c13d 77ea 303e
000003c0: a10a f4bb 6412 d3bd df28 99be 4154 6ebe
000003d0: 8b37 3d3d 312e 01be b45f 5f3d 40fa 473e
000003e0: 346d 283e 9190 1bbe 0615 c9bd 2bc4 4cbe
000003f0: 7259 8a3d 3877 7a3e 0f4c dabc 324f d73c
0.09932647 -0.053440556 -0.07214275 0.42903298 0.48601377 0.096407406 0.06651545 0.0093826465
-0.03775163 -0.09312037 0.055743515 -0.1694316 0.03153319 0.0060950015 0.15360868 -0.1503029
-0.10415932 0.17677833 -0.019780232 -0.2655848 0.21364154 -0.17456174 0.024774397 -0.044455543
-0.0049741194 -0.022560542 -0.40951484 0.026139114 -0.0266531 -0.05973131 -0.1354637 0.018021023
-0.036106657 -0.1507997 0.0033251967 -0.17144622 0.07570608 -0.041466743 -0.2159785 -0.23120753
0.12204424 -0.08377008 0.03380352 -0.10259112 -0.1873952 0.029802203 0.1430589 0.050085597
0.026063835 0.3561477 0.12098905 -0.12717712 -0.016932297 -0.21228367 -0.030705512 0.2030769
-0.010089422 0.22664693 0.19073851 -0.1587237 0.09977189 -0.015051715 0.079621494 0.089463204
-0.02942223 -0.08934812 0.07723776 0.18139732 0.044748873 -0.14454706 0.16732173 -0.26446688
-0.029564608 0.24010764 -0.05912805 0.25067362 0.13862497 -0.110514335 0.22044456 0.03498351
0.05664196 0.0073292796 0.1044445 -0.08367759 0.065405935 0.2041252 0.10775885 0.027236992
-0.047871534 -0.24876314 0.12937036 0.009540504 0.08544188 0.30266488 -0.28146428 0.02290231
0.05713511 -0.1289379 -0.23059031 -0.1820332 -0.23631702 -0.28568086 0.13298364 0.2267109
0.048258048 0.03409434 0.045887705 -0.25604853 0.058898874 0.07600119 0.027534343 -0.056944948
0.23289411 0.1147451 0.0015189971 0.003895216 0.083229534 -0.30682883 0.021483727 -0.25723392
-0.2930834 -0.062370513 -0.25962067 -0.040473733 -0.12854835 -0.14948393 -0.3148043 0.03368038
-0.03262328 -0.24646005 0.02676863 0.18688262 0.0022579653 0.06678792 0.18630114 -0.113478646
-0.09390935 0.012877086 -0.23931004 -0.22571924 -0.04962933 0.09243188 0.013529372 -0.15947044
-0.047493037 -0.040735267 -0.07120869 0.103928335 0.122301646 -0.11405921 0.0057989224 -0.103610545
-0.22882544 -0.054197762 -0.31515563 -0.21740341 0.0034877514 0.11984453 0.010889854 0.09028858
-0.19765235 0.1869836 0.12108494 -0.07651777 0.21064703 -0.22516522 0.15195547 0.22658344
-0.046127517 -0.31737036 -0.37459165 -0.23638034 -0.21105725 -0.08548397 0.08800785 0.20595995
0.046307072 0.10284156 -0.0798441 -0.060843203 0.07627704 0.14451003 -0.2565469 0.09755736
0.12911175 -0.12625842 0.2314271 -0.026867554 -0.068921395 0.10578826 0.17193796 -0.028559057
-0.1338115 0.08803817 0.13658689 0.12028733 0.01117443 0.08335964 -0.091399185 0.21391127
-0.04217894 0.1137964 0.15452105 -0.075266495 -0.20210104 -0.14180133 0.091668926 -0.07825756
0.27801746 -0.008772882 0.15712863 0.22342606 -0.043521434 0.18747926 0.03288203 -0.3161395
-0.10695257 0.24207132 -0.22136766 0.06828378 0.0733935 0.23087385 -0.057556048 -0.15817147
-0.15027745 -0.164005 0.045767676 0.17734584 0.0846785 0.069756135 0.08173914 -0.055280145
-0.1307233 -0.122006126 0.022583146 0.022778833 -0.048679665 0.25620344 0.094304085 0.17276941
-0.007447556 -0.10306242 -0.29913995 -0.23274328 0.046195548 -0.12615277 0.05453463 0.19529057
0.16447908 -0.15191866 -0.09818463 -0.19996707 0.067553416 0.24459541 -0.026647596 0.02628288

cnn.4.bn.weight f4 [64]
00000000: 5573 5e3f ed6b 8f3f 349c 8a3f dd7f 603f
00000010: 769b 823f 06bd 553f eff4 873f 6dc7 803f
00000020: 5223 803f 2c4f 7d3f 4638 653f 53de 743f
00000030: 3af5 8a3f 96d4 773f d8e5 6e3f 047f 643f
00000040: 79af 6f3f e1a6 713f d3b4 873f ae90 583f
00000050: e09e 5a3f e29c 613f 5b5c 803f d507 7a3f
00000060: 7405 783f 4d64 663f 8f45 7f3f 72d5 543f
00000070: ac8b 753f 3085 833f e843 963f b805 843f
00000080: 1e99 3b3f 48d9 753f 8f06 733f caa1 813f
00000090: 4d80 573f 48df 743f 5e34 883f 6409 7f3f
000000a0: 4461 6d3f 61e1 823f b19d 843f 2d67 5b3f
000000b0: 42d3 783f 7fd3 863f 1514 633f 142d 3e3f
000000c0: e4be 303f fcef 533f 7641 843f dca5 853f
000000d0: b682 7f3f a207 8c3f 5552 863f 3537 743f
000000e0: d8b7 703f fed2 873f f3ff 4e3f 9ca7 7a3f
000000f0: 7b57 873f 0e47 653f 1929 8f3f a06d 6a3f
0.8689473 1.1204811 1.082892 0.87695104 1.0203693 0.8349155 1.0621623 1.006086
1.0010779 0.9894893 0.8953899 0.9565174 1.0856087 0.96808755 0.93319464 0.8925631
0.93627125 0.9439526 1.0602058 0.84595764 0.85398674 0.8813001 1.0028185 0.976682
0.9688332 0.89996797 0.99715513 0.8313819 0.9591625 1.0275021 1.1739473 1.0314245
0.73280513 0.9603467 0.9493188 1.0127499 0.84180146 0.956532 1.0640981 0.99623704
0.9272654 1.022503 1.0360624 0.8570431 0.97197354 1.0533293 0.8870252 0.74287534
0.69041276 0.8278806 1.0332477 1.0441241 0.99808824 1.0939829 1.0493876 0.9539674
0.94030523 1.0611265 0.808593 0.97912 1.0573572 0.89561546 1.1184417 0.91573524

cnn.4.bn.bias f4 [64]
00000000: d411 04bf 1fea e7be 57fa 49bf 989a 2ebf
00000010: 531b 3bbf ba1f 47be 21b9 0cbe e5d7 05bf
00000020: fc83 06bf c86c 50bf 97c6 45bf 4519 0dbf
00000030: e287 69bf f79a aebe cba7 abbe de3f 5cbe
00000040: db94 10bf a9fa 39bf af98 34bf 77bd 24bf
00000050: f2fa 51bf 7ece 36bf 65d9 03bf 05c2 0dbf
00000060: ffd4 1bbf 0af1 0dbf 4406 56bf 85b9 bfbe
00000070: 4391 18bf 6116 08bf 15c9 54bf 2d39 70bf
00000080: cf24 bbbe 6c88 f7be d07b 98be 70d8 19bf
00000090: a8f1 6ebf 5b9a 10bf 67c3 bcbe 6efa 20bf
000000a0: 5296 cabe 0ba7 49bf ea02 35bf 4b92 ebbe
000000b0: fb78 09bf 7603 73bf 5add dfbe 6447 27be
000000c0: 5934 e1be d182 d1be 10ef 3bbf d365 5abf
000000d0: 0706 b5be a85b eabe 9438 4dbf 80b3 edbe
000000e0: 86a4 b5be a703 1abf d022 1abf 10e4 ffbe
000000f0: 4852 0fbf 9ed1 73bf b145 54bf 2c2a 6ebf
-0.51589704 -0.45295808 -0.78897613 -0.6820464 -0.7308857 -0.19445696 -0.13742496 -0.52282554
-0.5254514 -0.81415987 -0.7725615 -0.55116683 -0.91222966 -0.34102604 -0.33526453 -0.21508738
-0.56477135 -0.726481 -0.70545477 -0.643516 -0.8202354 -0.7140883 -0.5150359 -0.55374175
-0.6087188 -0.5544592 -0.8360331 -0.37446228 -0.5959665 -0.5315915 -0.83119327 -0.93837243
-0.3655152 -0.4834627 -0.2978196 -0.6009588 -0.9333749 -0.5648553 -0.3686783 -0.62882125
-0.3956781 -0.7877051 -0.7070757 -0.4601005 -0.53700227 -0.94927156 -0.43723565 -0.16335827
-0.4398525 -0.40920117 -0.73411655 -0.8531162 -0.3535616 -0.45773053 -0.80164456 -0.4642601
-0.35477084 -0.60161823 -0.6020937 -0.49978685 -0.55984926 -0.95241725 -0.8291884 -0.930331

cnn.4.bn.running_mean f4 [64]
00000000: 9ee3 8dba 0e44 a83d 0455 5abf 52c0 25be
00000010: 4ec7 38bf 3dec 0fc0 3f76 d7bf 225b 64be
00000020: 5bc9 28be 532b 24bf e693 94bd 34fd 32be
00000030: 105a 9ebe bae3 3cbf d142 40bf 40be 87ba
00000040: 7c2a 16bf 5788 73bd 65b9 a7be c2ae 8e3e
00000050: 4cdd 6f3e 9ee8 53bf 7271 f6be 1082 82be
00000060: 004a 163b c178 81bf ebd9 37bf 955f 76bd
00000070: fad7 44be c3a8 c6be 7eaa 0abf c0d7 6d3d
00000080: 1ed3 17bf 1f0e 76bf fe04 1fbe f4a2 69be
00000090: ac1f 1f3f 2d45 6ebe 06bc 6cbf 2c0d abbe
000000a0: 0a36 d7be 34a1 c3be a9b4 bdbe 36a5 ffbe
000000b0: a230 55bf 88a0 89bf 78e0 b9be 3230 96bf
000000c0: 9cd2 643f ad4f 5dbf 97da f1be e382 25bf
000000d0: 81c5 82be a00f 68bc cf42 74be 3e60 e2be
000000e0: 2aaf 60be 0cbd d7be 0ac2 4b3d 9493 30bf
000000f0: bab4 debe 4f05 23bf 25f6 39be 02e3 1c3d
-0.0010825281 0.082161054 -0.85285974 -0.16186646 -0.72179115 -2.2487938 -1.6832961 -0.2230039
-0.16483061 -0.6412861 -0.07254772 -0.17479402 -0.30928087 -0.73784983 -0.75101954 -0.0010356382
-0.58658576 -0.059456196 -0.32758632 0.27867705 0.23424262 -0.8277682 -0.48133427 -0.25489855
0.002293229 -1.0114976 -0.7181689 -0.060149748 -0.19223014 -0.3880063 -0.541664 0.058067083
-0.59306514 -0.961153 -0.15529248 -0.22816068 0.621577 -0.23268576 -0.924744 -0.33408487
-0.42033416 -0.38208926 -0.37051895 -0.49930733 -0.8327733 -1.0752115 -0.3630407 -1.1733458
0.89383864 -0.864497 -0.47237083 -0.6465284 -0.2554131 -0.014163882 -0.2385361 -0.44214052
-0.2194182 -0.4213642 0.049745597 -0.68975186 -0.43497258 -0.63679975 -0.18160303 0.03830243

cnn.4.bn.running_var f4 [64]
00000000: 6db9 1340 8a68 ee3f 99eb e63f 82ad 2940
00000010: 02d9 1140 31be aa40 7c42 9140 ede4 1c40
00000020: f4e2 0840 7dd2 1c40 0e42 0540 5576 0040
00000030: 71fd c33f 9296 2340 4951 3d40 2ce4 3a40
00000040: cca6 5b40 2847 5140 7864 ca3f ce01 1940
00000050: 8982 1c40 3f45 0b40 1eb5 1c40 264a e63f
00000060: 3300 0b40 e781 7440 a460 0240 b2db 2740
00000070: 0687 1940 517d 2e40 4e54 ff3f 840b 5740
00000080: 825c b040 374c 5840 df9b 1940 17db 0b40
00000090: 2136 2b40 b4a5 fc3f 6b52 2040 6cf9 e93f
000000a0: ae1e 5540 c92c 0240 86f5 1a40 2a9d 0c40
000000b0: 682b 5540 0a11 2940 5f11 5f40 aae6 ee40
000000c0: f88b 7140 170f 6340 98ad 0240 28a9 fb3f
000000d0: 8d1c 4a40 3bca d13f e283 ea3f 8591 f33f
000000e0: b75e 1240 39f1 ff3f 2047 4540 41da 3c40
000000f0: 57f0 0440 6354 1f40 c704 df3f 9d13 ed3f
2.3081925 1.8625653 1.8040649 2.651215 2.27887 5.3357167 4.539366 2.4514725
2.1388521 2.4503472 2.0821567 2.0072224 1.5311719 2.556065 2.9580863 2.9201765
3.4320555 3.269968 1.5811911 2.3907351 2.4454672 2.1761014 2.4485545 1.7991378
2.1718872 3.8204286 2.0371485 2.6227841 2.3988662 2.7263987 1.9947603 3.3600779
5.5112925 3.3796518 2.4001386 2.1852472 2.6751788 1.9738069 2.5050304 1.8279243
3.3299975 2.0339835 2.4212356 2.1970925 3.3307743 2.641665 3.4854352 7.465657
3.774168 3.547796 2.0418453 1.9660997 3.1579926 1.6389841 1.8321497 1.9028784
2.287031 1.999549 3.0824661 2.9508212 2.0771692 2.4895256 1.7423333 1.852161

mlp.net.0.weight f4 [64, 32]
00000000: 0534 b3bd a6d0 97be e56b 0c3e eafa dbbe
00000010: 93fc a7be 0b86 fe3c 0b2e 0abf dab5 64be
00000020: 44cc 02bc d949 3ebe 50bb 59bd 8889 df3d
00000030: 7cdb 223e e010 713d d62e 10be 78e6 283d
00000040: b86a 103e ec5b e8bd a2bd 143e 7006 ac3d
00000050: 5047 70be 60b7 463d b837 333d fed5 20be
00000060: 5438 b2bd fc9a e63d 7c59 ac3d 467c 5c3e
00000070: 842e c0bd d067 763e 4c16 f63d d836 d53d
00000080: 9090 d1bd 776c 85be 21d6 4abe 9ba8 073f
00000090: 1274 c53e aebe 67bd c222 003e 8404 e33e
000000a0: 01a9 fc3d e79c 9bbe 6099 f3bc 3814 d83d
000000b0: c272 633e 5c4c 7f3e 30de 253d 4037 ff3d
000000c0: d63c 653e d642 0c3e 80f7 7ebc 345b c7bd
000000d0: 6839 87bd 0214 6e3e 4c0e 74be 6061 1b3d
000000e0: b8bc 243d c018 53bd 88c2 22be 240d 47be
000000f0: 4029 a2bb 0e4f 22be b827 d23d 80cb 3ebe
00000100: 501d cf3d ec73 c7be a910 55bd 7dd5 5c3e
00000110: 0e5e ad3d 5f41 d9bc 19b2 9c3d 6a26 97be
00000120: 68d8 9c3e 577c 353e e4d0 603e 1aab 72be
00000130: 503c 98bd 5cd0 243e d87c 0b3e bc5b bcbd
00000140: c081 913d 40b4 253e 0072 e6ba 90ce c9bc
00000150: 3052 dc3c 145b d6bd be66 7ebe 64f1 ff3d
00000160: c800 973d b224 30be a8ec 293d c4fd a7bd
00000170: ce9c 613e 5ca5 fbbd 1ed4 643e 1052 d53d
00000180: 0439 3f3e f96e d03d 0386 be3d 7bed 8e3e
00000190: d769 a5bd b27e 9bbd bb85 043f e3eb cd3d
000001a0: 6e6d 68be c500 893e a0e8 48bd 3673 793e
000001b0: b8da c03d 7213 6fbe f8cb 1f3d a88d c63d
000001c0: 0403 26be 005c 163d 0c4b b33d 9076 72be
000001d0: d662 62be 60e5 4fbc 74d1 bd3d 8e8b 0bbe
000001e0: 4c0e 09be 4c0e 02be 6080 613d 6899 b8bd
000001f0: 98e3 debd 60da b03c b0e1 efbc 4014 13bd
00000200: 6381 b23e 8a2b fdbe 1303 5d3d 7a12 ab38
00000210: 9a20 85be 1685 1dbd f8bc 873e bd7e 35bf
00000220: 54b2 d43e fe50 673e 909e 01bd d2fa 5cbe
00000230: fe87 3d3e 5831 2f3e 2466 323e 4c5d 28be
00000240: 0014 ffba b008 1cbe c44b 17be 58a6 43be
00000250: 1e9a 223e 5033 53bd 9a90 033e 5007 41bd
00000260: 809d a4bc 80b7 19bb ba70 43be ea4f 67be
00000270: dc7b cb3d 00c7 ffbb 802d cbbb 8078 2a3c
00000280: ea2f 953d a620 bd3e 6436 b1bd e833 c63d
00000290: 5b9b 0c3e 0cd1 3a3d bcf6 b0bc 0838 8a3e
000002a0: c64e 88bb b29d a3bd 4aeb 753e 9644 6bbe
000002b0: 0696 0a3e a6e8 11be 84b7 4cbe c437 5e3e
000002c0: 483e 543d d4c3 ed3d 6cd0 95bd 9ecf 61be
000002d0: e8f8 213d a433 c73d 908f 5e3e e263 0dbe
000002e0: 666f 773e 069c 793e cef5 18be 9015 acbd
000002f0: b6b1 623e 28ee c13d 4ad5 58be 2add 63be
00000300: faf0 acbd b25f bcbe c054 393d 58df d5be
00000310: 66fd 7d3e 5550 80bd b7aa 0b3f d154 a7be
00000320: da66 3d3f bd17 293e d675 3d3e b4b7 eb3d
00000330: da81 52be c27e 293e 8ca0 91bd 70ef 1ebe
00000340: 9258 273e 0c2b 51be 14d9 a03d e05c 5dbe
00000350: 6467 4cbe 80ef e93d dcd3 813d 7429 683e
00000360: 6aff 413e e822 51be 528e 533e 56bc 6c3e
00000370: 80bd e53b aa53 0c3e 9efe 373e 3e02 4dbe
00000380: db8a 973e b125 023f c545 53be 44db 303e
00000390: 4286 ff3e 87ce dbbc 7990 33bf a523 e83e
000003a0: d89b 9b3e ecb9 833e 0c1d 36be 384e 94bd
000003b0: 820a 7c3e 0853 1e3e dea9 00be 621c 4cbe
000003c0: 92b9 333e e8ec 6f3e 48c8 1ebe bc5b 45be
000003d0: 4073 42bd 70d9 f8bc c097 733d 2e99 0a3e
000003e0: d015 acbd 289b 243e 2ed8 37be d4d3 0c3e
000003f0: 3059 173d 7c2d e7bd 90c4 073d d82c 6d3d
-0.08750156 -0.29651374 0.13713033 -0.4296487 -0.32809886 0.031069776 -0.53976506 -0.22334996
-0.007983271 -0.18582858 -0.05315715 0.10914904 0.15904039 0.058853984 -0.14080366 0.041235417
0.1410321 -0.11345658 0.14525464 0.08399665 -0.23464704 0.048514724 0.04375431 -0.15706632
-0.0870215 0.1126003 0.08415505 0.21531782 -0.09383872 0.24063039 0.120159715 0.10410851
-0.10232651 -0.26059315 -0.19808246 0.52991647 0.38565117 -0.05657833 0.12513259 0.44339383
0.123369224 -0.30393144 -0.02973622 0.105507314 0.22211745 0.24931473 0.040495098 0.1246171
0.22386488 0.13697371 -0.015561938 -0.097341925 -0.06602746 0.2324982 -0.23833579 0.03793466
0.04021904 -0.051537275 -0.1589452 -0.19438607 -0.004948765 -0.1585047 0.10261482 -0.18632317
0.10113013 -0.3895563 -0.05201784 0.21565814 0.08465205 -0.02652043 0.07651157 -0.29521495
0.30633855 0.17723213 0.21954685 -0.23698083 -0.07433379 0.16095108 0.13621843 -0.091971844
0.07104826 0.16182041 -0.0017581582 -0.02463463 0.026894659 -0.104665905 -0.2484388 0.124972135
0.07373196 -0.17201498 0.04148546 -0.08202699 0.22032472 -0.12287399 0.22346541 0.10416043
0.18674093 0.10177416 0.093029045 0.27915558 -0.08076828 -0.075925246 0.51766557 0.100547574
-0.22697994 0.267584 -0.049049973 0.24360356 0.09416717 -0.23347262 0.03901288 0.096949875
-0.16212088 0.03670883 0.087545484 -0.2367804 -0.22108015 -0.012688965 0.09268466 -0.13627455
-0.1338436 -0.12700766 0.05505407 -0.09013635 -0.10883254 0.021588504 -0.02928242 -0.035907984
0.3486434 -0.4944728 0.05395801 8.157357e-05 -0.26001436 -0.038457 0.2651136 -0.7089651
0.41542304 0.2258949 -0.031645358 -0.21580055 0.18508908 0.17108667 0.17421776 -0.1644184
-0.0019460917 -0.15237689 -0.14774996 -0.19106424 0.15879104 -0.051562607 0.1284813 -0.047126114
-0.020094633 -0.0023455322 -0.1908597 -0.22589079 0.09935734 -0.007805705 -0.0062004924 0.010404706
0.072845295 0.3693897 -0.08652952 0.09677869 0.13731138 0.04560952 -0.021602027 0.26995873
-0.004159781 -0.07989062 0.24015537 -0.22975382 0.13533792 -0.14248905 -0.1999188 0.2170096
0.05181721 0.11609617 -0.07315144 -0.22051856 0.039544016 0.097266465 0.21734452 -0.13807634
0.24163589 0.24375924 -0.14937517 -0.0840255 0.22138104 0.09469253 -0.21175113 -0.22252336
-0.084444 -0.3679176 0.04524684 -0.4177196 0.24803695 -0.06265322 0.54557365 -0.32681897
0.73985064 0.16512962 0.18501982 0.11509648 -0.20557347 0.1655226 -0.071107 -0.15521026
0.1634238 -0.20426577 0.07853904 -0.2161746 -0.19961315 0.11422634 0.06339237 0.22672063
0.18945089 -0.20423472 0.2065976 0.2311872 0.0070111156 0.1370379 0.17968222 -0.20020387
0.29598126 0.5083876 -0.20632084 0.17271143 0.49907118 -0.026831878 -0.7014232 0.45339695
0.30392337 0.25727785 -0.17784518 -0.072414815 0.24613383 0.15461361 -0.12564799 -0.19932702
0.17551258 0.23430216 -0.15506089 -0.19273275 -0.047473192 -0.03037712 0.059470892 0.13534996
-0.08402598 0.16074812 -0.1795356 0.13752681 0.03695029 -0.11287972 0.03314644 0.057904094

mlp.net.1.weight f4 [64]
00000000: 9ed7 933f 5c40 743f cea9 613f 4478 623f
00000010: ac54 843f 8448 603f 4eae 583f f06c ad3f
00000020: 92c0 7f3f 1eaf 683f da42 803f 408c 983f
00000030: a5af 563f a3ca 3f3f 4cfe 6c3f dedb 723f
00000040: 0d30 773f f587 873f 27dd 823f 1f60 503f
00000050: 6fb0 913f fa99 b63f 7e99 5a3f 81f2 703f
00000060: 7314 6a3f 2404 763f 84f8 893f 11c3 703f
00000070: 07ac 7b3f 2af3 853f 7658 4a3f 08a0 993f
00000080: 410d 553f 036c 843f 03aa 3d3f 8dbe a83f
00000090: 60f8 9f3f 07ef 983f 0678 683f 66af 533f
000000a0: c72f 943f 8866 683f db90 5f3f 5d99 483f
000000b0: eeff 683f 1615 583f 13a9 a43f 8090 883f
000000c0: 7ff0 783f 337f 883f 07d9 603f a773 8f3f
000000d0: cf82 793f 0425 3e3f fa92 653f 2ff2 953f
000000e0: bd3c 9d3f 657d 8d3f f274 773f ff8b 463f
000000f0: b273 4d3f 79db 7c3f 76e8 7c3f e3a5 983f
1.1550176 0.95410705 0.88149726 0.8846476 1.033834 0.8761065 0.8464097 1.354887
0.99903214 0.9089221 1.0020401 1.1917801 0.8386176 0.74918574 0.92575526 0.9486674
0.96557695 1.0588366 1.022374 0.8139667 1.1381968 1.426574 0.8539046 0.9412003
0.91437453 0.9610007 1.0778966 0.9404765 0.9830937 1.0464833 0.7904123 1.2001963
0.8322335 1.0345463 0.7408754 1.3183151 1.2497673 1.1947945 0.9080814 0.8268951
1.157708 0.9078145 0.87330407 0.78359014 0.9101552 0.84407175 1.2864097 1.0669098
0.9724197 1.0663818 0.8783116 1.1207169 0.97465223 0.7427523 0.89677393 1.1714534
1.2284161 1.1053892 0.9666282 0.7755737 0.8025466 0.9877239 0.9879221 1.1925625

mlp.net.1.bias f4 [64]
00000000: f584 f0bd 4670 d4bd 5a37 85be ab5f 51be
00000010: c6d0 003c aca4 aa3e bb70 ae3d e51d 19be
00000020: 0060 e4bd 8ae7 7e3b e541 e23c d6f5 e2bd
00000030: 91cd 51be 42e3 9dbe fc92 efbb 8647 8d3d
00000040: 8c77 b5bd 08a6 e73c 2132 f2bc 7acd ebbd
00000050: e186 803e 385c b9bd 14bb 15ba ad36 53bd
00000060: fbd6 dcbc 55d5 4f3d c71d 0ebc ffd7 03be
00000070: adbb 91bd 58fb 2dbe 9dc6 72be 0f31 62bd
00000080: ac54 e7bd f972 e2bc 1e8e d3be cd17 403d
00000090: 7976 483e 3764 be3e 8242 38bd 2598 80bd
000000a0: 4b02 ad3e 71dd 5bbd 5e9f 28bd 140f bbbd
000000b0: 8598 91bd 2022 83be 58f1 38bd a835 23be
000000c0: 5056 bbbd 4c68 12be bc53 2dbe ef13 233e
000000d0: 3cc0 e5bd 7b07 d1be af49 e8bd 1df3 4c3d
000000e0: fe48 c83c 5e5e c7bd 9dde 58be 7135 95be
000000f0: 6ebc f3bd bf49 883c 52d4 18bd b923 c4bd
-0.117441095 -0.10372977 -0.26018792 -0.2044665 0.0078622755 0.3332876 0.085175954 -0.1495281
-0.11151123 0.0038895332 0.027619312 -0.11082046 -0.20488574 -0.30837446 -0.007311223 0.06898408
-0.088606924 0.028277412 -0.029564919 -0.11513801 0.25102904 -0.090507925 -0.0005711776 -0.051565815
-0.02695798 0.05074056 -0.008674092 -0.12875365 -0.071158744 -0.16990411 -0.23708577 -0.055222567
-0.11295447 -0.027642714 -0.41319364 0.0468977 0.19576444 0.37185833 -0.0449853 -0.06279019
0.33790812 -0.05367798 -0.04116761 -0.09133735 -0.07109169 -0.25611973 -0.04515204 -0.15938437
-0.09147322 -0.14297599 -0.16926473 0.15925573 -0.112183064 -0.4082602 -0.11342179 0.05003654
0.024448868 -0.09734796 -0.2117867 -0.29142335 -0.119011745 0.016636727 -0.03731186 -0.09577126

mlp.net.1.running_mean f4 [64]
00000000: 65b0 d145 b278 4bc6 d83d b6c5 5f39 80c6
00000010: a915 01c6 d854 1846 fb5a 53c6 2a8e c6c5
00000020: 4e0a a2c5 cf2f 9746 4d5b e3c5 9989 ddc5
00000030: ada2 bdc5 8207 8047 c8e5 9247 9305 5547
00000040: e686 3b46 f570 0ac6 50e0 c645 5f6f fd46
00000050: e956 37c5 7c55 99c4 ce67 1646 66e4 a2c5
00000060: 48ee e746 407a b345 ee64 f8c4 a5ae ea45
00000070: fffc 4546 91fa bcc5 5106 b2c5 e492 7245
00000080: 18ed e946 51fc 2f46 0314 3e47 c69b eac5
00000090: b4f1 d5c5 0240 ebc4 d8a9 1547 5c70 7447
000000a0: 761f c345 a438 1947 38b0 76c6 dba0 37c7
000000b0: df34 dec6 64d5 eb46 a49e 9945 8e16 6dc6
000000c0: 0be2 b245 7d3e a7c5 9ad6 35c7 9e49 c245
000000d0: a36f 52c7 1538 f145 a754 0746 0cca 7645
000000e0: d38e d045 1a3f eb45 a2a2 1a45 8982 1ec6
000000f0: ecac 0747 235d be45 08a0 b845 0b3e dd45
6710.0493 -13022.174 -5831.7305 -16412.686 -8261.415 9749.211 -13526.745 -6353.7705
-5185.288 19351.904 -7275.4126 -7089.1997 -6068.3345 65551.016 75211.56 54533.574
12001.725 -8860.239 6364.039 32439.686 -2933.432 -1226.6714 9625.951 -5212.55
29687.14 5743.2812 -1987.154 7509.8306 12671.249 -6047.321 -5696.7896 3881.1807
29942.547 11263.079 48660.01 -7507.4717 -6846.213 -1882.0002 38313.844 62576.36
6243.9326 39224.64 -15788.055 -47008.855 -28442.436 30186.695 4915.83 -15173.639
5724.2554 -5351.811 -46550.6 6217.202 -53871.637 7719.0103 8661.163 3948.628
6673.853 7527.8877 2474.1646 -10144.634 34732.92 6091.642 5908.004 7079.7554

mlp.net.1.running_var f4 [64]
00000000: 5cd4 0452 a7ee fb52 3f36 ca51 7557 4753
00000010: 1bbf 4952 fb18 8e52 5cb0 0753 7609 f351
00000020: c101 9f51 12f8 8a53 ac8d 1d52 5765 1652
00000030: 3bd7 da51 8c21 4855 bab1 8355 0683 0a55
00000040: 8fa9 d752 46e8 6852 9a55 f251 0a3e 4354
00000050: 70ec d050 648e 8f4f 5768 8952 dbf1 a151
00000060: 91c0 2354 d28a c351 d1a0 3a50 09f1 2652
00000070: 0c08 f052 40b8 d751 36b1 c151 a4f2 3551
00000080: e4f7 2654 769c bc52 4452 dc54 6d0a 2752
00000090: dfb6 0c52 418a 2750 f4b6 8854 5f51 3655
000000a0: dd5a ea51 3539 8f54 d379 3a53 cbf7 cd54
000000b0: 423f 1654 8092 2954 e766 8e51 c51f 2b53
000000c0: ac1c c351 a790 aa51 80b5 c954 1436 e651
000000d0: d110 0755 957b 3152 ded9 5e52 7668 4151
000000e0: b939 0452 fd78 2852 2b0d 9450 552e 9952
000000f0: c852 6154 106a dd51 810f ce51 988c 1452
1.4262462e+11 5.4102036e+11 1.0856169e+11 8.561658e+11 2.1662366e+11 3.0515223e+11 5.827794e+11 1.3047947e+11
8.536615e+10 1.1937348e+12 1.6917168e+11 1.6148632e+11 1.1748923e+11 1.37529e+13 1.809992e+13 9.518459e+12
4.6313134e+11 2.5008233e+11 1.3010228e+11 3.3542379e+12 2.8041249e+10 4.816947e+09 2.9508053e+11 8.6943425e+10
2.8132416e+12 1.04980955e+11 1.2524406e+10 1.7925212e+11 5.1546358e+11 1.1581365e+11 1.03987724e+11 4.8841245e+10
2.868494e+12 4.050394e+11 7.570184e+12 1.7935861e+11 1.5109087e+11 1.1243423e+10 4.69748e+12 1.2528788e+13
1.2581835e+11 4.921121e+12 8.009078e+11 7.0770046e+12 2.5812255e+12 2.9132293e+12 7.645147e+10 7.349724e+11
1.0474996e+11 9.157141e+10 6.930668e+12 1.2359372e+11 9.281643e+12 1.9057064e+11 2.3928449e+11 5.191758e+10
1.4197603e+11 1.8089609e+11 1.9871128e+10 3.2895366e+11 3.871026e+12 1.188709e+11 1.1062792e+11 1.5950348e+11

mlp.net.4.weight f4 [64, 64]
00000000: 055e c03c 0564 3b3e b843 65be 13b2 04bd
00000010: 50f3 a5be e9ee ef3c 149d 53be 2965 8b3e
00000020: 6ae4 51be df1c 123e dd97 d43d 0aed 14bf
00000030: bfa1 933c 2a37 2dbe e8ef 27be 57dd 033e
00000040: 34d9 56bd d6c5 7ebe 1352 c5bc dcdd 843e
00000050: 6556 ec3d 0d51 b8be 99bf 7f3e 8df5 313e
00000060: 6223 383e 6438 793e 3a1f 86bd 5850 6d3d
00000070: ac83 eebd 3482 ddbd 819e 4a3e fa39 543e
00000080: 37ae 6fbd b1dc 9e3d d43d e03d 7760 05bf
00000090: 2c2a a7be c5f0 323e bc79 00bb e439 483e
000000a0: ab94 88be d0ef e63d 43d4 24bd 9d28 75bd
000000b0: ab58 11bd 6943 a33d 6867 4a3d b0b7 263e
000000c0: 5a8a 6c3e 1348 23bd 71bf 13bc f314 39bd
000000d0: ed5c 2b3e e8e9 f6bc 9792 463d 99c1 2fbe
000000e0: 064d 43be 9035 9cbd a512 d2bd 262a 5bbe
000000f0: 0992 c0bd 7e1b 453d 8f86 4a3e 9eeb b03c
00000100: 1e95 7cbe 91a3 e9bd f53f d63d f0fe f5bd
00000110: 0776 543e ed24 1f3e 1b7f 893e ddfb a63d
00000120: d73b a23e 8ae7 b03d 78b4 57be cfe3 883d
00000130: 7762 033e 9905 1abd 2b5f 963d 4626 653d
00000140: 8db6 2a3e cf35 efbd 2979 ce3d 683b b9bd
00000150: e357 d53c a1f4 56be dd0f 243e 6ebc 783d
00000160: d837 80bd ef47 0fbe cae8 d8bd 60e5 0dbe
00000170: 16f8 b23d 1330 ddbc ca6d 84be 5829 503e
00000180: 624e db3d ea20 06be 7eae f33b 7f37 783e
00000190: 1e40 32be 1a09 44bd d524 b63d dde3 96bd
000001a0: 38ee 8fbe 311f 95be 27cb 5b3d f6bb 2dbe
000001b0: b35d 9ebd be18 25bb d8a7 2a3d 244c ae3b
000001c0: 4878 d4bc 964f 8c3e 2090 0d3c 88a0 933c
000001d0: 6aa4 493d 6aac 93be 422b 90bd c25d 803e
000001e0: d346 bfbe d7f5 45be 35b6 063c 43be c7bc
000001f0: c312 d73d eeaa 6dbe e042 33be 2aa2 80be
00000200: 253e c2be f4b6 40be fcd2 0cbe b85e 533c
00000210: 2d10 87be e32b d33b fdc5 87be 78a2 7e3e
00000220: d447 83be af64 483a 9561 17bd 7c9a 35be
00000230: 3ce2 79bd cc8f 66be 0db7 fa3d bb01 eabc
00000240: fd9f d9bd eafc e2be bec6 3bbe 58c7 07be
00000250: b8fd 833e 6e67 5e3c ef1c cd3c acb1 b9bd
00000260: 42f9 00be e9d6 263d 3a50 62be 9876 91bd
00000270: acb9 8cbe 3154 debe a078 89bd 9405 13be
00000280: 72dd b03d e62f cebd 6fab 4d3e d0d2 93be
00000290: 3b49 3dbe d56d a5bd ea03 153e 1d8f 263e
000002a0: ca48 98bd 7b66 a3bd 604c 873e cee8 34be
000002b0: 3d6e 00bc 7ef2 c5bd 7fbc 413e 9635 e6bd
000002c0: 227e 893d 5edd 16bd b8a2 af3d fdfc d63b
000002d0: 8297 963c 89f5 f13d 0f2b 9e3c 856d 323d
000002e0: c9c2 0dbe 13fd 8dbe 1b4f 2ebe b2aa 543d
000002f0: e64b 91bd 8574 40be 7961 76be b2a9 9abe
00000300: 4c9a aabd 2dde 133e b99e debd 6fbd b0bd
00000310: fa74 953e 682f 5bbe 4802 253e 1917 d1be
00000320: 7080 283c 57fb f1bc aedf 38bd f3c6 21be
00000330: 6348 69be 4444 84bd cc38 8dbe d9a8 acbe
00000340: 3e58 86be ac7b f03d a578 bbbe 2b5c 363d
00000350: 8e68 61be 2f6a 3a3d 8639 9f3d 79fc 6dbe
00000360: 6bc7 83be c4c2 54be 6a10 163e 9508 dc3d
00000370: 314c 33be c912 1f3e 20ac 0c3d 6f90 1fbe
00000380: 8b22 e7bd c4b4 0f3e 7fcf 86be 2295 573e
00000390: 07c8 30be 1bb8 6ebe 52de e6bd 9081 1dbd
000003a0: 431a c4bd 9574 2c3d ca2d 083e f9c7 6a3d
000003b0: 1f2b 5d3d 811f 913d 11c5 e3be a6fa 4abe
000003c0: 629c c53d 3b1d 9abe 8790 173e b1e5 6cbd
000003d0: b7f3 45bd 6a01 2dbe 33a9 9c3e 5e37 443c
000003e0: 8041 733d 4eb4 883e b464 15be 47c1 23bc
000003f0: fe15 1fbe e9f1 27bd 38e2 7abe 885f 263e
0.023482332 0.18299873 -0.22389114 -0.032396387 -0.32412195 0.029288726 -0.2066539 0.27225617
-0.2049729 0.14268826 0.10380528 -0.5817419 0.018021462 -0.16915575 -0.1640011 0.12877403
-0.052453235 -0.24880156 -0.024086988 0.25950515 0.11539916 -0.35999337 0.24975432 0.17378826
0.17982247 0.24337918 -0.06548925 0.05793795 -0.11646208 -0.1081585 0.19787027 0.20725241
-0.058515754 0.07756937 0.10949293 -0.5210032 -0.32649362 0.17474659 -0.001960381 0.19553334
-0.26675925 0.11276209 -0.04024149 -0.059853185 -0.03548495 0.07971842 0.049415022 0.16281009
0.23099652 -0.039863657 -0.009017811 -0.045185994 0.16734667 -0.030140832 0.048479643 -0.17163695
-0.19072351 -0.07627404 -0.102574624 -0.21402797 -0.09402854 0.04812192 0.19777893 0.021596726
-0.24666259 -0.11408151 0.104614176 -0.12011516 0.20748149 0.1554143 0.26854786 0.08153508
0.3168628 0.086379126 -0.21064937 0.06684076 0.1283053 -0.037602995 0.073423706 0.055944704
0.166712 -0.11680185 0.10081703 -0.09044534 0.026042884 -0.20991756 0.16021676 0.060726576
-0.06260651 -0.13992284 -0.10591276 -0.13857031 0.08738725 -0.027000463 -0.25865012 0.20328271
0.1070831 -0.13098493 0.0074365726 0.2423992 -0.17407271 -0.047860242 0.08893744 -0.0736768
-0.28111434 -0.2912536 0.053660538 -0.16966233 -0.077327155 -0.002519175 0.041663975 0.0053191353
-0.02593626 0.2740447 0.008640319 0.018020883 0.049229063 -0.2884248 -0.07039501 0.25071532
-0.37358722 -0.19332062 0.0082221525 -0.024382716 0.105016254 -0.23209736 -0.1750598 -0.2512372
-0.37938038 -0.18819791 -0.13752359 0.012901001 -0.2637953 0.0064444407 -0.2651824 0.24866664
-0.25640738 0.00076443976 -0.036958296 -0.17734712 -0.06100677 -0.22515792 0.122419454 -0.028565278
-0.106262185 -0.44333583 -0.18337533 -0.13259637 0.2577951 0.013574464 0.02503821 -0.09067091
-0.12595084 0.040732298 -0.22100917 -0.07102698 -0.27485406 -0.43423608 -0.067124605 -0.14357597
0.08635987 -0.1006773 0.20084928 -0.28871775 -0.18484966 -0.080775894 0.14552274 0.16265531
-0.074357584 -0.07978531 0.26425457 -0.17666933 -0.007838783 -0.09665392 0.18919562 -0.112406895
0.06713511 -0.036832206 0.08575958 0.0065609203 0.018382791 0.1181441 0.019307641 0.043561477
-0.13843836 -0.27732143 -0.17022364 0.0519206 -0.070945546 -0.18794449 -0.2406062 -0.30207592
-0.08330211 0.14440222 -0.10870118 -0.086298816 0.2919081 -0.21404803 0.16114151 -0.40837935
0.010284528 -0.029538793 -0.045135193 -0.1579855 -0.2278152 -0.06458333 -0.27582395 -0.3372257
-0.26239198 0.117423385 -0.36615482 0.044521492 -0.2201254 0.04551142 0.077746436 -0.23240842
-0.2573808 -0.20777422 0.14654699 0.107438244 -0.17509533 0.1553451 0.03434384 -0.15582441
-0.112858854 0.140338 -0.26330182 0.21052983 -0.17263804 -0.23312418 -0.11272873 -0.03845364
-0.095753215 0.04210337 0.13298717 0.057319615 0.0539962 0.07086087 -0.44486287 -0.19822177
0.09648968 -0.30100426 0.14801227 -0.05783624 -0.048328128 -0.1689507 0.3059784 0.011976091
0.059388638 0.26700062 -0.14589196 -0.009994811 -0.15535733 -0.041002188 -0.24500358 0.1624738

mlp.net.5.weight f4 [64]
00000000: 0c18 843f 2d7b 033f 3412 833f 623c 3d3f
00000010: b4db 473f 10a6 613f 43a4 633f f211 293f
00000020: a863 3b3f 9649 283f a29a 443f 6f28 213f
00000030: f877 673f 935d 403f 241f 4c3f 2984 463f
00000040: f614 623f 6247 483f f179 393f 777f 643f
00000050: fa46 483f a5fb 5e3f e034 373f 3fb1 6d3f
00000060: 131f 443f 7641 4c3f a53d 483f e22d 463f
00000070: e56d 3f3f 86cd 253f fee1 5b3f c205 503f
00000080: c620 453f e92a 343f cd67 343f 921d 343f
00000090: 3882 463f 4367 613f 37c4 213f fea6 553f
000000a0: 5513 323f 00d1 333f cda8 543f 6c9c 443f
000000b0: e94d 4b3f 59a2 3e3f cc22 3f3f 2310 563f
000000c0: 09e6 473f eaad 5e3f dbdd 033f cf83 4c3f
000000d0: f5bc 6a3f 8e22 5a3f 097f 793f 72fa 6f3f
000000e0: 51b0 3b3f 6e9e 583f 2507 443f bc5f 703f
000000f0: 7cd4 443f e71d 3e3f be2b 7d3f c803 313f
1.0319839 0.51359826 1.023993 0.7392026 0.78069615 0.88144016 0.8892252 0.6604301
0.7319894 0.65737283 0.7679845 0.6295232 0.9041743 0.7514278 0.79735017 0.7754541
0.88313234 0.7823392 0.7245169 0.89256996 0.782333 0.8710273 0.71565056 0.9284858
0.76609915 0.79787385 0.7821906 0.7741376 0.7477706 0.6476673 0.8589171 0.81258786
0.77003133 0.70377976 0.7047089 0.7035762 0.7754245 0.8804819 0.63190025 0.83457935
0.6956075 0.70240784 0.8307007 0.7680118 0.79415756 0.7446647 0.7466247 0.8361837
0.7808538 0.8698412 0.515104 0.79888624 0.91694576 0.85208976 0.97459465 0.93741524
0.7331591 0.84616745 0.765734 0.9389608 0.76886725 0.7426438 0.9889487 0.69146395
