checkpoints/hybrid_from_yolo.pt (torch, 203678 bytes, 32 tensors)

cnn.0.conv.weight f4 [16, 3, 3, 3]
000000 2e d2 b5 bd 23 7a ac bd c9 c4 0b be f4 05 c0 3e
       -0.08877979 -0.08421733 -0.13649286 0.37504542
000010 29 92 a5 be a9 fc 74 3e 5a 7f 7d 3e ed 34 8b bd
       -0.32338074 0.23924507 0.24755612 -0.06797204
000020 a6 ff 8d bd 1a 16 b6 bd 72 0e a5 bd 49 d9 ae 3e
       -0.06933527 -0.08890934 -0.08059396 0.3415015
000030 d9 89 88 be 07 2a 13 be 22 56 03 bd 76 f3 38 3c
       -0.2666767 -0.14371501 -0.032064565 0.011288514
000040 0b c0 46 be 5d ed c7 be e3 83 a6 be 3c df eb 3d
       -0.19409196 -0.3904828 -0.32522497 0.11517188
000050 90 8b 64 be 35 8a 7f 3e 30 a3 84 be fe 3f 8e be
       -0.22318864 0.24955066 -0.25905752 -0.27783197
000060 41 63 65 bd dd 0f 58 bd c1 1a b2 be 81 90 81 bb
       -0.05600286 -0.052749503 -0.34786037 -0.003953994
000070 91 7b b7 be 79 a0 96 be 7a ab 06 3e 44 74 69 bd
       -0.3583646 -0.29419306 0.1315135 -0.056995645
000080 62 41 73 3e bd eb 5f be b7 a6 c4 3e ce 0c 43 3e
       0.2375541 -0.21867271 0.38408443 0.19047853
000090 24 30 62 be 06 4b 0d 3e b6 0e 13 bf 63 31 2a 3e
       -0.22088677 0.1379815 -0.5744432 0.16620402
0000a0 6b 4c 47 3e ab 29 9d bc 42 ff c6 3e 66 e8 af bd
       0.19462745 -0.019184908 0.3886662 -0.08589248
0000b0 23 43 82 bd f8 fe ec 3e fb 2f 38 3d b0 8c 5c bd
       -0.063604616 0.46288276 0.044967633 -0.053845108
0000c0 20 43 85 be 77 8c dd be be d5 dc 3e 89 60 66 ba
       -0.26027775 -0.4327123 0.43131822 -0.00087881886
0000d0 37 a6 83 3c 57 80 3d bd df 4c 0b be ce 86 52 3e
       0.016070468 -0.046264973 -0.13603543 0.20559236
0000e0 bc e2 7e 3e ee af 78 3e a8 b9 cd be 51 68 4a bd
       0.2489118 0.24285862 -0.40180707 -0.04941589
0000f0 3e 1f d0 3e 55 e2 c5 be db 1a 07 bf aa f5 6e 3e
       0.40648836 -0.3864924 -0.52775353 0.23335901
000100 f1 f4 1c bf ad 50 24 3e 32 a9 fc be 0a dc a8 be
       -0.6131125 0.160464 -0.49347836 -0.32980376
000110 ad 98 c6 bd 65 2b 62 be 40 eb b2 bd 7a 95 d6 be
       -0.09697089 -0.22086866 -0.087362766 -0.41910917
000120 d7 af 2f be 79 bf 47 3f cd 9c 0a be ff 7f 5a 3e
       -0.17156921 0.7802654 -0.13536377 0.21337889
000130 6a 92 ac be cf 66 d5 bd 5a 57 9c bd 82 2e 60 be
       -0.33705455 -0.1042 -0.076338485 -0.21892741
000140 38 4a 93 3e 78 f5 c5 3e dd 19 1c bf a7 71 99 be
       0.28767562 0.3866384 -0.60976964 -0.29969522
000150 b2 8d f2 3e d9 93 e0 3d a6 46 d1 3e 41 20 09 3f
       0.4737373 0.109657 0.40874213 0.5356484
000160 6d 4a c5 3e 4f 87 95 3e db 05 d3 bc 99 d8 d6 be
       0.38533345 0.29204795 -0.025759628 -0.41962126
000170 4b 19 8f 3e 0e d5 88 3d 2f 0b 73 be c3 c3 87 3e
       0.27948985 0.06681262 -0.23734735 0.26516542
000180 0f 94 1b be 42 7f 20 3e e6 3a 04 3e cc 1b 1e 3e
       -0.15193199 0.15673545 0.12913093 0.15440291
000190 f1 e4 3b bd 10 7d 8f 3c 05 09 06 3d 43 75 db bd
       -0.045872632 0.01751569 0.032723445 -0.10715725
0001a0 e5 e8 96 bd f4 89 75 3d 53 e9 80 3d 7d 4f 46 3d
       -0.0736864 0.059946015 0.06294503 0.04841565
0001b0 ee 1e 1f 3f d3 c5 90 be f7 ef 6b be 99 8f 1c 3e
       0.6215657 -0.28275928 -0.23040758 0.15289153
0001c0 23 1a de 3e d5 3d 87 3d fe 44 3c bf 24 e1 a4 3d
       0.43379316 0.066035904 -0.73542774 0.08050755
0001d0 78 72 a2 bd 7d e7 2b 3c 2b 0d 9f 3e 94 8e 19 3e
       -0.079319894 0.010492203 0.31064734 0.14995795
0001e0 aa d3 8d 3e 08 7c dd bd 2a 0e bf bd 3d 70 fe be
       0.2770055 -0.10814673 -0.093288735 -0.49695006
0001f0 9a a0 1b be 4a d2 bd 3d 6c f2 10 bd 29 56 83 be
       -0.15197983 0.09268625 -0.03538744 -0.25651672
000200 29 56 2e be 2b 67 20 bf 66 30 89 3e 74 60 e1 be
       -0.17025055 -0.6265742 0.26794738 -0.440189
000210 3d 43 50 3f a3 b0 b2 3e 95 2b f1 3d 78 6a 37 3e
       0.813526 0.34900388 0.11775891 0.17911708
000220 25 91 03 bd 40 43 a1 3d 67 5b 57 3e 7a ea 49 3e
       -0.032120842 0.07874155 0.21030961 0.19718352
000230 09 82 70 39 41 f7 2c be 25 98 85 be bc 00 71 bb
       0.00022936625 -0.16891195 -0.2609264 -0.003677412
000240 5d be 43 3e c3 e8 a5 3e c1 40 ae bb 48 48 a0 3e
       0.19115587 0.32404146 -0.005317778 0.31305146
000250 ea 24 65 bd c1 cc 23 3f e6 ab e5 be 2b a8 9a bd
       -0.055943407 0.63984305 -0.4485771 -0.07551607
000260 ec f2 c8 be 32 03 5a be 75 0b a5 be fb a8 0e bd
       -0.39247835 -0.21290281 -0.32235304 -0.03482912
000270 20 a4 d1 be c3 8f f3 3d a9 37 45 3d e8 3e 00 3f
       -0.4094553 0.11892655 0.048148785 0.5009599
000280 c2 dd ea 3e 34 3d 35 3e 06 e9 62 be 7d 0b 9d be
       0.45872313 0.17699128 -0.22159204 -0.30672827
000290 c5 3d 83 3e c1 a3 d4 3e 9d 94 14 bf d0 74 74 bd
       0.25633064 0.41531184 -0.58039266 -0.059681714
0002a0 c6 3a cd 3e 0d c2 a9 3e 37 15 04 3f 35 61 85 3d
       0.40083903 0.33155861 0.5159487 0.065126814
0002b0 b0 20 d2 bd 5c c2 c0 be 38 f5 80 be a0 a2 36 3f
       -0.10260141 -0.37648284 -0.25187087 0.71341896
0002c0 83 b8 6c bd 4c 70 07 3f 7e 92 5d 3d 43 ec 7f bd
       -0.05779315 0.52905726 0.054094784 -0.062481176
0002d0 ac a9 3c 3e 84 a4 be be b4 0c 17 3d dd 76 37 3e
       0.184241 -0.3723489 0.03687735 0.17916436
0002e0 2d 22 e7 bd 0a 59 a3 3e 55 a7 fe 3e 9f 51 64 3d
       -0.112858154 0.3190387 0.4973704 0.055741902
0002f0 51 e9 50 bc af 24 56 3e 55 ff ce bc 49 7e 08 be
       -0.0127509395 0.20912431 -0.025268236 -0.13329424
000300 b8 97 a8 bd 6e 4b b3 bc 41 8d d6 bc bf 6a 5f 3e
       -0.08232063 -0.021886554 -0.026190402 0.21818064
000310 5e 2e 43 3e b1 8f 1b bf 8d c3 e5 3c 74 eb d3 3e
       0.19060656 -0.6076613 0.028047347 0.41390574
000320 d5 e1 9b be 23 21 8e bd 51 15 e1 bd 6b 0e d9 3d
       -0.30445734 -0.06939914 -0.10990394 0.10598453
000330 09 8c 5b 3e 2c c9 a3 3d ad b3 8f 3e 63 f0 99 be
       0.21440138 0.07997355 0.2806677 -0.30066213
000340 df dd 23 be f0 1a a5 3e 6a c4 dc 3e 8b 2f 2d be
       -0.16002606 0.32247114 0.43118602 -0.16912667
000350 11 8a 50 bf de 3d d2 be 6f 98 75 3e 98 df ae bd
       -0.8146067 -0.41062826 0.2398393 -0.08538741
000360 53 e7 b6 be 3b 4f 20 3e e3 1e ad bc 71 de f8 3e
       -0.3572336 0.15655224 -0.021132892 0.4860721
000370 21 b3 bd bd 55 9d 7d bd 36 da d3 3e ad 57 f9 3e
       -0.09262682 -0.06191762 0.4137742 0.48699704
000380 f8 3e 43 3e 8a e8 35 bf c9 11 80 3e 3a a9 04 3e
       0.1906699 -0.7105795 0.2501357 0.1295518
000390 93 54 4e 3d ec f6 58 be 25 89 41 be 5b 66 d3 3c
       0.050373625 -0.21187943 -0.18899973 0.025805643
0003a0 7b 6e 90 3e 5f f2 eb be 4c c9 88 be b6 83 f5 3e
       0.2820929 -0.46083352 -0.26716077 0.4795205
0003b0 a7 e6 06 bf 32 a7 20 3e 57 78 66 3e b6 fd 28 3e
       -0.526957 0.1568878 0.22506844 0.16503033
0003c0 49 4b d6 bd 68 33 2a 3e e2 a5 b8 bd 14 33 8f be
       -0.10463578 0.16621172 -0.09016015 -0.27968657
0003d0 36 4a 64 3d 43 f5 f3 3e a6 ee dd 3d 13 cf e5 bd
       0.055734836 0.47648057 0.10836534 -0.11221137
0003e0 12 4d 92 be 98 50 90 be 71 e9 87 3e f4 c2 1f be
       -0.28574425 -0.28186488 0.2654529 -0.15601712
0003f0 e3 28 3a 3e 33 0e 81 be 2f 5f e0 bd bc ca 72 be
       0.1817966 -0.25206146 -0.10955655 -0.2371015

cnn.0.bn.weight f4 [16]
000000 69 b5 81 3f 68 1d 90 3f 46 a4 7a 3f 59 23 75 3f
       1.0133487 1.1258974 0.9790691 0.9575706
000010 90 1a 95 3f d6 65 81 3f ce 99 71 3f 7f f2 86 3f
       1.1648731 1.0109203 0.9437531 1.0542754
000020 bc fa 78 3f 6e dd 78 3f c0 df 6b 3f 3a 99 69 3f
       0.9725759 0.97212875 0.9213829 0.9124943
000030 9e b2 7f 3f f1 80 7d 3f 8e 2f 7c 3f 92 12 75 3f
       0.99881923 0.99024874 0.9851006 0.9573146

cnn.0.bn.bias f4 [16]
000000 93 a8 6c bd 58 5b ad 3c 51 b4 0c bd 28 f0 e3 bc
       -0.057777952 0.02116172 -0.03435165 -0.027824476
000010 45 9d 35 3c 28 82 4e bd c3 16 85 bd bf 5e 4d 3d
       0.011084859 -0.050417095 -0.06498482 0.050139185
000020 81 f5 7f bc cd 05 24 bd 91 5f f6 bd 14 b6 40 bd
       -0.015622498 -0.040044595 -0.120299466 -0.047048643
000030 b2 b4 37 3c d4 88 1e bd 5e dd 5d bc ca 5a 5a bc
       0.011212515 -0.03870471 -0.013541548 -0.01332731

cnn.0.bn.running_mean f4 [16]
000000 96 0c ca be 89 db cd 3c d0 e3 f0 be 6b 6a 42 3f
       -0.39462727 0.025129097 -0.47048807 0.7594363
000010 ca 3d f1 3c 40 7f 8b 3e 6b 54 15 3f 7a e8 61 be
       0.029448409 0.27245522 0.58331937 -0.22061339
000020 a6 55 d7 3e 18 d1 03 be 83 1e 70 be 77 35 81 3e
       0.42057532 -0.12872732 -0.2344914 0.25236103
000030 05 e7 ca be 69 34 60 be de 25 84 3e ac 46 91 3e
       -0.3962938 -0.21894993 0.2581014 0.2837423

cnn.0.bn.running_var f4 [16]
000000 7b a9 02 3e 46 80 45 3c fa 6a 7c 3e 56 06 01 3f
       0.12759964 0.012054509 0.24650183 0.5040029
000010 81 60 03 3c 2c b7 86 3d 80 1a a4 3e fd 26 56 3d
       0.008018614 0.06577906 0.32051468 0.052283276
000020 92 f5 18 3e 9d 6d aa 3c 09 ee 4c 3d a4 74 b7 3d
       0.14937428 0.02080422 0.050031696 0.08957794
000030 93 b9 26 3e 02 d6 27 3d a4 cb 8c 3d e5 d6 da 3d
       0.16281728 0.040975578 0.06874779 0.10685519

cnn.2.conv.weight f4 [32, 16, 3, 3]
000000 d9 3f b2 b9 24 ea 14 bd ad 62 13 be 5d a6 53 bd
       -0.00033998376 -0.036356106 -0.1439311 -0.05167233
000010 21 33 dd bc 34 e1 6b 3d 5e e0 2a 3d c7 28 09 3e
       -0.02700192 0.057587817 0.04171788 0.13394462
000020 61 8f 42 bd a5 5f 2f 3e f6 db cf bc 1d db 36 be
       -0.047500018 0.17126329 -0.02537344 -0.17857023
000030 b5 b2 59 3c 84 6b 09 3d af d1 82 3e d9 d5 94 bc
       0.013287236 0.0335498 0.255506 -0.018168377
000040 18 66 97 bc 30 65 32 bb f1 da 90 be ac 30 ef bd
       -0.0184813 -0.0027220957 -0.2829204 -0.11679205
000050 4a 7b 12 3c 67 93 52 be 88 c2 13 be 42 30 0e 3b
       0.008940527 -0.20564042 -0.14429677 0.0021696244
000060 a1 0d 29 bd bd 07 61 be 63 08 ad bd b7 88 4a 3e
       -0.041272763 -0.21975608 -0.08448865 0.19778715
000070 bd fb dc bd ac 47 7e bd bf 78 b8 bd a9 d3 64 3e
       -0.10790203 -0.06208007 -0.090074055 0.22346367
000080 f1 57 e5 bd 8a cb 3d 3e 9f 5c d7 3d 1e 51 4b 3e
       -0.11198414 0.18534675 0.10515713 0.19855163
000090 7b d9 6f 3d 68 69 b3 bd 33 eb 09 3e ae 40 99 be
       0.058557015 -0.08760339 0.13468628 -0.2993216
0000a0 b8 24 4e bb 33 f2 90 be d4 25 f8 bd 5c e8 2a be
       -0.0031454992 -0.28309783 -0.1211659 -0.166902
0000b0 b2 a4 c5 bd a0 73 07 3d 18 1d 81 3c df 81 10 bd
       -0.09650554 0.033069253 0.015760943 -0.035280105
0000c0 fc 78 d9 bd ad 63 9f 3c 52 8d 4d bd ad e4 ff 3d
       -0.10618779 0.019456709 -0.0501836 0.12494788
0000d0 82 ae 10 3e f6 37 6a bd c1 e0 11 be 2e b4 8a 3e
       0.1412907 -0.057182275 -0.14245893 0.2709059
0000e0 86 bf ef 3d 4a 48 fa bb 0b 73 26 3e 5a 4a a4 3e
       0.11706452 -0.007638012 0.16254823 0.32087976
0000f0 60 2e 34 3d 48 24 87 bd 18 df 03 3e 54 7d d1 3d
       0.04398954 -0.06598717 0.12878072 0.102289826
000100 2a 89 76 be e2 a8 19 be 9e bd dc bd 8b ba 7e 3b
       -0.24075761 -0.1500583 -0.10778354 0.0038868512
000110 ae 15 b2 bd a8 e5 45 3d 29 d0 20 3b d9 1c b2 bb
       -0.08695541 0.04831472 0.0024538136 -0.005435568
000120 7e 95 fa bd b3 c4 91 bc 6c 3f 8c 3d 8d df 1e 3e
       -0.122355446 -0.017793989 0.06848034 0.15514965
000130 e8 74 e8 3c d6 ef 8b 3d fc 90 6d bd 06 0c c3 3d
       0.028376058 0.068328544 -0.057999596 0.09523778
000140 67 20 05 be 11 49 a3 3d 2a e0 e7 3c 3d ef 88 be
       -0.13000642 0.07972921 0.028305132 -0.26745024
000150 a5 5c 3d 3e 40 d1 85 bd ae 69 79 3d a0 3e 0f be
       0.18492372 -0.06534052 0.0608918 -0.13988733
000160 f8 4a b9 3d 1b d7 ff 3d 13 a4 8d be 40 51 38 be
       0.09047502 0.124922 -0.2766424 -0.17999744
000170 00 b0 37 be bd 42 a7 bd b4 c9 d6 bd ef 7f 83 3d
       -0.17938232 -0.08167026 -0.104876906 0.06420886
000180 50 6f 15 3e 1d 28 93 bb 04 9f 81 bc ea f4 0e bd
       0.14593244 -0.004490866 -0.015822895 -0.034901537
000190 95 8d 11 3d 1b 13 54 3e a2 2e 50 3e 9a 49 21 3d
       0.035535414 0.20710413 0.20330289 0.039376833
0001a0 78 18 8f bd 99 29 b4 3d 59 07 ce bd a5 e6 b4 3d
       -0.06987089 0.087969966 -0.10059995 0.088330545
0001b0 2d 72 d6 3d e1 fd 24 be 69 3b 2f 3c d7 70 09 bd
       0.10470996 -0.16112472 0.010695317 -0.033554878
0001c0 cc 60 a6 bd a1 64 ce bd 53 57 0b 3e a6 de 00 3e
       -0.08123931 -0.10077787 0.1360753 0.12584934
0001d0 3e 30 b2 bc 9b 13 df 3d e5 16 3e 3e a6 ff 31 3e
       -0.02175152 0.10892411 0.18563421 0.17382678
0001e0 87 4b 54 3e 05 2f 2f 3d a6 df 0f be 64 75 17 3d
       0.20731936 0.04276945 -0.14050159 0.036977187
0001f0 66 c6 a5 3c 64 a9 fc bc 7c 74 9b bc e1 5d 2c bc
       0.020236205 -0.03084249 -0.018976443 -0.010520429
000200 e9 10 e0 3c bf a5 c8 bd e4 6e 0a 3d ff 23 ec 3d
       0.027351813 -0.097972386 0.03379716 0.11530303
000210 36 0f 88 be 50 e0 ef 3c bf da 19 be 31 f7 aa 3e
       -0.26574105 0.029281765 -0.15024851 0.33391717
000220 ea c9 c5 bd 8d 1b 83 be 0b 59 86 3e 4c 75 a0 3e
       -0.09657653 -0.25606957 0.2623981 0.3133949
000230 2b 4c 43 bd 4f 70 c9 ba 92 d9 30 be 96 5d 53 3d
       -0.04768006 -0.0015368554 -0.17270496 0.051602922
000240 2b e3 21 3e 24 1e 57 3d 63 6c 45 be c1 5c 7d 3e
       0.15809314 0.05251898 -0.19279628 0.24742414
000250 be f3 0c 3e d9 09 3e 3e a4 7c 92 bd f6 7b 04 bd
       0.13764855 0.18558444 -0.071526796 -0.03234478
000260 c5 2f e9 3d 50 cc 1d bc 9f 94 46 3c d0 4a 88 be
       0.113860644 -0.009631231 0.012120395 -0.26619577
000270 6d f1 a6 3d b4 a5 b7 3d de 50 d6 3d f1 0d d8 bd
       0.08151517 0.08967152 0.10464643 -0.10549534
000280 96 ab 47 3d df 75 b2 be 13 ec 20 3e cc 82 77 3c
       0.04874762 -0.34855554 0.15715055 0.015106868
000290 ce 31 2e 3d 88 b1 4d 3e 03 c0 55 3e e8 37 ff bd
       0.042527966 0.20087254 0.20874028 -0.12461835
0002a0 80 eb a1 3d d8 ff 19 bd 83 4e 91 3c f7 81 4a be
       0.07906246 -0.037597507 0.017737633 -0.1977614
0002b0 d0 2e f0 bc 11 5b b7 bd 5a 9d d6 3d 66 47 72 bc
       -0.029319197 -0.089529164 0.10479231 -0.0147875305
0002c0 c6 32 d9 bd 5c 86 d3 bd 7f 78 28 bd 74 ed 0c be
       -0.106053874 -0.103283614 -0.04113054 -0.13762456
0002d0 d1 93 39 bc 30 0f 08 3d 42 8b 0c 3e 13 0b 90 bd
       -0.011326746 0.03321761 0.13724998 -0.07033362
0002e0 06 8e 95 be 99 06 35 3e 92 8d 1a ba 5b 13 28 3d
       -0.29209918 0.17678298 -0.00058957294 0.041034084
0002f0 a5 69 1f bd 49 f1 80 bd e4 29 95 bc 46 60 64 3d
       -0.03891911 -0.062960215 -0.018208452 0.055755876
000300 93 ff 15 be 75 96 86 3e b0 3b 80 be 04 37 6e bd
       -0.14648275 0.26286665 -0.25045538 -0.058157936
000310 97 91 14 be f9 98 0c bd bd e7 f4 3c c2 83 ce bd
       -0.14508663 -0.034325574 0.029895658 -0.100837246
000320 a0 97 0f 3b 36 5a 82 3e 97 b3 83 3d 69 62 dc bd
       0.0021910444 0.2545945 0.064307384 -0.10760958
000330 65 c7 22 bd a3 da 17 be 85 fb 74 3d a7 5d 56 3e
       -0.03974094 -0.14829497 0.05981018 0.20934163
000340 85 52 71 bd 8c 76 94 bd 8e f0 a2 3b 70 eb 7f bd
       -0.058916587 -0.072491735 0.004972524 -0.06248039
000350 70 ae db 3d 71 d3 a7 3d 37 a5 0a 3e 3b 4c 15 3e
       0.10726631 0.08194626 0.13539587 0.14579861
000360 71 32 1e bd fe bb 15 be d5 52 6d be 44 d1 11 be
       -0.038622323 -0.14622495 -0.23176129 -0.14239985
000370 4c a5 10 3e d4 8e e2 bd 57 5a ca bd af ed 0b 3d
       0.14125556 -0.110623986 -0.09880512 0.03416222
000380 85 6d fb bc 65 af 02 be aa 08 18 3a 9b ef 2e 3d
       -0.030691871 -0.1276222 0.0005799631 0.042708974
000390 7d 41 71 3d 81 7a 75 3c 1a 27 ec 3d c9 5f 01 3e
       0.058900345 0.0149828205 0.115308955 0.12634195
0003a0 e3 74 b8 bd b5 19 1d 3e 4e 39 89 be 68 6d 23 3d
       -0.09006669 0.15341838 -0.26801533 0.03989926
0003b0 c3 85 84 bd 77 ac 42 bc 19 83 1f bc 69 66 8f bd
       -0.064708255 -0.011881939 -0.009735846 -0.07001955
0003c0 ce 26 d2 3d 0d 5a e2 3c 79 0b 36 bd 45 d5 26 3e
       0.10261308 0.02763083 -0.044444535 0.16292293
0003d0 4a c9 32 3e cc b1 0e 3c 56 80 8f bd f4 17 04 be
       0.17459598 0.008709382 -0.070069 -0.12899762
0003e0 ea d6 0c 3e 14 55 81 be 6d 76 df 3c 74 a9 8f 3c
       0.13753858 -0.25260222 0.02727815 0.017536856
0003f0 e8 8b 8d 3b 3f eb 32 3e 73 88 57 3e 82 db 3f be
       0.0043196566 0.17472552 0.21048145 -0.1873608

cnn.2.bn.weight f4 [32]
000000 dc 5b 82 3f 88 d3 87 3f 8a a2 81 3f 16 fe 73 3f
       1.0184283 1.0611429 1.0127728 0.9530958
000010 85 90 86 3f 7c 17 7e 3f e0 30 7d 3f f1 4a 87 3f
       1.0512854 0.99254584 0.989027 1.0569745
000020 36 ca 83 3f 14 f8 72 3f 72 aa 83 3f 1c 4e 7f 3f
       1.0296085 0.9490979 1.0286391 0.9972856
000030 f5 5e 77 3f 2f 4f 87 3f 0c b0 72 3f 71 c2 73 3f
       0.9662927 1.057104 0.94799876 0.9521857
000040 4f dd 79 3f eb ad 7f 3f 0d 2d 8d 3f 88 66 81 3f
       0.97603315 0.9987475 1.1029373 1.0109415
000050 f6 b3 72 3f a1 56 7f 3f 75 e3 83 3f 6e 58 76 3f
       0.9480585 0.9974156 1.0303789 0.96228683
000060 12 13 7c 3f ff c9 80 3f 7a 52 87 3f b5 11 7b 3f
       0.984666 1.0061644 1.0572045 0.98073894
000070 90 4b 81 3f 46 f2 79 3f fb a0 85 3f 53 01 79 3f
       1.0101185 0.97635305 1.0439752 0.97267646

cnn.2.bn.bias f4 [32]
000000 c8 d9 73 3c 23 0a 7c bc 86 19 44 3a 0b be 8b bd
       0.014883466 -0.015383276 0.000748061 -0.06823357
000010 b3 78 1e bd 16 fd fc bc 59 c8 c3 bb 38 23 68 bb
       -0.038689326 -0.0308824 -0.005974811 -0.0035421383
000020 70 53 bd bc 91 22 0a bd 7c 18 ac bd 83 87 2f 3b
       -0.023111075 -0.03372437 -0.084031075 0.0026783652
000030 8e af 34 bd 91 8c bb 3c 24 9c 87 bd f3 36 76 bd
       -0.044112734 0.022894176 -0.06621578 -0.060110997
000040 24 ee ef 3c f5 34 eb bc 14 25 83 3d 68 c5 24 bc
       0.029288359 -0.028711775 0.064035565 -0.010056831
000050 a5 14 02 bd 98 6c d7 bc 45 5a 2c 3d 87 26 2e bd
       -0.03175797 -0.026296899 0.042078275 -0.04251721
000060 32 9b 26 bc c3 69 fa 3c 3e fd 40 bd 3b 9d 91 bc
       -0.010168837 0.03056801 -0.04711651 -0.017775169
000070 d5 23 48 bc 8c d3 04 bd b3 93 91 bc 4c 71 cf bc
       -0.012215574 -0.03242831 -0.017770624 -0.025322579

cnn.2.bn.running_mean f4 [32]
000000 ec cd 39 bc 7c fd 8e bc 41 38 03 bf b2 c7 bd bd
       -0.0113405995 -0.017454855 -0.5125771 -0.092666045
000010 42 a5 3a 3c 89 25 9e 3f b2 a1 4e bf fa 69 7f 3e
       0.01139194 1.2355205 -0.8071548 0.2494277
000020 39 eb 73 3f d8 ec 71 3f 72 e7 ad be 2d 53 58 3f
       0.95280796 0.9450202 -0.3396564 0.84501916
000030 c9 3e 0d bf 76 f6 0e bf 9d a5 55 3f b8 d6 4a bf
       -0.5517393 -0.5584482 0.8345583 -0.79233885
000040 37 da 1e bf 18 b8 3a 3e 10 01 de bd 5f 80 80 bf
       -0.6205172 0.18234289 -0.108400464 -1.0039176
000050 43 76 10 3e 06 c4 e9 3e 89 2b 53 3f 16 af bb 3f
       0.14107613 0.45657367 0.82488304 1.4662807
000060 52 f9 24 3e 7a 7f ed 3e 97 fc 39 be 14 10 d4 bf
       0.16110733 0.4638632 -0.18162762 -1.6567407
000070 c7 39 ef bd 14 ce 04 3e 08 6e 04 be f5 c4 7c 3f
       -0.11680942 0.12969238 -0.12932599 0.9873803

cnn.2.bn.running_var f4 [32]
000000 d9 e0 1d 40 52 08 90 40 4c 3f 97 3f 23 ab 86 3f
       2.4668486 4.5010157 1.1816192 1.0520977
000010 95 45 37 3f bd 51 41 40 98 0c 6e 3f 1d 5f 78 3f
       0.7159055 3.020614 0.92987967 0.9702013
000020 25 52 98 3f 6a 66 56 3f 18 56 db 40 82 d6 85 3f
       1.1900069 0.8375002 6.8542595 1.0456088
000030 f9 db 99 3f 0f 73 13 3f 3b be 32 3f 15 0e 8e 3f
       1.2020255 0.5759744 0.6982152 1.1098047
000040 83 3d 31 40 82 80 51 40 02 02 ce 3f 2c f5 5f 40
       2.7693794 3.2734685 1.6094363 3.499339
000050 f0 95 cf 3f c2 93 9d 3f e0 4b dd 3f d7 e5 eb 3f
       1.6217632 1.2310717 1.728878 1.8429517
000060 27 f6 9a 3f d1 8b 3e 40 ff fe 2b 3f 94 da 5d 3f
       1.210637 2.9772837 0.6718597 0.8666165
000070 ea 17 12 40 74 91 8b 3f 86 47 79 3f b4 02 58 3f
       2.2827096 1.0903764 0.9737476 0.84379125

cnn.4.conv.weight f4 [64, 32, 3, 3]
000000 3a 86 b8 3c 42 3f 47 3d 6f 02 b5 3d e9 01 a9 3c
       0.022524942 0.04864431 0.08838355 0.020630794
000010 65 03 68 be 4d 8d 00 3e 48 42 05 3e 3b 53 2c 3e
       -0.22657545 0.12553902 0.13013566 0.16828625
000020 7c 18 b6 3d 07 22 6b bd dd e9 4d 3d 3d 3e 04 bd
       0.08891389 -0.057405498 0.050271858 -0.032285918
000030 d8 68 5b bd 6c f3 a7 bd 2f d4 f6 39 0a 43 19 3d
       -0.053566784 -0.08200726 0.00047078865 0.03741745
000040 98 68 a5 3d 3d dc d5 3d 31 70 86 bc 9e 3d 98 3d
       0.0807659 0.10442398 -0.016410919 0.074336275
000050 02 3e fa bd a1 3b e7 3d 93 67 de bc 52 f8 39 bc
       -0.12218858 0.1129067 -0.027148997 -0.011350708
000060 7e 47 bf 3d 4f 98 95 3d af 14 1e 3e 56 b1 8e bc
       0.09339808 0.07304441 0.15437578 -0.017418545
000070 fe d2 53 bd 4c ed ea bc 3b aa d4 bc d0 d1 0a be
       -0.05171489 -0.028677605 -0.025960078 -0.135566
000080 e2 7b ad bd d1 80 82 3d d3 1a 53 3d 2f f9 63 bc
       -0.084708944 0.06372226 0.051539253 -0.0139143905
000090 45 82 bd 3d 90 eb 0a bd 98 c0 8f 3a c6 05 d1 3d
       0.092533626 -0.033916056 0.0010967432 0.10206179
0000a0 39 9f 53 3e d2 82 bc 3d 97 5f 4e bd d8 9e 56 3e
       0.20666207 0.092046395 -0.05038413 0.20959032
0000b0 79 35 59 3e 68 e8 37 bd b7 c6 ec 3c 64 0d 00 3e
       0.21211804 -0.044899374 0.028903348 0.12505108
0000c0 31 d4 c1 3c a7 4f 78 3d fe 96 6b 3d 0e a8 1f 3b
       0.023660751 0.060622837 0.057517044 0.0024361643
0000d0 4f 76 18 bd db e1 37 bd 12 f4 c4 bd 5e d6 65 3d
       -0.037222203 -0.044893127 -0.09616865 0.05611264
0000e0 cf 58 92 3d c1 0f 12 bd 77 4e 5d bd 00 87 d7 bd
       0.07145845 -0.035659555 -0.054029908 -0.10523796
0000f0 2d 73 35 3b 94 0d e8 3c d2 a1 22 bd 79 67 21 bd
       0.0027687058 0.028326787 -0.039705105 -0.03940532
000100 6a 18 83 bd 5d 7c 16 bd 67 21 bf 3d ed 8a 93 3d
       -0.06401141 -0.036739696 0.09332543 0.07204232
000110 0c dc e9 3c 6b d0 40 bd 3e 11 78 bd 65 9d c2 ba
       0.02854731 -0.047073763 -0.06056332 -0.0014847933
000120 1f e2 0e 3d 0e 4a 71 3d 24 bf ce 3d 3d a2 6e 3d
       0.034883615 0.058908515 0.10095051 0.05826019
000130 1c 60 80 3d 78 a6 09 bd 9f b8 ce bc 6b 34 eb 3b
       0.062683314 -0.033606023 -0.025234519 0.0071778796
000140 be 4c 90 bb 18 6d 02 be 60 f0 e9 bc 0e ee 64 3e
       -0.0044036796 -0.12736928 -0.028557003 0.22356436
000150 e8 be 89 bc 9a e8 58 bd 1e 68 f8 3c ca de 2d 3d
       -0.016814664 -0.0529562 0.030323084 0.042448796
000160 ef de 9d bd 06 b3 d7 bc 01 dd 16 3d 18 3c 09 3d
       -0.07708537 -0.026330482 0.03683186 0.033504575
000170 54 7f 03 be af 69 d1 3d d7 15 7a bd 62 de 0d 3c
       -0.1284154 0.10225236 -0.061055984 0.008658977
000180 30 6e 89 bd c3 ff 2e 3a 17 1e 59 bd 62 b9 08 3d
       -0.0671047 0.00066756847 -0.05300721 0.03337992
000190 f2 56 3f bd e8 99 61 b9 28 6f 9c bd 13 a3 46 3a
       -0.046713777 -0.00021515007 -0.07638389 0.00075774005
0001a0 c9 7e 6b bd 07 3e fd 3d 19 55 1a 3d 7d f1 07 3e
       -0.05749396 0.123653464 0.03767881 0.13275714
0001b0 11 a4 9a 3d 0a 85 25 3b 7a 55 cb bb 2f 57 5b 3b
       0.075508244 0.00252563 -0.006205258 0.0033468714
0001c0 eb ed 0f bd 35 6d 51 bc 2b cd d6 bd 07 df 7e bb
       -0.035139006 -0.012782385 -0.104883514 -0.003889026
0001d0 61 c4 4e bc 1e 12 53 bd 20 4f 3f 3e cb b5 26 bd
       -0.012620063 -0.05153095 0.18682528 -0.040700715
0001e0 42 d8 39 3d 71 20 d3 bd e8 1b 3b bd 24 ff 99 3d
       0.045372255 -0.10308922 -0.04568091 0.07519367
0001f0 4b 11 61 3e 0d 8b 91 3d c3 17 d0 3d 93 00 0d be
       0.21979253 0.071066 0.10160782 -0.1376975
000200 e1 de 1c 3d 25 b9 f6 3d e1 80 63 3e 2e 9b 38 bd
       0.03829849 0.12047032 0.22217132 -0.045069866
000210 96 6c 2c 3d 68 fb 1b 3d 20 a9 ab bb b8 59 0e be
       0.042095743 0.038081557 -0.005238667 -0.13901412
000220 8f 67 00 be 15 8c 33 3e 46 d0 0d bd ec 1b d3 bd
       -0.12539504 0.17533906 -0.034622453 -0.1030806
000230 5d d2 62 3d c4 b7 10 bd ca b7 7a 3d 6e 6b 87 bd
       0.0553764 -0.035331503 0.06121043 -0.066122875
000240 ae 4c 40 3d 7f 42 f9 bd 61 09 f4 3c 0a a9 31 3c
       0.046948127 -0.12170886 0.029789628 0.010843525
000250 60 63 21 3d 36 eb 74 bd 68 08 b2 3d 7c 49 e4 bb
       0.039401412 -0.059794627 0.086930096 -0.006966768
000260 98 eb d4 bc 09 00 1e 3d 86 ae 02 3e 32 1a 12 3d
       -0.025991246 0.038574252 0.12761888 0.035669513
000270 c1 70 bb 3d e5 0c 8b 3c 9d 65 9a bd de 15 13 3c
       0.091523655 0.016973922 -0.075389124 0.0089773815
000280 d6 e3 c9 3c 94 ce 3f 3d 35 16 7f 3c 8b 5a 04 bd
       0.024644773 0.046827868 0.015569259 -0.03231291
000290 2c 74 6d 3c 46 3c 37 3e 77 d9 36 3e cb f2 94 3d
       0.01449303 0.17894086 0.17856394 0.072728716
0002a0 a9 d7 83 bc 77 bb be 3d c2 66 97 bb b5 19 b8 bd
       -0.016094046 0.093131 -0.004620404 -0.08989278
0002b0 f4 73 bc 3d 3b 45 a7 3d 01 34 d5 bd 69 c4 a5 bc
       0.09201804 0.081675015 -0.104103096 -0.020235257
0002c0 ba b3 b1 3d 74 ee 7f bc 1e bb f7 3d 8b 84 71 bc
       0.08676858 -0.0156208165 0.12096237 -0.014741073
0002d0 38 e3 fa 3c c5 07 77 3b c3 5d f4 bd a3 4c 02 bd
       0.030625924 0.003769384 -0.11931946 -0.031811368
0002e0 b8 9f 91 bd 7b 3b 85 3d b1 f3 86 3d 70 db b9 3d
       -0.07110542 0.065054856 0.06589449 0.090750575
0002f0 1a bb 11 3d b2 7d 3a ba 9b ca a8 3b 89 25 b6 3d
       0.035578825 -0.0007114067 0.0051511056 0.08893878
000300 db e0 e3 3c dd 7e 20 3e 57 c0 df bd 38 8d f5 3c
       0.02781718 0.15673395 -0.10925358 0.029974565
000310 c1 b1 29 3d 2a 62 94 3d 2e 42 35 bc b9 d1 28 3d
       0.041429285 0.07245286 -0.011063142 0.041215632
000320 02 51 9c bc 94 0f 80 bd b8 d6 04 3d be 32 94 3c
       -0.019081596 -0.06252971 0.032431334 0.018090602
000330 6d 0b b7 bd 52 1c d5 bc 35 a5 c8 bc 2d 0c 78 bc
       -0.08937726 -0.02601448 -0.02449284 -0.015139622
000340 bf 22 7d 3d 2a 6e ae bc 53 7d 90 bd f0 6c 9a 3d
       0.061800715 -0.021292765 -0.07055154 0.075403094
000350 a8 87 2c 3e d0 f6 92 3c 5a 70 33 3d 2e 4a 47 3d
       0.16848624 0.017939955 0.04380832 0.048654728
000360 1e d2 af 3d f6 ef 02 bd 2a 06 bb 3d 99 3f 15 bb
       0.085849985 -0.031967126 0.09132035 -0.0022773503
000370 19 41 d5 3c 2e 56 62 bd aa bf b2 bd ca 71 3a bb
       0.026032018 -0.05525797 -0.08727963 -0.0028449171
000380 b1 5e 4d 3c 66 40 bb 3c 58 d1 b7 bd 27 34 11 bd
       0.012534783 0.022857856 -0.08975476 -0.035450127
000390 72 94 82 bc 7f 65 b4 bd 5e 6e e4 3c 39 41 99 3d
       -0.015939925 -0.08808421 0.027884658 0.07483143
0003a0 ac 7f 7e bd d9 d3 a6 3c 4f 46 02 be ad f8 b0 3c
       -0.062133476 0.020364689 -0.12722133 0.021602953
0003b0 ff 59 28 be d9 6f 29 bd 9d cf b4 3d 2a 80 7b bd
       -0.16440581 -0.04136643 0.088286616 -0.061401524
0003c0 63 3f 2e 3e a3 80 b1 3d bb 65 ed 3d b8 31 9a bd
       0.17016368 0.08667114 0.11591669 -0.07529014
0003d0 e6 da 7a bd 2d 58 0c 3e 70 3b 87 3d c4 31 7a 3d
       -0.061243914 0.13705511 0.06603134 0.061082616
0003e0 cf 17 3a bd 2f df 59 3e 04 31 8f bd 77 09 72 bd
       -0.045432862 0.21276544 -0.06991771 -0.059091058
0003f0 51 b3 6e 3d 39 a5 22 3e b5 87 63 bd f0 9d 82 bd
       0.05827648 0.1588334 -0.055549342 -0.063777804

cnn.4.bn.weight f4 [64]
000000 f0 2e 80 3f d5 d3 7d 3f 8d 72 7c 3f e9 bb 7b 3f
       1.0014324 0.99151355 0.9861229 0.98333603
000010 68 31 7b 3f f3 c5 82 3f cb a1 79 3f 8e 18 82 3f
       0.9812226 1.0216659 0.975125 1.0163743
000020 cc ad 7e 3f cc 8c 81 3f 39 c3 74 3f 2f 83 7b 3f
       0.99483943 1.0121093 0.95610386 0.98247045
000030 c3 ea 7a 3f 90 db 7d 3f f5 5e 79 3f e5 eb 83 3f
       0.9801447 0.9916315 0.9741052 1.0306364
000040 fb 89 73 3f 69 89 7d 3f 7b f7 70 3f 9a 87 89 3f
       0.95132416 0.99037796 0.94127625 1.0744507
000050 6c 62 83 3f c4 d5 6f 3f 79 c4 77 3f c9 4b 81 3f
       1.0264411 0.93685555 0.9678417 1.0101253
000060 3d 62 80 3f df cc 7a 3f ef 04 7b 3f b9 1c 7c 3f
       1.002998 0.9796886 0.98054403 0.9848133
000070 9d b8 83 3f 7b 36 7a 3f d9 1d 82 3f 1e de 7e 3f
       1.0290715 0.9773938 1.0165359 0.99557674
000080 e1 25 84 3f 2e 63 80 3f c0 a4 8e 3f 78 ff 81 3f
       1.032406 1.0030267 1.1144028 1.0156088
000090 c1 b7 80 3f 08 90 7c 3f 58 1b 83 3f 45 77 89 3f
       1.0056077 0.98657274 1.024272 1.0739523
0000a0 62 e1 83 3f 8c 99 74 3f 61 1f 78 3f b8 5d 7a 3f
       1.0303156 0.95546794 0.9692288 0.97799253
0000b0 e0 ba 7b 3f ae 03 75 3f 47 b8 78 3f 18 eb 6d 3f
       0.98332024 0.9570874 0.97156185 0.9293685
0000c0 1f 55 81 3f 17 9e 7c 3f 60 15 81 3f 2e 14 83 3f
       1.0104102 0.98678726 1.0084648 1.0240533
0000d0 7a e9 6e 3f 0c 9f 79 3f f5 d4 86 3f f3 83 8b 3f
       0.93325007 0.9750831 1.0533739 1.0899643
0000e0 f3 cb 7b 3f 93 94 85 3f 3f 2c 88 3f 04 12 78 3f
       0.98358077 1.0435966 1.0638503 0.9690249
0000f0 36 80 75 3f 8b cd 83 3f c6 28 92 3f f8 5e 73 3f
       0.9589876 1.0297102 1.1418693 0.95066786

cnn.4.bn.bias f4 [64]
000000 ff f4 93 bc 11 84 b5 ba fd 08 65 bc 94 bd ea bc
       -0.01806116 -0.0013848563 -0.013979194 -0.028654851
000010 82 78 56 bd 7e 76 9e bc de 6e 41 3c 01 4b d4 3c
       -0.05236102 -0.01934361 0.011806218 0.02591467
000020 04 e5 59 bd 5f b0 3e 3d 13 29 db bc 8d e6 07 bd
       -0.053196922 0.04655492 -0.026752984 -0.033178855
000030 66 e9 f6 bc 80 9a 8c bc 19 5d 35 bd bc 98 d4 bc
       -0.03014059 -0.017163515 -0.044278238 -0.025951736
000040 56 a9 a8 bc 09 06 86 bd f1 a3 66 bd ba 8d 0d bd
       -0.020588558 -0.0654412 -0.05630869 -0.03455899
000050 30 46 38 3d a5 3e 6d bd 17 7b 1a bd b3 81 0d 3d
       0.04498881 -0.05792107 -0.037715044 0.03454752
000060 a9 fa c9 3c 12 44 23 bd 3a 6c 93 bb 96 6a fb 3b
       0.024655657 -0.03985984 -0.0044989856 0.007672618
000070 37 e1 7c bc 8e 82 bf bd d4 70 50 3c 64 f9 ad 3b
       -0.015434555 -0.09351073 0.012722213 0.0053092707
000080 77 11 b2 3d 73 76 b4 3c 81 06 0d bd 8d 47 01 3d
       0.086947374 0.022029137 -0.03443003 0.031562377
000090 a3 36 23 bc 64 57 30 3c c1 47 a4 bc b6 7c 5b bd
       -0.009961757 0.010763023 -0.020053746 -0.05358573
0000a0 d9 97 80 3d fc 19 33 bd 90 c2 46 bb 5d 4c fa bc
       0.06278963 -0.043725953 -0.003032837 -0.030553991
0000b0 d1 8c 8e 3c 70 3c ee bc de b0 d1 bd 57 d7 97 bd
       0.01740113 -0.029081553 -0.10238813 -0.0741412
0000c0 9d db 3c 3c 85 9d a9 bc ea 98 1f bd 9b 89 7c 3d
       0.011526969 -0.020704994 -0.03896419 0.06165467
0000d0 3f 4e ce bd fb a7 cd bc cf e1 6d 3d 42 fb 67 3c
       -0.10073518 -0.025104513 0.058076676 0.014159026
0000e0 1f ec 8f bc c5 88 15 3c 1a b9 1d bd 6f 6a 46 bd
       -0.017568646 0.009126847 -0.038506605 -0.048441347
0000f0 f9 cf 7c bd a7 b3 fe 3c f8 bb f6 3c d5 48 8a bd
       -0.061721776 0.031091524 0.030118927 -0.06752173

cnn.4.bn.running_mean f4 [64]
000000 26 be f4 3f 33 fe f4 3f d8 ec 22 40 92 99 e7 3e
       1.9120529 1.9140075 2.5457058 0.45234352
000010 8c 01 79 3f b4 9c 1f 3f bb a7 47 bf 24 02 7c 3f
       0.97267985 0.62348485 -0.7799031 0.98440766
000020 5f 8e df 3f 5e e1 14 bf d2 89 48 c0 fe 87 fa 3d
       1.7465323 -0.58156383 -3.133412 0.1223297
000030 f8 83 a7 3f 3a f5 f5 3f 3e 39 7c be ac 0b 0c 40
       1.3087149 1.9215462 -0.24631211 2.1882124
000040 fc 77 43 c0 62 f4 a7 bf 3a 88 23 bf d2 b5 d0 be
       -3.0541983 -1.3121455 -0.6387974 -0.40763718
000050 39 85 f6 3e 65 23 a9 be 2e 3a e0 bf 0d bd 87 3f
       0.48148516 -0.33034816 -1.7517755 1.0604569
000060 d8 51 7a 3f d2 1c 40 bf 09 0b da bf 1e 8e 18 3f
       0.97781134 -0.75043976 -1.7034618 0.59591854
000070 32 ac ba 3f 92 f6 e1 3d a8 e9 02 3f 75 be 02 3f
       1.45838 0.11033358 0.5113778 0.51071864
000080 d0 c4 6c bc 2a 10 bb bf 8b 09 5c bf 4e 2a a5 3f
       -0.014451221 -1.4614308 -0.8595206 1.2903535
000090 67 ef bb 3f dc f9 bd bf ef ab 93 3f b0 9d 69 bf
       1.4682435 -1.4841876 1.1536845 -0.9125624
0000a0 58 bc 8b 3f 1a 2e 9b bf 23 a6 dd 3e dd e6 b0 3f
       1.0916853 -1.2123444 0.43290815 1.3820454
0000b0 0e 71 9b 3f 87 13 5e 3f 97 f4 49 bf 36 a5 30 bd
       1.2143877 0.86748546 -0.7888884 -0.043126307
0000c0 18 77 5e bf 9b c3 9f 3e 53 1f d6 bf 8b 87 fd bf
       -0.8690047 0.31203923 -1.6728309 -1.980699
0000d0 0e cd 55 bf 28 1b 1b bd a1 8e b3 be af f9 89 bf
       -0.83516014 -0.037867695 -0.35069755 -1.0779322
0000e0 58 b5 ee 3b dc 7b cb 3f e2 93 f1 be c0 b9 7e bf
       0.0072848015 1.5897174 -0.47183138 -0.9950218
0000f0 16 47 c5 3f de 61 de 3f c7 91 8f 3c 8f ec cb 3f
       1.5412319 1.7373617 0.017525567 1.5931567

cnn.4.bn.running_var f4 [64]
000000 b1 bc 8b 40 98 c4 49 40 8b 56 e1 40 2e f9 9b 3f
       4.3667836 3.1526241 7.0418143 1.2185419
000010 19 da 42 40 aa 6e fe 3f f9 6d f1 3f 39 53 67 40
       3.0445616 1.9877522 1.8861686 3.6144545
000020 eb a4 29 40 97 a2 5f 40 c9 2c af 40 92 6d a0 3f
       2.6506908 3.4942987 5.474217 1.2533438
000030 28 ac 8a 40 ad 2a 8a 40 8a c4 68 40 29 1f f6 3f
       4.333515 4.3177094 3.6369958 1.9228259
000040 8c 41 9a 40 a2 83 2f 40 4e 62 77 40 35 ac f6 40
       4.8205013 2.7424092 3.865375 7.7085214
000050 2f b9 c3 3f 16 e2 59 40 fd 3b 48 40 26 1a e6 3f
       1.5290889 3.4044242 3.1286614 1.797673
000060 48 36 96 40 65 59 51 40 9d 51 a3 40 f8 c6 80 40
       4.694126 3.2710812 5.1037126 4.024288
000070 32 85 61 40 94 ce 0d 40 d1 3e a7 3f 44 f4 00 40
       3.5237546 2.2157335 1.3066045 2.0149088
000080 30 ee 21 40 9a 2c 92 40 b4 df 06 41 c6 0e 69 40
       2.5301628 4.5679445 8.429615 3.6415267
000090 c4 53 34 40 f8 04 08 40 27 08 ba 3f 52 d1 2a 41
       2.8176126 2.1253033 1.4533738 10.676104
0000a0 2c 8b 91 40 7e 62 f6 3f df bf 92 3f bf 71 f2 3f
       4.5482388 1.9248807 1.1464804 1.8940963
0000b0 81 a9 36 40 ca 3e 86 40 02 46 a5 40 92 8b ec 3f
       2.8540957 4.1951647 5.164796 1.8480093
0000c0 5d 16 48 40 2b b5 3c 40 91 bd 07 41 be 16 4d 40
       3.126365 2.9485576 8.483781 3.204513
0000d0 fd 11 74 40 c8 04 26 40 30 e4 fb 3f b5 d3 9f 40
       3.813598 2.5940418 1.9679012 4.994593
0000e0 04 1d dd 3f 79 10 25 40 48 5f cd 40 84 8d 72 40
       1.727448 2.5791304 6.417881 3.7898874
0000f0 51 3f 88 40 dc 58 ce 40 b9 f0 38 41 87 84 41 40
       4.257729 6.448347 11.55877 3.0237138

mlp.net.0.weight f4 [64, 32]
000000 b2 9c 29 3e e0 68 2f be 92 dd 46 3e 78 8a 11 3e
       0.16563681 -0.1712985 0.1942046 0.14212978
000010 48 2c 5b bd d8 9f 87 bd 40 a6 c9 3d d8 1c d5 bd
       -0.053509027 -0.06622285 0.09846163 -0.10405892
000020 c8 17 80 bd fa db 30 be 40 e5 16 bd 40 47 fc bb
       -0.06254536 -0.17271414 -0.036839724 -0.0076989233
000030 68 b1 55 3e b8 66 ba 3d 10 e9 51 bd a6 83 01 be
       0.20868456 0.09101623 -0.051247656 -0.12647876
000040 00 99 8b bb 88 97 de bd 90 d2 4c 3e 5e 74 48 3e
       -0.0042601824 -0.10868746 0.20002198 0.1957564
000050 6e f9 17 3e 00 44 85 bc fc 2e 76 be 0c 1c e5 3d
       0.14841244 -0.016267776 -0.2404136 0.1118699
000060 20 d1 e6 3c 80 85 af bc b0 d6 a7 bc e0 e8 dc bc
       0.02817589 -0.021425962 -0.020488113 -0.026966512
000070 8e 83 46 3e c0 00 58 3d 0e f8 1d be 0c 96 a2 3d
       0.19386122 0.05273509 -0.15426657 0.079387754
000080 50 50 8b bd c0 ec ed bc 9c ae 2a be 9a 91 32 3e
       -0.06802428 -0.029043555 -0.1666817 0.17438355
000090 08 00 5b 3e 3c cb 8c bd 3c 3d a0 bd e8 84 8a 3d
       0.2138673 -0.068747014 -0.078241795 0.06763631
0000a0 c0 f5 c7 3c b0 f1 bd bd 64 69 45 be a8 e5 fa bd
       0.024409175 -0.09274614 -0.19278485 -0.12250835
0000b0 80 32 3e 3d 08 e2 8a 3d c0 e9 04 3e 12 60 16 be
       0.04643488 0.06781393 0.12979794 -0.14685085
0000c0 62 12 11 3e 58 f6 54 bd b4 b8 45 3e 1e 5f 55 3e
       0.14167169 -0.051992744 0.1930874 0.20837066
0000d0 50 10 af 3c 40 d9 10 3d 2c 39 a8 bd b8 6f 7f bd
       0.021370083 0.035363436 -0.0821403 -0.062362403
0000e0 ea 18 6d 3e 20 4b 04 bd 8c 94 50 be 40 79 8e 3d
       0.23154035 -0.032298207 -0.20369166 0.0695672
0000f0 cc fa 65 3e 80 56 1a 3b 9a bb 6d 3e 2c 96 d6 3d
       0.22458953 0.0023550093 0.23216096 0.10477862
000100 94 83 d4 3d 20 3b 1f bd 34 05 b6 3d e4 14 bc bd
       0.10376659 -0.038874745 0.08887711 -0.09183672
000110 a0 35 4e be 32 8a 6d be 4e bd 7e 3e 60 c8 2d be
       -0.20137644 -0.23197249 0.24876902 -0.16970968
000120 54 42 5a 3e c0 cc 2d 3c 00 55 41 bb 18 78 97 3d
       0.21314365 0.010607898 -0.0029500127 0.07395953
000130 50 17 a4 bc 78 d6 72 3d e8 6f 29 be e0 95 31 3d
       -0.020030648 0.059286565 -0.16546595 0.043355823
000140 40 d0 07 bc 5c e1 6e 3e 24 53 6e 3e fc 1a 45 be
       -0.008289397 0.23328155 0.23273903 -0.19248575
000150 58 92 ce bd dc 19 fb 3d c8 31 0e bd c8 6a 5e bd
       -0.100865066 0.12260792 -0.034715444 -0.054301053
000160 a8 f7 72 bd c4 2a 14 be fe be 3d 3e 78 f5 f8 bd
       -0.059318215 -0.14469439 0.18529889 -0.121561944
000170 a6 62 44 3e b6 9f 1e 3e 04 5d f3 3d 30 df 69 bd
       0.19178256 0.15490612 0.11882976 -0.057097614
000180 fc 65 70 be a2 01 3d be d8 d0 4e be 20 77 ab 3c
       -0.23476404 -0.18457654 -0.20196855 0.020930827
000190 9a ab 44 be 0c d1 56 3e 64 da 43 3e 40 34 65 be
       -0.19206086 0.20978183 0.19126278 -0.22383213
0001a0 50 93 fd bd a0 e5 2d 3c 00 59 64 3d 46 7e 2a 3e
       -0.12381613 0.010613829 0.05574894 0.16649732
0001b0 20 08 16 3e f6 04 26 be e6 64 5d 3e 28 5f 53 3e
       0.14651537 -0.1621283 0.21620521 0.20641768
0001c0 b6 19 34 be be 4c 40 be 40 0f c7 bd 88 b7 3d be
       -0.17587933 -0.18779275 -0.097197056 -0.18527043
0001d0 1c 4b f3 bd de 97 0e 3e 58 72 51 3d d4 63 e4 bd
       -0.1187956 0.1392512 0.051134437 -0.11151853
0001e0 10 89 dc 3c 86 6a 1d be de eb 26 3e 28 20 60 3d
       0.026920825 -0.15372667 0.16300914 0.054718167
0001f0 98 59 6b 3e 10 e5 10 bd 0e 36 74 be a0 8a 87 bd
       0.22983396 -0.0353747 -0.23848745 -0.066182375
000200 44 b9 a9 bd 70 95 99 3c 90 26 bd 3c ec 99 02 be
       -0.0828729 0.018748015 0.023089677 -0.12754029
000210 40 0b 13 3e 28 64 44 3e 08 c0 7a bd 34 bc 68 be
       0.1435976 0.19178832 -0.06121829 -0.22728044
000220 2e bf 01 3e 28 bf a4 bd a0 ae 3e be 54 e4 d7 bd
       0.12670586 -0.08044273 -0.18621302 -0.10541597
000230 1a c9 4a be 5a cc 75 be 48 58 d8 bd c0 8f 26 bd
       -0.19803277 -0.24003735 -0.10563713 -0.040664434
000240 88 62 d6 bd 6c 8f ea 3d d4 51 f1 3d 28 b9 30 3d
       -0.10468012 0.11453137 0.117831856 0.04314533
000250 00 61 83 3b c8 bc 2e 3e 50 ff 72 3e 42 ab 59 3e
       0.004009366 0.17064202 0.23730206 0.21256736
000260 48 86 23 3d 08 65 1b bd 38 11 48 be 84 28 15 be
       0.039922982 -0.037938148 -0.19537818 -0.14566237
000270 20 c9 05 3e 68 21 3e 3e 46 50 74 3e 8c 90 f7 3d
       0.13065004 0.18567431 0.23858747 0.12088117
000280 18 ab 63 3e b4 77 c1 bd 20 f3 fa 3c ca a9 4a 3e
       0.22233236 -0.0944666 0.03063351 0.19791332
000290 90 26 58 3d 60 c5 49 bc 1e 4e 2e 3e 0a f8 13 3e
       0.05277115 -0.012315124 0.17021987 0.14450088
0002a0 94 c3 6c 3e 24 d6 b7 3d 3c 51 0e 3e de 16 2c be
       0.23121482 0.08976391 0.13898176 -0.16805598
0002b0 42 cd 54 be 40 b5 02 3d d2 06 1e 3e 48 cf 8d bd
       -0.20781425 0.031911135 0.15432289 -0.069243014
0002c0 d2 73 67 be b4 81 a2 3d c4 d0 8a bd b8 fc 7c 3e
       -0.22602776 0.07934895 -0.067781 0.2470578
0002d0 34 dc 09 be 50 1e 3f be 9c e1 c6 3d 40 49 25 bd
       -0.13462907 -0.18663907 0.09711 -0.04035306
0002e0 4e e5 5b 3e 58 2c 58 3e 48 b5 97 3d 70 93 91 bc
       0.21474192 0.21110666 0.074076235 -0.017770499
0002f0 00 fe 2c 3e d0 a8 3a 3d ac 27 82 bd 36 38 3a 3e
       0.16893768 0.04557115 -0.06355223 0.18185505
000300 30 50 8c bc bc 4e ac 3d 80 88 fd 3b 04 1c 10 3e
       -0.01712808 0.08413455 0.0077372193 0.14073187
000310 94 d6 c1 3d b2 ed 0b 3e 50 4d 9f bc e0 67 fd 3d
       0.09464756 0.13664892 -0.019446045 0.12373328
000320 fa 09 29 3e f8 58 07 be de 59 38 3e 00 0f ed 3c
       0.16507712 -0.13217533 0.18003032 0.028937817
000330 24 c3 ff 3d 0c 59 6d 3e ba 4b 21 3e b0 9b 66 3e
       0.12488392 0.231785 0.15751544 0.22520328
000340 48 0d 7d 3d c2 52 0b 3e 48 3a db bd 70 3c 1b 3e
       0.061780244 0.13605788 -0.10704476 0.15159774
000350 60 bd 15 bd 90 0d f6 bd 00 15 e7 3c 7c 69 07 3e
       -0.036557555 -0.120143056 0.028208256 0.13223833
000360 40 17 9b bb 9c 6e ca 3d c8 f7 ee 3d 50 20 bc 3d
       -0.004732996 0.09884378 0.11668354 0.091858506
000370 c2 fc 54 3e d0 3a 85 3d 1e 65 21 3e 4c e5 a0 bd
       0.20799544 0.06505358 0.1576123 -0.07856235
000380 ac c7 ea 3d e0 ed c5 bd a0 62 11 bc fc 07 36 be
       0.11463866 -0.09664512 -0.008873612 -0.17776483
000390 d4 7f 25 be 18 d1 13 3e 50 c2 ea 3c be e6 51 be
       -0.16162044 0.14435232 0.028657109 -0.20498177
0003a0 60 e4 55 bc 34 4a 12 be 9c 89 a9 bd f8 3c 6e 3d
       -0.013054937 -0.14286119 -0.082782 0.058163613
0003b0 da 2f 7b be b4 78 ec 3d 94 71 b4 3d 80 cd cd 3b
       -0.24529973 0.1154646 0.08810726 0.006280601
0003c0 f0 c8 79 be 98 77 ae 3d 70 56 63 bd e0 30 b2 3d
       -0.24393058 0.085189044 -0.055502355 0.087007284
0003d0 62 11 72 be b0 9e b0 3d 6c d5 c7 bd 40 2f 88 bb
       -0.23639444 0.08624017 -0.09757504 -0.0041560233
0003e0 ea d6 31 be 4e 04 25 be 18 af 22 be 48 a4 72 3d
       -0.1736714 -0.16114923 -0.15887105 0.059238702
0003f0 9e 7f 75 3e 00 45 99 3d 50 6f fb bc 66 43 66 3e
       0.23974463 0.07483864 -0.030692726 0.22486648

mlp.net.1.weight f4 [64]
000000 00 00 80 3f 00 00 80 3f 00 00 80 3f 00 00 80 3f
       1.0 1.0 1.0 1.0
000010 00 00 80 3f 00 00 80 3f 00 00 80 3f 00 00 80 3f
       1.0 1.0 1.0 1.0
000020 00 00 80 3f 00 00 80 3f 00 00 80 3f 00 00 80 3f
       1.0 1.0 1.0 1.0
000030 00 00 80 3f 00 00 80 3f 00 00 80 3f 00 00 80 3f
       1.0 1.0 1.0 1.0
000040 00 00 80 3f 00 00 80 3f 00 00 80 3f 00 00 80 3f
       1.0 1.0 1.0 1.0
000050 00 00 80 3f 00 00 80 3f 00 00 80 3f 00 00 80 3f
       1.0 1.0 1.0 1.0
000060 00 00 80 3f 00 00 80 3f 00 00 80 3f 00 00 80 3f
       1.0 1.0 1.0 1.0
000070 00 00 80 3f 00 00 80 3f 00 00 80 3f 00 00 80 3f
       1.0 1.0 1.0 1.0
000080 00 00 80 3f 00 00 80 3f 00 00 80 3f 00 00 80 3f
       1.0 1.0 1.0 1.0
000090 00 00 80 3f 00 00 80 3f 00 00 80 3f 00 00 80 3f
       1.0 1.0 1.0 1.0
0000a0 00 00 80 3f 00 00 80 3f 00 00 80 3f 00 00 80 3f
       1.0 1.0 1.0 1.0
0000b0 00 00 80 3f 00 00 80 3f 00 00 80 3f 00 00 80 3f
       1.0 1.0 1.0 1.0
0000c0 00 00 80 3f 00 00 80 3f 00 00 80 3f 00 00 80 3f
       1.0 1.0 1.0 1.0
0000d0 00 00 80 3f 00 00 80 3f 00 00 80 3f 00 00 80 3f
       1.0 1.0 1.0 1.0
0000e0 00 00 80 3f 00 00 80 3f 00 00 80 3f 00 00 80 3f
       1.0 1.0 1.0 1.0
0000f0 00 00 80 3f 00 00 80 3f 00 00 80 3f 00 00 80 3f
       1.0 1.0 1.0 1.0

mlp.net.1.bias f4 [64]
000000 00 00 00 00 00 00 00 00 00 00 00 00 00 00 00 00
       0.0 0.0 0.0 0.0
000010 00 00 00 00 00 00 00 00 00 00 00 00 00 00 00 00
       0.0 0.0 0.0 0.0
000020 00 00 00 00 00 00 00 00 00 00 00 00 00 00 00 00
       0.0 0.0 0.0 0.0
000030 00 00 00 00 00 00 00 00 00 00 00 00 00 00 00 00
       0.0 0.0 0.0 0.0
000040 00 00 00 00 00 00 00 00 00 00 00 00 00 00 00 00
       0.0 0.0 0.0 0.0
000050 00 00 00 00 00 00 00 00 00 00 00 00 00 00 00 00
       0.0 0.0 0.0 0.0
000060 00 00 00 00 00 00 00 00 00 00 00 00 00 00 00 00
       0.0 0.0 0.0 0.0
000070 00 00 00 00 00 00 00 00 00 00 00 00 00 00 00 00
       0.0 0.0 0.0 0.0
000080 00 00 00 00 00 00 00 00 00 00 00 00 00 00 00 00
       0.0 0.0 0.0 0.0
000090 00 00 00 00 00 00 00 00 00 00 00 00 00 00 00 00
       0.0 0.0 0.0 0.0
0000a0 00 00 00 00 00 00 00 00 00 00 00 00 00 00 00 00
       0.0 0.0 0.0 0.0
0000b0 00 00 00 00 00 00 00 00 00 00 00 00 00 00 00 00
       0.0 0.0 0.0 0.0
0000c0 00 00 00 00 00 00 00 00 00 00 00 00 00 00 00 00
       0.0 0.0 0.0 0.0
0000d0 00 00 00 00 00 00 00 00 00 00 00 00 00 00 00 00
       0.0 0.0 0.0 0.0
0000e0 00 00 00 00 00 00 00 00 00 00 00 00 00 00 00 00
       0.0 0.0 0.0 0.0
0000f0 00 00 00 00 00 00 00 00 00 00 00 00 00 00 00 00
       0.0 0.0 0.0 0.0

mlp.net.1.running_mean f4 [64]
000000 00 00 00 00 00 00 00 00 00 00 00 00 00 00 00 00
       0.0 0.0 0.0 0.0
000010 00 00 00 00 00 00 00 00 00 00 00 00 00 00 00 00
       0.0 0.0 0.0 0.0
000020 00 00 00 00 00 00 00 00 00 00 00 00 00 00 00 00
       0.0 0.0 0.0 0.0
000030 00 00 00 00 00 00 00 00 00 00 00 00 00 00 00 00
       0.0 0.0 0.0 0.0
000040 00 00 00 00 00 00 00 00 00 00 00 00 00 00 00 00
       0.0 0.0 0.0 0.0
000050 00 00 00 00 00 00 00 00 00 00 00 00 00 00 00 00
       0.0 0.0 0.0 0.0
000060 00 00 00 00 00 00 00 00 00 00 00 00 00 00 00 00
       0.0 0.0 0.0 0.0
000070 00 00 00 00 00 00 00 00 00 00 00 00 00 00 00 00
       0.0 0.0 0.0 0.0
000080 00 00 00 00 00 00 00 00 00 00 00 00 00 00 00 00
       0.0 0.0 0.0 0.0
000090 00 00 00 00 00 00 00 00 00 00 00 00 00 00 00 00
       0.0 0.0 0.0 0.0
0000a0 00 00 00 00 00 00 00 00 00 00 00 00 00 00 00 00
       0.0 0.0 0.0 0.0
0000b0 00 00 00 00 00 00 00 00 00 00 00 00 00 00 00 00
       0.0 0.0 0.0 0.0
0000c0 00 00 00 00 00 00 00 00 00 00 00 00 00 00 00 00
       0.0 0.0 0.0 0.0
0000d0 00 00 00 00 00 00 00 00 00 00 00 00 00 00 00 00
       0.0 0.0 0.0 0.0
0000e0 00 00 00 00 00 00 00 00 00 00 00 00 00 00 00 00
       0.0 0.0 0.0 0.0
0000f0 00 00 00 00 00 00 00 00 00 00 00 00 00 00 00 00
       0.0 0.0 0.0 0.0

mlp.net.1.running_var f4 [64]
000000 04 00 00 00 04 00 00 00 04 00 00 00 04 00 00 00
       6e-45 6e-45 6e-45 6e-45
000010 04 00 00 00 04 00 00 00 04 00 00 00 04 00 00 00
       6e-45 6e-45 6e-45 6e-45
000020 04 00 00 00 04 00 00 00 04 00 00 00 04 00 00 00
       6e-45 6e-45 6e-45 6e-45
000030 04 00 00 00 04 00 00 00 04 00 00 00 04 00 00 00
       6e-45 6e-45 6e-45 6e-45
000040 04 00 00 00 04 00 00 00 04 00 00 00 04 00 00 00
       6e-45 6e-45 6e-45 6e-45
000050 04 00 00 00 04 00 00 00 04 00 00 00 04 00 00 00
       6e-45 6e-45 6e-45 6e-45
000060 04 00 00 00 04 00 00 00 04 00 00 00 04 00 00 00
       6e-45 6e-45 6e-45 6e-45
000070 04 00 00 00 04 00 00 00 04 00 00 00 04 00 00 00
       6e-45 6e-45 6e-45 6e-45
000080 04 00 00 00 04 00 00 00 04 00 00 00 04 00 00 00
       6e-45 6e-45 6e-45 6e-45
000090 04 00 00 00 04 00 00 00 04 00 00 00 04 00 00 00
       6e-45 6e-45 6e-45 6e-45
0000a0 04 00 00 00 04 00 00 00 04 00 00 00 04 00 00 00
       6e-45 6e-45 6e-45 6e-45
0000b0 04 00 00 00 04 00 00 00 04 00 00 00 04 00 00 00
       6e-45 6e-45 6e-45 6e-45
0000c0 04 00 00 00 04 00 00 00 04 00 00 00 04 00 00 00
       6e-45 6e-45 6e-45 6e-45
0000d0 04 00 00 00 04 00 00 00 04 00 00 00 04 00 00 00
       6e-45 6e-45 6e-45 6e-45
0000e0 04 00 00 00 04 00 00 00 04 00 00 00 04 00 00 00
       6e-45 6e-45 6e-45 6e-45
0000f0 04 00 00 00 04 00 00 00 04 00 00 00 04 00 00 00
       6e-45 6e-45 6e-45 6e-45
